name: "ResNet"
input: "data"
input_dim: 1
input_dim: 3
input_dim: 448
input_dim: 448
layer {
  name: "conv1"
  type: "Convolution"
  bottom: "data"
  top: "conv1"
  convolution_param {
    num_output: 64
    pad: 3
    kernel_size: 7
    stride: 2
    bias_term: false
    weight_filler {
      type: "msra"
    }
  }
}
layer {
	bottom: "conv1"
	top: "bn_conv1"
	name: "bn_conv1"
	type: "BatchNorm"
	include {
		phase: TRAIN
	}
	batch_norm_param {
		use_global_stats: false
	}
	param {
    		lr_mult: 0
  	}
	 param {
    		lr_mult: 0
  	}
  	param {
    		lr_mult: 0
  	}
}

layer {
	bottom: "conv1"
	top: "bn_conv1"
	name: "bn_conv1"
	type: "BatchNorm"
	include {
		phase: TEST
	}
	batch_norm_param {
		use_global_stats: true
	}
	param {
    		lr_mult: 0
  	}
	 param {
    		lr_mult: 0
  	}
  	param {
    		lr_mult: 0
  	}
}

layer {
	bottom: "bn_conv1"
	top: "scale_conv1"
	name: "scale_conv1"
	type: "Scale"
	scale_param {
		bias_term: true
	}
}
layer {
  name: "conv1_relu"
  type: "ReLU"
  bottom: "scale_conv1"
  top: "conv1_relu"
}
layer {
  name: "new_conv1"
  type: "Convolution"
  bottom: "conv1_relu"
  top: "new_conv1"
  convolution_param {
    num_output: 64
    pad: 3
    kernel_size: 7
    stride: 2
    bias_term: false
    weight_filler {
      type: "msra"
    }
  }
}
layer {
	bottom: "new_conv1"
	top: "bn_new_conv1"
	name: "bn_new_conv1"
	type: "BatchNorm"
	include {
		phase: TRAIN
	}
	batch_norm_param {
		use_global_stats: false
	}
	param {
    		lr_mult: 0
  	}
	 param {
    		lr_mult: 0
  	}
  	param {
    		lr_mult: 0
  	}
}

layer {
	bottom: "new_conv1"
	top: "bn_new_conv1"
	name: "bn_new_conv1"
	type: "BatchNorm"
	include {
		phase: TEST
	}
	batch_norm_param {
		use_global_stats: true
	}
	param {
    		lr_mult: 0
  	}
	 param {
    		lr_mult: 0
  	}
  	param {
    		lr_mult: 0
  	}
}

layer {
	bottom: "bn_new_conv1"
	top: "scale_new_conv1"
	name: "scale_new_conv1"
	type: "Scale"
	scale_param {
		bias_term: true
	}
}
layer {
  name: "new_conv1_relu"
  type: "ReLU"
  bottom: "scale_new_conv1"
  top: "new_conv1_relu"
}
layer {
  name: "pool1"
  type: "Pooling"
  bottom: "new_conv1_relu"
  top: "pool1"
  pooling_param {
    pool: MAX
    kernel_size: 3
    stride: 2
  }
}
layer {
  name: "res2a_branch1"
  type: "Convolution"
  bottom: "pool1"
  top: "res2a_branch1"
  convolution_param {
    num_output: 256
    pad: 0
    kernel_size: 1
    stride: 1
    bias_term: false
    weight_filler {
      type: "msra"
    }
  }
}
layer {
	bottom: "res2a_branch1"
	top: "bn2a_branch1"
	name: "bn2a_branch1"
	type: "BatchNorm"
	include {
		phase: TRAIN
	}
	batch_norm_param {
		use_global_stats: false
	}
	param {
    		lr_mult: 0
  	}
	 param {
    		lr_mult: 0
  	}
  	param {
    		lr_mult: 0
  	}
}

layer {
	bottom: "res2a_branch1"
	top: "bn2a_branch1"
	name: "bn2a_branch1"
	type: "BatchNorm"
	include {
		phase: TEST
	}
	batch_norm_param {
		use_global_stats: true
	}
	param {
    		lr_mult: 0
  	}
	 param {
    		lr_mult: 0
  	}
  	param {
    		lr_mult: 0
  	}
}

layer {
	bottom: "bn2a_branch1"
	top: "scale2a_branch1"
	name: "scale2a_branch1"
	type: "Scale"
	scale_param {
		bias_term: true
	}
}
layer {
  name: "res2a_branch2a"
  type: "Convolution"
  bottom: "pool1"
  top: "res2a_branch2a"
  convolution_param {
    num_output: 64
    pad: 0
    kernel_size: 1
    stride: 1
    bias_term: false
    weight_filler {
      type: "msra"
    }
  }
}
layer {
	bottom: "res2a_branch2a"
	top: "bn2a_branch2a"
	name: "bn2a_branch2a"
	type: "BatchNorm"
	include {
		phase: TRAIN
	}
	batch_norm_param {
		use_global_stats: false
	}
	param {
    		lr_mult: 0
  	}
	 param {
    		lr_mult: 0
  	}
  	param {
    		lr_mult: 0
  	}
}

layer {
	bottom: "res2a_branch2a"
	top: "bn2a_branch2a"
	name: "bn2a_branch2a"
	type: "BatchNorm"
	include {
		phase: TEST
	}
	batch_norm_param {
		use_global_stats: true
	}
	param {
    		lr_mult: 0
  	}
	 param {
    		lr_mult: 0
  	}
  	param {
    		lr_mult: 0
  	}
}

layer {
	bottom: "bn2a_branch2a"
	top: "scale2a_branch2a"
	name: "scale2a_branch2a"
	type: "Scale"
	scale_param {
		bias_term: true
	}
}
layer {
  name: "res2a_branch2a_relu"
  type: "ReLU"
  bottom: "scale2a_branch2a"
  top: "res2a_branch2a_relu"
}
layer {
  name: "res2a_branch2b"
  type: "Convolution"
  bottom: "res2a_branch2a_relu"
  top: "res2a_branch2b"
  convolution_param {
    num_output: 64
    pad: 1
    kernel_size: 3
    stride: 1
    bias_term: false
    weight_filler {
      type: "msra"
    }
  }
}
layer {
	bottom: "res2a_branch2b"
	top: "bn2a_branch2b"
	name: "bn2a_branch2b"
	type: "BatchNorm"
	include {
		phase: TRAIN
	}
	batch_norm_param {
		use_global_stats: false
	}
	param {
    		lr_mult: 0
  	}
	 param {
    		lr_mult: 0
  	}
  	param {
    		lr_mult: 0
  	}
}

layer {
	bottom: "res2a_branch2b"
	top: "bn2a_branch2b"
	name: "bn2a_branch2b"
	type: "BatchNorm"
	include {
		phase: TEST
	}
	batch_norm_param {
		use_global_stats: true
	}
	param {
    		lr_mult: 0
  	}
	 param {
    		lr_mult: 0
  	}
  	param {
    		lr_mult: 0
  	}
}

layer {
	bottom: "bn2a_branch2b"
	top: "scale2a_branch2b"
	name: "scale2a_branch2b"
	type: "Scale"
	scale_param {
		bias_term: true
	}
}
layer {
  name: "res2a_branch2b_relu"
  type: "ReLU"
  bottom: "scale2a_branch2b"
  top: "res2a_branch2b_relu"
}
layer {
  name: "res2a_branch2c"
  type: "Convolution"
  bottom: "res2a_branch2b_relu"
  top: "res2a_branch2c"
  convolution_param {
    num_output: 256
    pad: 0
    kernel_size: 1
    stride: 1
    bias_term: false
    weight_filler {
      type: "msra"
    }
  }
}
layer {
	bottom: "res2a_branch2c"
	top: "bn2a_branch2c"
	name: "bn2a_branch2c"
	type: "BatchNorm"
	include {
		phase: TRAIN
	}
	batch_norm_param {
		use_global_stats: false
	}
	param {
    		lr_mult: 0
  	}
	 param {
    		lr_mult: 0
  	}
  	param {
    		lr_mult: 0
  	}
}

layer {
	bottom: "res2a_branch2c"
	top: "bn2a_branch2c"
	name: "bn2a_branch2c"
	type: "BatchNorm"
	include {
		phase: TEST
	}
	batch_norm_param {
		use_global_stats: true
	}
	param {
    		lr_mult: 0
  	}
	 param {
    		lr_mult: 0
  	}
  	param {
    		lr_mult: 0
  	}
}

layer {
	bottom: "bn2a_branch2c"
	top: "scale2a_branch2c"
	name: "scale2a_branch2c"
	type: "Scale"
	scale_param {
		bias_term: true
	}
}
layer {
  type: "Eltwise"
  bottom: "scale2a_branch1"
  bottom: "scale2a_branch2c"
  name: "res2a"
  top: "res2a"
}
layer {
  name: "res2a_relu"
  type: "ReLU"
  bottom: "res2a"
  top: "res2a_relu"
}
layer {
  name: "res2b_branch2a"
  type: "Convolution"
  bottom: "res2a_relu"
  top: "res2b_branch2a"
  convolution_param {
    num_output: 64
    pad: 0
    kernel_size: 1
    stride: 1
    bias_term: false
    weight_filler {
      type: "msra"
    }
  }
}
layer {
	bottom: "res2b_branch2a"
	top: "bn2b_branch2a"
	name: "bn2b_branch2a"
	type: "BatchNorm"
	include {
		phase: TRAIN
	}
	batch_norm_param {
		use_global_stats: false
	}
	param {
    		lr_mult: 0
  	}
	 param {
    		lr_mult: 0
  	}
  	param {
    		lr_mult: 0
  	}
}

layer {
	bottom: "res2b_branch2a"
	top: "bn2b_branch2a"
	name: "bn2b_branch2a"
	type: "BatchNorm"
	include {
		phase: TEST
	}
	batch_norm_param {
		use_global_stats: true
	}
	param {
    		lr_mult: 0
  	}
	 param {
    		lr_mult: 0
  	}
  	param {
    		lr_mult: 0
  	}
}

layer {
	bottom: "bn2b_branch2a"
	top: "scale2b_branch2a"
	name: "scale2b_branch2a"
	type: "Scale"
	scale_param {
		bias_term: true
	}
}
layer {
  name: "res2b_branch2a_relu"
  type: "ReLU"
  bottom: "scale2b_branch2a"
  top: "res2b_branch2a_relu"
}
layer {
  name: "res2b_branch2b"
  type: "Convolution"
  bottom: "res2b_branch2a_relu"
  top: "res2b_branch2b"
  convolution_param {
    num_output: 64
    pad: 1
    kernel_size: 3
    stride: 1
    bias_term: false
    weight_filler {
      type: "msra"
    }
  }
}
layer {
	bottom: "res2b_branch2b"
	top: "bn2b_branch2b"
	name: "bn2b_branch2b"
	type: "BatchNorm"
	include {
		phase: TRAIN
	}
	batch_norm_param {
		use_global_stats: false
	}
	param {
    		lr_mult: 0
  	}
	 param {
    		lr_mult: 0
  	}
  	param {
    		lr_mult: 0
  	}
}

layer {
	bottom: "res2b_branch2b"
	top: "bn2b_branch2b"
	name: "bn2b_branch2b"
	type: "BatchNorm"
	include {
		phase: TEST
	}
	batch_norm_param {
		use_global_stats: true
	}
	param {
    		lr_mult: 0
  	}
	 param {
    		lr_mult: 0
  	}
  	param {
    		lr_mult: 0
  	}
}

layer {
	bottom: "bn2b_branch2b"
	top: "scale2b_branch2b"
	name: "scale2b_branch2b"
	type: "Scale"
	scale_param {
		bias_term: true
	}
}
layer {
  name: "res2b_branch2b_relu"
  type: "ReLU"
  bottom: "scale2b_branch2b"
  top: "res2b_branch2b_relu"
}
layer {
  name: "res2b_branch2c"
  type: "Convolution"
  bottom: "res2b_branch2b_relu"
  top: "res2b_branch2c"
  convolution_param {
    num_output: 256
    pad: 0
    kernel_size: 1
    stride: 1
    bias_term: false
    weight_filler {
      type: "msra"
    }
  }
}
layer {
	bottom: "res2b_branch2c"
	top: "bn2b_branch2c"
	name: "bn2b_branch2c"
	type: "BatchNorm"
	include {
		phase: TRAIN
	}
	batch_norm_param {
		use_global_stats: false
	}
	param {
    		lr_mult: 0
  	}
	 param {
    		lr_mult: 0
  	}
  	param {
    		lr_mult: 0
  	}
}

layer {
	bottom: "res2b_branch2c"
	top: "bn2b_branch2c"
	name: "bn2b_branch2c"
	type: "BatchNorm"
	include {
		phase: TEST
	}
	batch_norm_param {
		use_global_stats: true
	}
	param {
    		lr_mult: 0
  	}
	 param {
    		lr_mult: 0
  	}
  	param {
    		lr_mult: 0
  	}
}

layer {
	bottom: "bn2b_branch2c"
	top: "scale2b_branch2c"
	name: "scale2b_branch2c"
	type: "Scale"
	scale_param {
		bias_term: true
	}
}
layer {
  type: "Eltwise"
  bottom: "res2a_relu"
  bottom: "scale2b_branch2c"
  name: "res2b"
  top: "res2b"
}
layer {
  name: "res2b_relu"
  type: "ReLU"
  bottom: "res2b"
  top: "res2b_relu"
}
layer {
  name: "res2c_branch2a"
  type: "Convolution"
  bottom: "res2b_relu"
  top: "res2c_branch2a"
  convolution_param {
    num_output: 64
    pad: 0
    kernel_size: 1
    stride: 1
    bias_term: false
    weight_filler {
      type: "msra"
    }
  }
}
layer {
	bottom: "res2c_branch2a"
	top: "bn2c_branch2a"
	name: "bn2c_branch2a"
	type: "BatchNorm"
	include {
		phase: TRAIN
	}
	batch_norm_param {
		use_global_stats: false
	}
	param {
    		lr_mult: 0
  	}
	 param {
    		lr_mult: 0
  	}
  	param {
    		lr_mult: 0
  	}
}

layer {
	bottom: "res2c_branch2a"
	top: "bn2c_branch2a"
	name: "bn2c_branch2a"
	type: "BatchNorm"
	include {
		phase: TEST
	}
	batch_norm_param {
		use_global_stats: true
	}
	param {
    		lr_mult: 0
  	}
	 param {
    		lr_mult: 0
  	}
  	param {
    		lr_mult: 0
  	}
}

layer {
	bottom: "bn2c_branch2a"
	top: "scale2c_branch2a"
	name: "scale2c_branch2a"
	type: "Scale"
	scale_param {
		bias_term: true
	}
}
layer {
  name: "res2c_branch2a_relu"
  type: "ReLU"
  bottom: "scale2c_branch2a"
  top: "res2c_branch2a_relu"
}
layer {
  name: "res2c_branch2b"
  type: "Convolution"
  bottom: "res2c_branch2a_relu"
  top: "res2c_branch2b"
  convolution_param {
    num_output: 64
    pad: 1
    kernel_size: 3
    stride: 1
    bias_term: false
    weight_filler {
      type: "msra"
    }
  }
}
layer {
	bottom: "res2c_branch2b"
	top: "bn2c_branch2b"
	name: "bn2c_branch2b"
	type: "BatchNorm"
	include {
		phase: TRAIN
	}
	batch_norm_param {
		use_global_stats: false
	}
	param {
    		lr_mult: 0
  	}
	 param {
    		lr_mult: 0
  	}
  	param {
    		lr_mult: 0
  	}
}

layer {
	bottom: "res2c_branch2b"
	top: "bn2c_branch2b"
	name: "bn2c_branch2b"
	type: "BatchNorm"
	include {
		phase: TEST
	}
	batch_norm_param {
		use_global_stats: true
	}
	param {
    		lr_mult: 0
  	}
	 param {
    		lr_mult: 0
  	}
  	param {
    		lr_mult: 0
  	}
}

layer {
	bottom: "bn2c_branch2b"
	top: "scale2c_branch2b"
	name: "scale2c_branch2b"
	type: "Scale"
	scale_param {
		bias_term: true
	}
}
layer {
  name: "res2c_branch2b_relu"
  type: "ReLU"
  bottom: "scale2c_branch2b"
  top: "res2c_branch2b_relu"
}
layer {
  name: "res2c_branch2c"
  type: "Convolution"
  bottom: "res2c_branch2b_relu"
  top: "res2c_branch2c"
  convolution_param {
    num_output: 256
    pad: 0
    kernel_size: 1
    stride: 1
    bias_term: false
    weight_filler {
      type: "msra"
    }
  }
}
layer {
	bottom: "res2c_branch2c"
	top: "bn2c_branch2c"
	name: "bn2c_branch2c"
	type: "BatchNorm"
	include {
		phase: TRAIN
	}
	batch_norm_param {
		use_global_stats: false
	}
	param {
    		lr_mult: 0
  	}
	 param {
    		lr_mult: 0
  	}
  	param {
    		lr_mult: 0
  	}
}

layer {
	bottom: "res2c_branch2c"
	top: "bn2c_branch2c"
	name: "bn2c_branch2c"
	type: "BatchNorm"
	include {
		phase: TEST
	}
	batch_norm_param {
		use_global_stats: true
	}
	param {
    		lr_mult: 0
  	}
	 param {
    		lr_mult: 0
  	}
  	param {
    		lr_mult: 0
  	}
}

layer {
	bottom: "bn2c_branch2c"
	top: "scale2c_branch2c"
	name: "scale2c_branch2c"
	type: "Scale"
	scale_param {
		bias_term: true
	}
}
layer {
  type: "Eltwise"
  bottom: "res2b_relu"
  bottom: "scale2c_branch2c"
  name: "res2c"
  top: "res2c"
}
layer {
  name: "res2c_relu"
  type: "ReLU"
  bottom: "res2c"
  top: "res2c_relu"
}
layer {
  name: "res3_1_branch1"
  type: "Convolution"
  bottom: "res2c_relu"
  top: "res3_1_branch1"
  convolution_param {
    num_output: 512
    pad: 0
    kernel_size: 1
    stride: 2
    bias_term: false
    weight_filler {
      type: "msra"
    }
  }
}
layer {
	bottom: "res3_1_branch1"
	top: "bn3_1_branch1"
	name: "bn3_1_branch1"
	type: "BatchNorm"
	include {
		phase: TRAIN
	}
	batch_norm_param {
		use_global_stats: false
	}
	param {
    		lr_mult: 0
  	}
	 param {
    		lr_mult: 0
  	}
  	param {
    		lr_mult: 0
  	}
}

layer {
	bottom: "res3_1_branch1"
	top: "bn3_1_branch1"
	name: "bn3_1_branch1"
	type: "BatchNorm"
	include {
		phase: TEST
	}
	batch_norm_param {
		use_global_stats: true
	}
	param {
    		lr_mult: 0
  	}
	 param {
    		lr_mult: 0
  	}
  	param {
    		lr_mult: 0
  	}
}

layer {
	bottom: "bn3_1_branch1"
	top: "scale3_1_branch1"
	name: "scale3_1_branch1"
	type: "Scale"
	scale_param {
		bias_term: true
	}
}
layer {
  name: "res3_1_branch2a"
  type: "Convolution"
  bottom: "res2c_relu"
  top: "res3_1_branch2a"
  convolution_param {
    num_output: 128
    pad: 0
    kernel_size: 1
    stride: 2
    bias_term: false
    weight_filler {
      type: "msra"
    }
  }
}
layer {
	bottom: "res3_1_branch2a"
	top: "bn3_1_branch2a"
	name: "bn3_1_branch2a"
	type: "BatchNorm"
	include {
		phase: TRAIN
	}
	batch_norm_param {
		use_global_stats: false
	}
	param {
    		lr_mult: 0
  	}
	 param {
    		lr_mult: 0
  	}
  	param {
    		lr_mult: 0
  	}
}

layer {
	bottom: "res3_1_branch2a"
	top: "bn3_1_branch2a"
	name: "bn3_1_branch2a"
	type: "BatchNorm"
	include {
		phase: TEST
	}
	batch_norm_param {
		use_global_stats: true
	}
	param {
    		lr_mult: 0
  	}
	 param {
    		lr_mult: 0
  	}
  	param {
    		lr_mult: 0
  	}
}

layer {
	bottom: "bn3_1_branch2a"
	top: "scale3_1_branch2a"
	name: "scale3_1_branch2a"
	type: "Scale"
	scale_param {
		bias_term: true
	}
}
layer {
  name: "res3_1_branch2a_relu"
  type: "ReLU"
  bottom: "scale3_1_branch2a"
  top: "res3_1_branch2a_relu"
}
layer {
  name: "res3_1_branch2b"
  type: "Convolution"
  bottom: "res3_1_branch2a_relu"
  top: "res3_1_branch2b"
  convolution_param {
    num_output: 128
    pad: 1
    kernel_size: 3
    stride: 1
    bias_term: false
    weight_filler {
      type: "msra"
    }
  }
}
layer {
	bottom: "res3_1_branch2b"
	top: "bn3_1_branch2b"
	name: "bn3_1_branch2b"
	type: "BatchNorm"
	include {
		phase: TRAIN
	}
	batch_norm_param {
		use_global_stats: false
	}
	param {
    		lr_mult: 0
  	}
	 param {
    		lr_mult: 0
  	}
  	param {
    		lr_mult: 0
  	}
}

layer {
	bottom: "res3_1_branch2b"
	top: "bn3_1_branch2b"
	name: "bn3_1_branch2b"
	type: "BatchNorm"
	include {
		phase: TEST
	}
	batch_norm_param {
		use_global_stats: true
	}
	param {
    		lr_mult: 0
  	}
	 param {
    		lr_mult: 0
  	}
  	param {
    		lr_mult: 0
  	}
}

layer {
	bottom: "bn3_1_branch2b"
	top: "scale3_1_branch2b"
	name: "scale3_1_branch2b"
	type: "Scale"
	scale_param {
		bias_term: true
	}
}
layer {
  name: "res3_1_branch2b_relu"
  type: "ReLU"
  bottom: "scale3_1_branch2b"
  top: "res3_1_branch2b_relu"
}
layer {
  name: "res3_1_branch2c"
  type: "Convolution"
  bottom: "res3_1_branch2b_relu"
  top: "res3_1_branch2c"
  convolution_param {
    num_output: 512
    pad: 0
    kernel_size: 1
    stride: 1
    bias_term: false
    weight_filler {
      type: "msra"
    }
  }
}
layer {
	bottom: "res3_1_branch2c"
	top: "bn3_1_branch2c"
	name: "bn3_1_branch2c"
	type: "BatchNorm"
	include {
		phase: TRAIN
	}
	batch_norm_param {
		use_global_stats: false
	}
	param {
    		lr_mult: 0
  	}
	 param {
    		lr_mult: 0
  	}
  	param {
    		lr_mult: 0
  	}
}

layer {
	bottom: "res3_1_branch2c"
	top: "bn3_1_branch2c"
	name: "bn3_1_branch2c"
	type: "BatchNorm"
	include {
		phase: TEST
	}
	batch_norm_param {
		use_global_stats: true
	}
	param {
    		lr_mult: 0
  	}
	 param {
    		lr_mult: 0
  	}
  	param {
    		lr_mult: 0
  	}
}

layer {
	bottom: "bn3_1_branch2c"
	top: "scale3_1_branch2c"
	name: "scale3_1_branch2c"
	type: "Scale"
	scale_param {
		bias_term: true
	}
}
layer {
  type: "Eltwise"
  bottom: "scale3_1_branch1"
  bottom: "scale3_1_branch2c"
  name: "res3_1"
  top: "res3_1"
}
layer {
  name: "res3_1_relu"
  type: "ReLU"
  bottom: "res3_1"
  top: "res3_1_relu"
}
layer {
  name: "res3_2_branch2a"
  type: "Convolution"
  bottom: "res3_1_relu"
  top: "res3_2_branch2a"
  convolution_param {
    num_output: 128
    pad: 0
    kernel_size: 1
    stride: 1
    bias_term: false
    weight_filler {
      type: "msra"
    }
  }
}
layer {
	bottom: "res3_2_branch2a"
	top: "bn3_2_branch2a"
	name: "bn3_2_branch2a"
	type: "BatchNorm"
	include {
		phase: TRAIN
	}
	batch_norm_param {
		use_global_stats: false
	}
	param {
    		lr_mult: 0
  	}
	 param {
    		lr_mult: 0
  	}
  	param {
    		lr_mult: 0
  	}
}

layer {
	bottom: "res3_2_branch2a"
	top: "bn3_2_branch2a"
	name: "bn3_2_branch2a"
	type: "BatchNorm"
	include {
		phase: TEST
	}
	batch_norm_param {
		use_global_stats: true
	}
	param {
    		lr_mult: 0
  	}
	 param {
    		lr_mult: 0
  	}
  	param {
    		lr_mult: 0
  	}
}

layer {
	bottom: "bn3_2_branch2a"
	top: "scale3_2_branch2a"
	name: "scale3_2_branch2a"
	type: "Scale"
	scale_param {
		bias_term: true
	}
}
layer {
  name: "res3_2_branch2a_relu"
  type: "ReLU"
  bottom: "scale3_2_branch2a"
  top: "res3_2_branch2a_relu"
}
layer {
  name: "res3_2_branch2b"
  type: "Convolution"
  bottom: "res3_2_branch2a_relu"
  top: "res3_2_branch2b"
  convolution_param {
    num_output: 128
    pad: 1
    kernel_size: 3
    stride: 1
    bias_term: false
    weight_filler {
      type: "msra"
    }
  }
}
layer {
	bottom: "res3_2_branch2b"
	top: "bn3_2_branch2b"
	name: "bn3_2_branch2b"
	type: "BatchNorm"
	include {
		phase: TRAIN
	}
	batch_norm_param {
		use_global_stats: false
	}
	param {
    		lr_mult: 0
  	}
	 param {
    		lr_mult: 0
  	}
  	param {
    		lr_mult: 0
  	}
}

layer {
	bottom: "res3_2_branch2b"
	top: "bn3_2_branch2b"
	name: "bn3_2_branch2b"
	type: "BatchNorm"
	include {
		phase: TEST
	}
	batch_norm_param {
		use_global_stats: true
	}
	param {
    		lr_mult: 0
  	}
	 param {
    		lr_mult: 0
  	}
  	param {
    		lr_mult: 0
  	}
}

layer {
	bottom: "bn3_2_branch2b"
	top: "scale3_2_branch2b"
	name: "scale3_2_branch2b"
	type: "Scale"
	scale_param {
		bias_term: true
	}
}
layer {
  name: "res3_2_branch2b_relu"
  type: "ReLU"
  bottom: "scale3_2_branch2b"
  top: "res3_2_branch2b_relu"
}
layer {
  name: "res3_2_branch2c"
  type: "Convolution"
  bottom: "res3_2_branch2b_relu"
  top: "res3_2_branch2c"
  convolution_param {
    num_output: 512
    pad: 0
    kernel_size: 1
    stride: 1
    bias_term: false
    weight_filler {
      type: "msra"
    }
  }
}
layer {
	bottom: "res3_2_branch2c"
	top: "bn3_2_branch2c"
	name: "bn3_2_branch2c"
	type: "BatchNorm"
	include {
		phase: TRAIN
	}
	batch_norm_param {
		use_global_stats: false
	}
	param {
    		lr_mult: 0
  	}
	 param {
    		lr_mult: 0
  	}
  	param {
    		lr_mult: 0
  	}
}

layer {
	bottom: "res3_2_branch2c"
	top: "bn3_2_branch2c"
	name: "bn3_2_branch2c"
	type: "BatchNorm"
	include {
		phase: TEST
	}
	batch_norm_param {
		use_global_stats: true
	}
	param {
    		lr_mult: 0
  	}
	 param {
    		lr_mult: 0
  	}
  	param {
    		lr_mult: 0
  	}
}

layer {
	bottom: "bn3_2_branch2c"
	top: "scale3_2_branch2c"
	name: "scale3_2_branch2c"
	type: "Scale"
	scale_param {
		bias_term: true
	}
}
layer {
  type: "Eltwise"
  bottom: "res3_1_relu"
  bottom: "scale3_2_branch2c"
  name: "res3_2"
  top: "res3_2"
}
layer {
  name: "res3_2_relu"
  type: "ReLU"
  bottom: "res3_2"
  top: "res3_2_relu"
}
layer {
  name: "res3_3_branch2a"
  type: "Convolution"
  bottom: "res3_2_relu"
  top: "res3_3_branch2a"
  convolution_param {
    num_output: 128
    pad: 0
    kernel_size: 1
    stride: 1
    bias_term: false
    weight_filler {
      type: "msra"
    }
  }
}
layer {
	bottom: "res3_3_branch2a"
	top: "bn3_3_branch2a"
	name: "bn3_3_branch2a"
	type: "BatchNorm"
	include {
		phase: TRAIN
	}
	batch_norm_param {
		use_global_stats: false
	}
	param {
    		lr_mult: 0
  	}
	 param {
    		lr_mult: 0
  	}
  	param {
    		lr_mult: 0
  	}
}

layer {
	bottom: "res3_3_branch2a"
	top: "bn3_3_branch2a"
	name: "bn3_3_branch2a"
	type: "BatchNorm"
	include {
		phase: TEST
	}
	batch_norm_param {
		use_global_stats: true
	}
	param {
    		lr_mult: 0
  	}
	 param {
    		lr_mult: 0
  	}
  	param {
    		lr_mult: 0
  	}
}

layer {
	bottom: "bn3_3_branch2a"
	top: "scale3_3_branch2a"
	name: "scale3_3_branch2a"
	type: "Scale"
	scale_param {
		bias_term: true
	}
}
layer {
  name: "res3_3_branch2a_relu"
  type: "ReLU"
  bottom: "scale3_3_branch2a"
  top: "res3_3_branch2a_relu"
}
layer {
  name: "res3_3_branch2b"
  type: "Convolution"
  bottom: "res3_3_branch2a_relu"
  top: "res3_3_branch2b"
  convolution_param {
    num_output: 128
    pad: 1
    kernel_size: 3
    stride: 1
    bias_term: false
    weight_filler {
      type: "msra"
    }
  }
}
layer {
	bottom: "res3_3_branch2b"
	top: "bn3_3_branch2b"
	name: "bn3_3_branch2b"
	type: "BatchNorm"
	include {
		phase: TRAIN
	}
	batch_norm_param {
		use_global_stats: false
	}
	param {
    		lr_mult: 0
  	}
	 param {
    		lr_mult: 0
  	}
  	param {
    		lr_mult: 0
  	}
}

layer {
	bottom: "res3_3_branch2b"
	top: "bn3_3_branch2b"
	name: "bn3_3_branch2b"
	type: "BatchNorm"
	include {
		phase: TEST
	}
	batch_norm_param {
		use_global_stats: true
	}
	param {
    		lr_mult: 0
  	}
	 param {
    		lr_mult: 0
  	}
  	param {
    		lr_mult: 0
  	}
}

layer {
	bottom: "bn3_3_branch2b"
	top: "scale3_3_branch2b"
	name: "scale3_3_branch2b"
	type: "Scale"
	scale_param {
		bias_term: true
	}
}
layer {
  name: "res3_3_branch2b_relu"
  type: "ReLU"
  bottom: "scale3_3_branch2b"
  top: "res3_3_branch2b_relu"
}
layer {
  name: "res3_3_branch2c"
  type: "Convolution"
  bottom: "res3_3_branch2b_relu"
  top: "res3_3_branch2c"
  convolution_param {
    num_output: 512
    pad: 0
    kernel_size: 1
    stride: 1
    bias_term: false
    weight_filler {
      type: "msra"
    }
  }
}
layer {
	bottom: "res3_3_branch2c"
	top: "bn3_3_branch2c"
	name: "bn3_3_branch2c"
	type: "BatchNorm"
	include {
		phase: TRAIN
	}
	batch_norm_param {
		use_global_stats: false
	}
	param {
    		lr_mult: 0
  	}
	 param {
    		lr_mult: 0
  	}
  	param {
    		lr_mult: 0
  	}
}

layer {
	bottom: "res3_3_branch2c"
	top: "bn3_3_branch2c"
	name: "bn3_3_branch2c"
	type: "BatchNorm"
	include {
		phase: TEST
	}
	batch_norm_param {
		use_global_stats: true
	}
	param {
    		lr_mult: 0
  	}
	 param {
    		lr_mult: 0
  	}
  	param {
    		lr_mult: 0
  	}
}

layer {
	bottom: "bn3_3_branch2c"
	top: "scale3_3_branch2c"
	name: "scale3_3_branch2c"
	type: "Scale"
	scale_param {
		bias_term: true
	}
}
layer {
  type: "Eltwise"
  bottom: "res3_2_relu"
  bottom: "scale3_3_branch2c"
  name: "res3_3"
  top: "res3_3"
}
layer {
  name: "res3_3_relu"
  type: "ReLU"
  bottom: "res3_3"
  top: "res3_3_relu"
}
layer {
  name: "res3_4_branch2a"
  type: "Convolution"
  bottom: "res3_3_relu"
  top: "res3_4_branch2a"
  convolution_param {
    num_output: 128
    pad: 0
    kernel_size: 1
    stride: 1
    bias_term: false
    weight_filler {
      type: "msra"
    }
  }
}
layer {
	bottom: "res3_4_branch2a"
	top: "bn3_4_branch2a"
	name: "bn3_4_branch2a"
	type: "BatchNorm"
	include {
		phase: TRAIN
	}
	batch_norm_param {
		use_global_stats: false
	}
	param {
    		lr_mult: 0
  	}
	 param {
    		lr_mult: 0
  	}
  	param {
    		lr_mult: 0
  	}
}

layer {
	bottom: "res3_4_branch2a"
	top: "bn3_4_branch2a"
	name: "bn3_4_branch2a"
	type: "BatchNorm"
	include {
		phase: TEST
	}
	batch_norm_param {
		use_global_stats: true
	}
	param {
    		lr_mult: 0
  	}
	 param {
    		lr_mult: 0
  	}
  	param {
    		lr_mult: 0
  	}
}

layer {
	bottom: "bn3_4_branch2a"
	top: "scale3_4_branch2a"
	name: "scale3_4_branch2a"
	type: "Scale"
	scale_param {
		bias_term: true
	}
}
layer {
  name: "res3_4_branch2a_relu"
  type: "ReLU"
  bottom: "scale3_4_branch2a"
  top: "res3_4_branch2a_relu"
}
layer {
  name: "res3_4_branch2b"
  type: "Convolution"
  bottom: "res3_4_branch2a_relu"
  top: "res3_4_branch2b"
  convolution_param {
    num_output: 128
    pad: 1
    kernel_size: 3
    stride: 1
    bias_term: false
    weight_filler {
      type: "msra"
    }
  }
}
layer {
	bottom: "res3_4_branch2b"
	top: "bn3_4_branch2b"
	name: "bn3_4_branch2b"
	type: "BatchNorm"
	include {
		phase: TRAIN
	}
	batch_norm_param {
		use_global_stats: false
	}
	param {
    		lr_mult: 0
  	}
	 param {
    		lr_mult: 0
  	}
  	param {
    		lr_mult: 0
  	}
}

layer {
	bottom: "res3_4_branch2b"
	top: "bn3_4_branch2b"
	name: "bn3_4_branch2b"
	type: "BatchNorm"
	include {
		phase: TEST
	}
	batch_norm_param {
		use_global_stats: true
	}
	param {
    		lr_mult: 0
  	}
	 param {
    		lr_mult: 0
  	}
  	param {
    		lr_mult: 0
  	}
}

layer {
	bottom: "bn3_4_branch2b"
	top: "scale3_4_branch2b"
	name: "scale3_4_branch2b"
	type: "Scale"
	scale_param {
		bias_term: true
	}
}
layer {
  name: "res3_4_branch2b_relu"
  type: "ReLU"
  bottom: "scale3_4_branch2b"
  top: "res3_4_branch2b_relu"
}
layer {
  name: "res3_4_branch2c"
  type: "Convolution"
  bottom: "res3_4_branch2b_relu"
  top: "res3_4_branch2c"
  convolution_param {
    num_output: 512
    pad: 0
    kernel_size: 1
    stride: 1
    bias_term: false
    weight_filler {
      type: "msra"
    }
  }
}
layer {
	bottom: "res3_4_branch2c"
	top: "bn3_4_branch2c"
	name: "bn3_4_branch2c"
	type: "BatchNorm"
	include {
		phase: TRAIN
	}
	batch_norm_param {
		use_global_stats: false
	}
	param {
    		lr_mult: 0
  	}
	 param {
    		lr_mult: 0
  	}
  	param {
    		lr_mult: 0
  	}
}

layer {
	bottom: "res3_4_branch2c"
	top: "bn3_4_branch2c"
	name: "bn3_4_branch2c"
	type: "BatchNorm"
	include {
		phase: TEST
	}
	batch_norm_param {
		use_global_stats: true
	}
	param {
    		lr_mult: 0
  	}
	 param {
    		lr_mult: 0
  	}
  	param {
    		lr_mult: 0
  	}
}

layer {
	bottom: "bn3_4_branch2c"
	top: "scale3_4_branch2c"
	name: "scale3_4_branch2c"
	type: "Scale"
	scale_param {
		bias_term: true
	}
}
layer {
  type: "Eltwise"
  bottom: "res3_3_relu"
  bottom: "scale3_4_branch2c"
  name: "res3_4"
  top: "res3_4"
}
layer {
  name: "res3_4_relu"
  type: "ReLU"
  bottom: "res3_4"
  top: "res3_4_relu"
}
layer {
  name: "res3_5_branch2a"
  type: "Convolution"
  bottom: "res3_4_relu"
  top: "res3_5_branch2a"
  convolution_param {
    num_output: 128
    pad: 0
    kernel_size: 1
    stride: 1
    bias_term: false
    weight_filler {
      type: "msra"
    }
  }
}
layer {
	bottom: "res3_5_branch2a"
	top: "bn3_5_branch2a"
	name: "bn3_5_branch2a"
	type: "BatchNorm"
	include {
		phase: TRAIN
	}
	batch_norm_param {
		use_global_stats: false
	}
	param {
    		lr_mult: 0
  	}
	 param {
    		lr_mult: 0
  	}
  	param {
    		lr_mult: 0
  	}
}

layer {
	bottom: "res3_5_branch2a"
	top: "bn3_5_branch2a"
	name: "bn3_5_branch2a"
	type: "BatchNorm"
	include {
		phase: TEST
	}
	batch_norm_param {
		use_global_stats: true
	}
	param {
    		lr_mult: 0
  	}
	 param {
    		lr_mult: 0
  	}
  	param {
    		lr_mult: 0
  	}
}

layer {
	bottom: "bn3_5_branch2a"
	top: "scale3_5_branch2a"
	name: "scale3_5_branch2a"
	type: "Scale"
	scale_param {
		bias_term: true
	}
}
layer {
  name: "res3_5_branch2a_relu"
  type: "ReLU"
  bottom: "scale3_5_branch2a"
  top: "res3_5_branch2a_relu"
}
layer {
  name: "res3_5_branch2b"
  type: "Convolution"
  bottom: "res3_5_branch2a_relu"
  top: "res3_5_branch2b"
  convolution_param {
    num_output: 128
    pad: 1
    kernel_size: 3
    stride: 1
    bias_term: false
    weight_filler {
      type: "msra"
    }
  }
}
layer {
	bottom: "res3_5_branch2b"
	top: "bn3_5_branch2b"
	name: "bn3_5_branch2b"
	type: "BatchNorm"
	include {
		phase: TRAIN
	}
	batch_norm_param {
		use_global_stats: false
	}
	param {
    		lr_mult: 0
  	}
	 param {
    		lr_mult: 0
  	}
  	param {
    		lr_mult: 0
  	}
}

layer {
	bottom: "res3_5_branch2b"
	top: "bn3_5_branch2b"
	name: "bn3_5_branch2b"
	type: "BatchNorm"
	include {
		phase: TEST
	}
	batch_norm_param {
		use_global_stats: true
	}
	param {
    		lr_mult: 0
  	}
	 param {
    		lr_mult: 0
  	}
  	param {
    		lr_mult: 0
  	}
}

layer {
	bottom: "bn3_5_branch2b"
	top: "scale3_5_branch2b"
	name: "scale3_5_branch2b"
	type: "Scale"
	scale_param {
		bias_term: true
	}
}
layer {
  name: "res3_5_branch2b_relu"
  type: "ReLU"
  bottom: "scale3_5_branch2b"
  top: "res3_5_branch2b_relu"
}
layer {
  name: "res3_5_branch2c"
  type: "Convolution"
  bottom: "res3_5_branch2b_relu"
  top: "res3_5_branch2c"
  convolution_param {
    num_output: 512
    pad: 0
    kernel_size: 1
    stride: 1
    bias_term: false
    weight_filler {
      type: "msra"
    }
  }
}
layer {
	bottom: "res3_5_branch2c"
	top: "bn3_5_branch2c"
	name: "bn3_5_branch2c"
	type: "BatchNorm"
	include {
		phase: TRAIN
	}
	batch_norm_param {
		use_global_stats: false
	}
	param {
    		lr_mult: 0
  	}
	 param {
    		lr_mult: 0
  	}
  	param {
    		lr_mult: 0
  	}
}

layer {
	bottom: "res3_5_branch2c"
	top: "bn3_5_branch2c"
	name: "bn3_5_branch2c"
	type: "BatchNorm"
	include {
		phase: TEST
	}
	batch_norm_param {
		use_global_stats: true
	}
	param {
    		lr_mult: 0
  	}
	 param {
    		lr_mult: 0
  	}
  	param {
    		lr_mult: 0
  	}
}

layer {
	bottom: "bn3_5_branch2c"
	top: "scale3_5_branch2c"
	name: "scale3_5_branch2c"
	type: "Scale"
	scale_param {
		bias_term: true
	}
}
layer {
  type: "Eltwise"
  bottom: "res3_4_relu"
  bottom: "scale3_5_branch2c"
  name: "res3_5"
  top: "res3_5"
}
layer {
  name: "res3_5_relu"
  type: "ReLU"
  bottom: "res3_5"
  top: "res3_5_relu"
}
layer {
  name: "res3_6_branch2a"
  type: "Convolution"
  bottom: "res3_5_relu"
  top: "res3_6_branch2a"
  convolution_param {
    num_output: 128
    pad: 0
    kernel_size: 1
    stride: 1
    bias_term: false
    weight_filler {
      type: "msra"
    }
  }
}
layer {
	bottom: "res3_6_branch2a"
	top: "bn3_6_branch2a"
	name: "bn3_6_branch2a"
	type: "BatchNorm"
	include {
		phase: TRAIN
	}
	batch_norm_param {
		use_global_stats: false
	}
	param {
    		lr_mult: 0
  	}
	 param {
    		lr_mult: 0
  	}
  	param {
    		lr_mult: 0
  	}
}

layer {
	bottom: "res3_6_branch2a"
	top: "bn3_6_branch2a"
	name: "bn3_6_branch2a"
	type: "BatchNorm"
	include {
		phase: TEST
	}
	batch_norm_param {
		use_global_stats: true
	}
	param {
    		lr_mult: 0
  	}
	 param {
    		lr_mult: 0
  	}
  	param {
    		lr_mult: 0
  	}
}

layer {
	bottom: "bn3_6_branch2a"
	top: "scale3_6_branch2a"
	name: "scale3_6_branch2a"
	type: "Scale"
	scale_param {
		bias_term: true
	}
}
layer {
  name: "res3_6_branch2a_relu"
  type: "ReLU"
  bottom: "scale3_6_branch2a"
  top: "res3_6_branch2a_relu"
}
layer {
  name: "res3_6_branch2b"
  type: "Convolution"
  bottom: "res3_6_branch2a_relu"
  top: "res3_6_branch2b"
  convolution_param {
    num_output: 128
    pad: 1
    kernel_size: 3
    stride: 1
    bias_term: false
    weight_filler {
      type: "msra"
    }
  }
}
layer {
	bottom: "res3_6_branch2b"
	top: "bn3_6_branch2b"
	name: "bn3_6_branch2b"
	type: "BatchNorm"
	include {
		phase: TRAIN
	}
	batch_norm_param {
		use_global_stats: false
	}
	param {
    		lr_mult: 0
  	}
	 param {
    		lr_mult: 0
  	}
  	param {
    		lr_mult: 0
  	}
}

layer {
	bottom: "res3_6_branch2b"
	top: "bn3_6_branch2b"
	name: "bn3_6_branch2b"
	type: "BatchNorm"
	include {
		phase: TEST
	}
	batch_norm_param {
		use_global_stats: true
	}
	param {
    		lr_mult: 0
  	}
	 param {
    		lr_mult: 0
  	}
  	param {
    		lr_mult: 0
  	}
}

layer {
	bottom: "bn3_6_branch2b"
	top: "scale3_6_branch2b"
	name: "scale3_6_branch2b"
	type: "Scale"
	scale_param {
		bias_term: true
	}
}
layer {
  name: "res3_6_branch2b_relu"
  type: "ReLU"
  bottom: "scale3_6_branch2b"
  top: "res3_6_branch2b_relu"
}
layer {
  name: "res3_6_branch2c"
  type: "Convolution"
  bottom: "res3_6_branch2b_relu"
  top: "res3_6_branch2c"
  convolution_param {
    num_output: 512
    pad: 0
    kernel_size: 1
    stride: 1
    bias_term: false
    weight_filler {
      type: "msra"
    }
  }
}
layer {
	bottom: "res3_6_branch2c"
	top: "bn3_6_branch2c"
	name: "bn3_6_branch2c"
	type: "BatchNorm"
	include {
		phase: TRAIN
	}
	batch_norm_param {
		use_global_stats: false
	}
	param {
    		lr_mult: 0
  	}
	 param {
    		lr_mult: 0
  	}
  	param {
    		lr_mult: 0
  	}
}

layer {
	bottom: "res3_6_branch2c"
	top: "bn3_6_branch2c"
	name: "bn3_6_branch2c"
	type: "BatchNorm"
	include {
		phase: TEST
	}
	batch_norm_param {
		use_global_stats: true
	}
	param {
    		lr_mult: 0
  	}
	 param {
    		lr_mult: 0
  	}
  	param {
    		lr_mult: 0
  	}
}

layer {
	bottom: "bn3_6_branch2c"
	top: "scale3_6_branch2c"
	name: "scale3_6_branch2c"
	type: "Scale"
	scale_param {
		bias_term: true
	}
}
layer {
  type: "Eltwise"
  bottom: "res3_5_relu"
  bottom: "scale3_6_branch2c"
  name: "res3_6"
  top: "res3_6"
}
layer {
  name: "res3_6_relu"
  type: "ReLU"
  bottom: "res3_6"
  top: "res3_6_relu"
}
layer {
  name: "res3_7_branch2a"
  type: "Convolution"
  bottom: "res3_6_relu"
  top: "res3_7_branch2a"
  convolution_param {
    num_output: 128
    pad: 0
    kernel_size: 1
    stride: 1
    bias_term: false
    weight_filler {
      type: "msra"
    }
  }
}
layer {
	bottom: "res3_7_branch2a"
	top: "bn3_7_branch2a"
	name: "bn3_7_branch2a"
	type: "BatchNorm"
	include {
		phase: TRAIN
	}
	batch_norm_param {
		use_global_stats: false
	}
	param {
    		lr_mult: 0
  	}
	 param {
    		lr_mult: 0
  	}
  	param {
    		lr_mult: 0
  	}
}

layer {
	bottom: "res3_7_branch2a"
	top: "bn3_7_branch2a"
	name: "bn3_7_branch2a"
	type: "BatchNorm"
	include {
		phase: TEST
	}
	batch_norm_param {
		use_global_stats: true
	}
	param {
    		lr_mult: 0
  	}
	 param {
    		lr_mult: 0
  	}
  	param {
    		lr_mult: 0
  	}
}

layer {
	bottom: "bn3_7_branch2a"
	top: "scale3_7_branch2a"
	name: "scale3_7_branch2a"
	type: "Scale"
	scale_param {
		bias_term: true
	}
}
layer {
  name: "res3_7_branch2a_relu"
  type: "ReLU"
  bottom: "scale3_7_branch2a"
  top: "res3_7_branch2a_relu"
}
layer {
  name: "res3_7_branch2b"
  type: "Convolution"
  bottom: "res3_7_branch2a_relu"
  top: "res3_7_branch2b"
  convolution_param {
    num_output: 128
    pad: 1
    kernel_size: 3
    stride: 1
    bias_term: false
    weight_filler {
      type: "msra"
    }
  }
}
layer {
	bottom: "res3_7_branch2b"
	top: "bn3_7_branch2b"
	name: "bn3_7_branch2b"
	type: "BatchNorm"
	include {
		phase: TRAIN
	}
	batch_norm_param {
		use_global_stats: false
	}
	param {
    		lr_mult: 0
  	}
	 param {
    		lr_mult: 0
  	}
  	param {
    		lr_mult: 0
  	}
}

layer {
	bottom: "res3_7_branch2b"
	top: "bn3_7_branch2b"
	name: "bn3_7_branch2b"
	type: "BatchNorm"
	include {
		phase: TEST
	}
	batch_norm_param {
		use_global_stats: true
	}
	param {
    		lr_mult: 0
  	}
	 param {
    		lr_mult: 0
  	}
  	param {
    		lr_mult: 0
  	}
}

layer {
	bottom: "bn3_7_branch2b"
	top: "scale3_7_branch2b"
	name: "scale3_7_branch2b"
	type: "Scale"
	scale_param {
		bias_term: true
	}
}
layer {
  name: "res3_7_branch2b_relu"
  type: "ReLU"
  bottom: "scale3_7_branch2b"
  top: "res3_7_branch2b_relu"
}
layer {
  name: "res3_7_branch2c"
  type: "Convolution"
  bottom: "res3_7_branch2b_relu"
  top: "res3_7_branch2c"
  convolution_param {
    num_output: 512
    pad: 0
    kernel_size: 1
    stride: 1
    bias_term: false
    weight_filler {
      type: "msra"
    }
  }
}
layer {
	bottom: "res3_7_branch2c"
	top: "bn3_7_branch2c"
	name: "bn3_7_branch2c"
	type: "BatchNorm"
	include {
		phase: TRAIN
	}
	batch_norm_param {
		use_global_stats: false
	}
	param {
    		lr_mult: 0
  	}
	 param {
    		lr_mult: 0
  	}
  	param {
    		lr_mult: 0
  	}
}

layer {
	bottom: "res3_7_branch2c"
	top: "bn3_7_branch2c"
	name: "bn3_7_branch2c"
	type: "BatchNorm"
	include {
		phase: TEST
	}
	batch_norm_param {
		use_global_stats: true
	}
	param {
    		lr_mult: 0
  	}
	 param {
    		lr_mult: 0
  	}
  	param {
    		lr_mult: 0
  	}
}

layer {
	bottom: "bn3_7_branch2c"
	top: "scale3_7_branch2c"
	name: "scale3_7_branch2c"
	type: "Scale"
	scale_param {
		bias_term: true
	}
}
layer {
  type: "Eltwise"
  bottom: "res3_6_relu"
  bottom: "scale3_7_branch2c"
  name: "res3_7"
  top: "res3_7"
}
layer {
  name: "res3_7_relu"
  type: "ReLU"
  bottom: "res3_7"
  top: "res3_7_relu"
}
layer {
  name: "res3_8_branch2a"
  type: "Convolution"
  bottom: "res3_7_relu"
  top: "res3_8_branch2a"
  convolution_param {
    num_output: 128
    pad: 0
    kernel_size: 1
    stride: 1
    bias_term: false
    weight_filler {
      type: "msra"
    }
  }
}
layer {
	bottom: "res3_8_branch2a"
	top: "bn3_8_branch2a"
	name: "bn3_8_branch2a"
	type: "BatchNorm"
	include {
		phase: TRAIN
	}
	batch_norm_param {
		use_global_stats: false
	}
	param {
    		lr_mult: 0
  	}
	 param {
    		lr_mult: 0
  	}
  	param {
    		lr_mult: 0
  	}
}

layer {
	bottom: "res3_8_branch2a"
	top: "bn3_8_branch2a"
	name: "bn3_8_branch2a"
	type: "BatchNorm"
	include {
		phase: TEST
	}
	batch_norm_param {
		use_global_stats: true
	}
	param {
    		lr_mult: 0
  	}
	 param {
    		lr_mult: 0
  	}
  	param {
    		lr_mult: 0
  	}
}

layer {
	bottom: "bn3_8_branch2a"
	top: "scale3_8_branch2a"
	name: "scale3_8_branch2a"
	type: "Scale"
	scale_param {
		bias_term: true
	}
}
layer {
  name: "res3_8_branch2a_relu"
  type: "ReLU"
  bottom: "scale3_8_branch2a"
  top: "res3_8_branch2a_relu"
}
layer {
  name: "res3_8_branch2b"
  type: "Convolution"
  bottom: "res3_8_branch2a_relu"
  top: "res3_8_branch2b"
  convolution_param {
    num_output: 128
    pad: 1
    kernel_size: 3
    stride: 1
    bias_term: false
    weight_filler {
      type: "msra"
    }
  }
}
layer {
	bottom: "res3_8_branch2b"
	top: "bn3_8_branch2b"
	name: "bn3_8_branch2b"
	type: "BatchNorm"
	include {
		phase: TRAIN
	}
	batch_norm_param {
		use_global_stats: false
	}
	param {
    		lr_mult: 0
  	}
	 param {
    		lr_mult: 0
  	}
  	param {
    		lr_mult: 0
  	}
}

layer {
	bottom: "res3_8_branch2b"
	top: "bn3_8_branch2b"
	name: "bn3_8_branch2b"
	type: "BatchNorm"
	include {
		phase: TEST
	}
	batch_norm_param {
		use_global_stats: true
	}
	param {
    		lr_mult: 0
  	}
	 param {
    		lr_mult: 0
  	}
  	param {
    		lr_mult: 0
  	}
}

layer {
	bottom: "bn3_8_branch2b"
	top: "scale3_8_branch2b"
	name: "scale3_8_branch2b"
	type: "Scale"
	scale_param {
		bias_term: true
	}
}
layer {
  name: "res3_8_branch2b_relu"
  type: "ReLU"
  bottom: "scale3_8_branch2b"
  top: "res3_8_branch2b_relu"
}
layer {
  name: "res3_8_branch2c"
  type: "Convolution"
  bottom: "res3_8_branch2b_relu"
  top: "res3_8_branch2c"
  convolution_param {
    num_output: 512
    pad: 0
    kernel_size: 1
    stride: 1
    bias_term: false
    weight_filler {
      type: "msra"
    }
  }
}
layer {
	bottom: "res3_8_branch2c"
	top: "bn3_8_branch2c"
	name: "bn3_8_branch2c"
	type: "BatchNorm"
	include {
		phase: TRAIN
	}
	batch_norm_param {
		use_global_stats: false
	}
	param {
    		lr_mult: 0
  	}
	 param {
    		lr_mult: 0
  	}
  	param {
    		lr_mult: 0
  	}
}

layer {
	bottom: "res3_8_branch2c"
	top: "bn3_8_branch2c"
	name: "bn3_8_branch2c"
	type: "BatchNorm"
	include {
		phase: TEST
	}
	batch_norm_param {
		use_global_stats: true
	}
	param {
    		lr_mult: 0
  	}
	 param {
    		lr_mult: 0
  	}
  	param {
    		lr_mult: 0
  	}
}

layer {
	bottom: "bn3_8_branch2c"
	top: "scale3_8_branch2c"
	name: "scale3_8_branch2c"
	type: "Scale"
	scale_param {
		bias_term: true
	}
}
layer {
  type: "Eltwise"
  bottom: "res3_7_relu"
  bottom: "scale3_8_branch2c"
  name: "res3_8"
  top: "res3_8"
}
layer {
  name: "res3_8_relu"
  type: "ReLU"
  bottom: "res3_8"
  top: "res3_8_relu"
}
layer {
  name: "res4_1_branch1"
  type: "Convolution"
  bottom: "res3_8_relu"
  top: "res4_1_branch1"
  convolution_param {
    num_output: 1024
    pad: 0
    kernel_size: 1
    stride: 2
    bias_term: false
    weight_filler {
      type: "msra"
    }
  }
}
layer {
	bottom: "res4_1_branch1"
	top: "bn4_1_branch1"
	name: "bn4_1_branch1"
	type: "BatchNorm"
	include {
		phase: TRAIN
	}
	batch_norm_param {
		use_global_stats: false
	}
	param {
    		lr_mult: 0
  	}
	 param {
    		lr_mult: 0
  	}
  	param {
    		lr_mult: 0
  	}
}

layer {
	bottom: "res4_1_branch1"
	top: "bn4_1_branch1"
	name: "bn4_1_branch1"
	type: "BatchNorm"
	include {
		phase: TEST
	}
	batch_norm_param {
		use_global_stats: true
	}
	param {
    		lr_mult: 0
  	}
	 param {
    		lr_mult: 0
  	}
  	param {
    		lr_mult: 0
  	}
}

layer {
	bottom: "bn4_1_branch1"
	top: "scale4_1_branch1"
	name: "scale4_1_branch1"
	type: "Scale"
	scale_param {
		bias_term: true
	}
}
layer {
  name: "res4_1_branch2a"
  type: "Convolution"
  bottom: "res3_8_relu"
  top: "res4_1_branch2a"
  convolution_param {
    num_output: 256
    pad: 0
    kernel_size: 1
    stride: 2
    bias_term: false
    weight_filler {
      type: "msra"
    }
  }
}
layer {
	bottom: "res4_1_branch2a"
	top: "bn4_1_branch2a"
	name: "bn4_1_branch2a"
	type: "BatchNorm"
	include {
		phase: TRAIN
	}
	batch_norm_param {
		use_global_stats: false
	}
	param {
    		lr_mult: 0
  	}
	 param {
    		lr_mult: 0
  	}
  	param {
    		lr_mult: 0
  	}
}

layer {
	bottom: "res4_1_branch2a"
	top: "bn4_1_branch2a"
	name: "bn4_1_branch2a"
	type: "BatchNorm"
	include {
		phase: TEST
	}
	batch_norm_param {
		use_global_stats: true
	}
	param {
    		lr_mult: 0
  	}
	 param {
    		lr_mult: 0
  	}
  	param {
    		lr_mult: 0
  	}
}

layer {
	bottom: "bn4_1_branch2a"
	top: "scale4_1_branch2a"
	name: "scale4_1_branch2a"
	type: "Scale"
	scale_param {
		bias_term: true
	}
}
layer {
  name: "res4_1_branch2a_relu"
  type: "ReLU"
  bottom: "scale4_1_branch2a"
  top: "res4_1_branch2a_relu"
}
layer {
  name: "res4_1_branch2b"
  type: "Convolution"
  bottom: "res4_1_branch2a_relu"
  top: "res4_1_branch2b"
  convolution_param {
    num_output: 256
    pad: 1
    kernel_size: 3
    stride: 1
    bias_term: false
    weight_filler {
      type: "msra"
    }
  }
}
layer {
	bottom: "res4_1_branch2b"
	top: "bn4_1_branch2b"
	name: "bn4_1_branch2b"
	type: "BatchNorm"
	include {
		phase: TRAIN
	}
	batch_norm_param {
		use_global_stats: false
	}
	param {
    		lr_mult: 0
  	}
	 param {
    		lr_mult: 0
  	}
  	param {
    		lr_mult: 0
  	}
}

layer {
	bottom: "res4_1_branch2b"
	top: "bn4_1_branch2b"
	name: "bn4_1_branch2b"
	type: "BatchNorm"
	include {
		phase: TEST
	}
	batch_norm_param {
		use_global_stats: true
	}
	param {
    		lr_mult: 0
  	}
	 param {
    		lr_mult: 0
  	}
  	param {
    		lr_mult: 0
  	}
}

layer {
	bottom: "bn4_1_branch2b"
	top: "scale4_1_branch2b"
	name: "scale4_1_branch2b"
	type: "Scale"
	scale_param {
		bias_term: true
	}
}
layer {
  name: "res4_1_branch2b_relu"
  type: "ReLU"
  bottom: "scale4_1_branch2b"
  top: "res4_1_branch2b_relu"
}
layer {
  name: "res4_1_branch2c"
  type: "Convolution"
  bottom: "res4_1_branch2b_relu"
  top: "res4_1_branch2c"
  convolution_param {
    num_output: 1024
    pad: 0
    kernel_size: 1
    stride: 1
    bias_term: false
    weight_filler {
      type: "msra"
    }
  }
}
layer {
	bottom: "res4_1_branch2c"
	top: "bn4_1_branch2c"
	name: "bn4_1_branch2c"
	type: "BatchNorm"
	include {
		phase: TRAIN
	}
	batch_norm_param {
		use_global_stats: false
	}
	param {
    		lr_mult: 0
  	}
	 param {
    		lr_mult: 0
  	}
  	param {
    		lr_mult: 0
  	}
}

layer {
	bottom: "res4_1_branch2c"
	top: "bn4_1_branch2c"
	name: "bn4_1_branch2c"
	type: "BatchNorm"
	include {
		phase: TEST
	}
	batch_norm_param {
		use_global_stats: true
	}
	param {
    		lr_mult: 0
  	}
	 param {
    		lr_mult: 0
  	}
  	param {
    		lr_mult: 0
  	}
}

layer {
	bottom: "bn4_1_branch2c"
	top: "scale4_1_branch2c"
	name: "scale4_1_branch2c"
	type: "Scale"
	scale_param {
		bias_term: true
	}
}
layer {
  type: "Eltwise"
  bottom: "scale4_1_branch1"
  bottom: "scale4_1_branch2c"
  name: "res4_1"
  top: "res4_1"
}
layer {
  name: "res4_1_relu"
  type: "ReLU"
  bottom: "res4_1"
  top: "res4_1_relu"
}
layer {
  name: "res4_2_branch2a"
  type: "Convolution"
  bottom: "res4_1_relu"
  top: "res4_2_branch2a"
  convolution_param {
    num_output: 256
    pad: 0
    kernel_size: 1
    stride: 1
    bias_term: false
    weight_filler {
      type: "msra"
    }
  }
}
layer {
	bottom: "res4_2_branch2a"
	top: "bn4_2_branch2a"
	name: "bn4_2_branch2a"
	type: "BatchNorm"
	include {
		phase: TRAIN
	}
	batch_norm_param {
		use_global_stats: false
	}
	param {
    		lr_mult: 0
  	}
	 param {
    		lr_mult: 0
  	}
  	param {
    		lr_mult: 0
  	}
}

layer {
	bottom: "res4_2_branch2a"
	top: "bn4_2_branch2a"
	name: "bn4_2_branch2a"
	type: "BatchNorm"
	include {
		phase: TEST
	}
	batch_norm_param {
		use_global_stats: true
	}
	param {
    		lr_mult: 0
  	}
	 param {
    		lr_mult: 0
  	}
  	param {
    		lr_mult: 0
  	}
}

layer {
	bottom: "bn4_2_branch2a"
	top: "scale4_2_branch2a"
	name: "scale4_2_branch2a"
	type: "Scale"
	scale_param {
		bias_term: true
	}
}
layer {
  name: "res4_2_branch2a_relu"
  type: "ReLU"
  bottom: "scale4_2_branch2a"
  top: "res4_2_branch2a_relu"
}
layer {
  name: "res4_2_branch2b"
  type: "Convolution"
  bottom: "res4_2_branch2a_relu"
  top: "res4_2_branch2b"
  convolution_param {
    num_output: 256
    pad: 1
    kernel_size: 3
    stride: 1
    bias_term: false
    weight_filler {
      type: "msra"
    }
  }
}
layer {
	bottom: "res4_2_branch2b"
	top: "bn4_2_branch2b"
	name: "bn4_2_branch2b"
	type: "BatchNorm"
	include {
		phase: TRAIN
	}
	batch_norm_param {
		use_global_stats: false
	}
	param {
    		lr_mult: 0
  	}
	 param {
    		lr_mult: 0
  	}
  	param {
    		lr_mult: 0
  	}
}

layer {
	bottom: "res4_2_branch2b"
	top: "bn4_2_branch2b"
	name: "bn4_2_branch2b"
	type: "BatchNorm"
	include {
		phase: TEST
	}
	batch_norm_param {
		use_global_stats: true
	}
	param {
    		lr_mult: 0
  	}
	 param {
    		lr_mult: 0
  	}
  	param {
    		lr_mult: 0
  	}
}

layer {
	bottom: "bn4_2_branch2b"
	top: "scale4_2_branch2b"
	name: "scale4_2_branch2b"
	type: "Scale"
	scale_param {
		bias_term: true
	}
}
layer {
  name: "res4_2_branch2b_relu"
  type: "ReLU"
  bottom: "scale4_2_branch2b"
  top: "res4_2_branch2b_relu"
}
layer {
  name: "res4_2_branch2c"
  type: "Convolution"
  bottom: "res4_2_branch2b_relu"
  top: "res4_2_branch2c"
  convolution_param {
    num_output: 1024
    pad: 0
    kernel_size: 1
    stride: 1
    bias_term: false
    weight_filler {
      type: "msra"
    }
  }
}
layer {
	bottom: "res4_2_branch2c"
	top: "bn4_2_branch2c"
	name: "bn4_2_branch2c"
	type: "BatchNorm"
	include {
		phase: TRAIN
	}
	batch_norm_param {
		use_global_stats: false
	}
	param {
    		lr_mult: 0
  	}
	 param {
    		lr_mult: 0
  	}
  	param {
    		lr_mult: 0
  	}
}

layer {
	bottom: "res4_2_branch2c"
	top: "bn4_2_branch2c"
	name: "bn4_2_branch2c"
	type: "BatchNorm"
	include {
		phase: TEST
	}
	batch_norm_param {
		use_global_stats: true
	}
	param {
    		lr_mult: 0
  	}
	 param {
    		lr_mult: 0
  	}
  	param {
    		lr_mult: 0
  	}
}

layer {
	bottom: "bn4_2_branch2c"
	top: "scale4_2_branch2c"
	name: "scale4_2_branch2c"
	type: "Scale"
	scale_param {
		bias_term: true
	}
}
layer {
  type: "Eltwise"
  bottom: "res4_1_relu"
  bottom: "scale4_2_branch2c"
  name: "res4_2"
  top: "res4_2"
}
layer {
  name: "res4_2_relu"
  type: "ReLU"
  bottom: "res4_2"
  top: "res4_2_relu"
}
layer {
  name: "res4_3_branch2a"
  type: "Convolution"
  bottom: "res4_2_relu"
  top: "res4_3_branch2a"
  convolution_param {
    num_output: 256
    pad: 0
    kernel_size: 1
    stride: 1
    bias_term: false
    weight_filler {
      type: "msra"
    }
  }
}
layer {
	bottom: "res4_3_branch2a"
	top: "bn4_3_branch2a"
	name: "bn4_3_branch2a"
	type: "BatchNorm"
	include {
		phase: TRAIN
	}
	batch_norm_param {
		use_global_stats: false
	}
	param {
    		lr_mult: 0
  	}
	 param {
    		lr_mult: 0
  	}
  	param {
    		lr_mult: 0
  	}
}

layer {
	bottom: "res4_3_branch2a"
	top: "bn4_3_branch2a"
	name: "bn4_3_branch2a"
	type: "BatchNorm"
	include {
		phase: TEST
	}
	batch_norm_param {
		use_global_stats: true
	}
	param {
    		lr_mult: 0
  	}
	 param {
    		lr_mult: 0
  	}
  	param {
    		lr_mult: 0
  	}
}

layer {
	bottom: "bn4_3_branch2a"
	top: "scale4_3_branch2a"
	name: "scale4_3_branch2a"
	type: "Scale"
	scale_param {
		bias_term: true
	}
}
layer {
  name: "res4_3_branch2a_relu"
  type: "ReLU"
  bottom: "scale4_3_branch2a"
  top: "res4_3_branch2a_relu"
}
layer {
  name: "res4_3_branch2b"
  type: "Convolution"
  bottom: "res4_3_branch2a_relu"
  top: "res4_3_branch2b"
  convolution_param {
    num_output: 256
    pad: 1
    kernel_size: 3
    stride: 1
    bias_term: false
    weight_filler {
      type: "msra"
    }
  }
}
layer {
	bottom: "res4_3_branch2b"
	top: "bn4_3_branch2b"
	name: "bn4_3_branch2b"
	type: "BatchNorm"
	include {
		phase: TRAIN
	}
	batch_norm_param {
		use_global_stats: false
	}
	param {
    		lr_mult: 0
  	}
	 param {
    		lr_mult: 0
  	}
  	param {
    		lr_mult: 0
  	}
}

layer {
	bottom: "res4_3_branch2b"
	top: "bn4_3_branch2b"
	name: "bn4_3_branch2b"
	type: "BatchNorm"
	include {
		phase: TEST
	}
	batch_norm_param {
		use_global_stats: true
	}
	param {
    		lr_mult: 0
  	}
	 param {
    		lr_mult: 0
  	}
  	param {
    		lr_mult: 0
  	}
}

layer {
	bottom: "bn4_3_branch2b"
	top: "scale4_3_branch2b"
	name: "scale4_3_branch2b"
	type: "Scale"
	scale_param {
		bias_term: true
	}
}
layer {
  name: "res4_3_branch2b_relu"
  type: "ReLU"
  bottom: "scale4_3_branch2b"
  top: "res4_3_branch2b_relu"
}
layer {
  name: "res4_3_branch2c"
  type: "Convolution"
  bottom: "res4_3_branch2b_relu"
  top: "res4_3_branch2c"
  convolution_param {
    num_output: 1024
    pad: 0
    kernel_size: 1
    stride: 1
    bias_term: false
    weight_filler {
      type: "msra"
    }
  }
}
layer {
	bottom: "res4_3_branch2c"
	top: "bn4_3_branch2c"
	name: "bn4_3_branch2c"
	type: "BatchNorm"
	include {
		phase: TRAIN
	}
	batch_norm_param {
		use_global_stats: false
	}
	param {
    		lr_mult: 0
  	}
	 param {
    		lr_mult: 0
  	}
  	param {
    		lr_mult: 0
  	}
}

layer {
	bottom: "res4_3_branch2c"
	top: "bn4_3_branch2c"
	name: "bn4_3_branch2c"
	type: "BatchNorm"
	include {
		phase: TEST
	}
	batch_norm_param {
		use_global_stats: true
	}
	param {
    		lr_mult: 0
  	}
	 param {
    		lr_mult: 0
  	}
  	param {
    		lr_mult: 0
  	}
}

layer {
	bottom: "bn4_3_branch2c"
	top: "scale4_3_branch2c"
	name: "scale4_3_branch2c"
	type: "Scale"
	scale_param {
		bias_term: true
	}
}
layer {
  type: "Eltwise"
  bottom: "res4_2_relu"
  bottom: "scale4_3_branch2c"
  name: "res4_3"
  top: "res4_3"
}
layer {
  name: "res4_3_relu"
  type: "ReLU"
  bottom: "res4_3"
  top: "res4_3_relu"
}
layer {
  name: "res4_4_branch2a"
  type: "Convolution"
  bottom: "res4_3_relu"
  top: "res4_4_branch2a"
  convolution_param {
    num_output: 256
    pad: 0
    kernel_size: 1
    stride: 1
    bias_term: false
    weight_filler {
      type: "msra"
    }
  }
}
layer {
	bottom: "res4_4_branch2a"
	top: "bn4_4_branch2a"
	name: "bn4_4_branch2a"
	type: "BatchNorm"
	include {
		phase: TRAIN
	}
	batch_norm_param {
		use_global_stats: false
	}
	param {
    		lr_mult: 0
  	}
	 param {
    		lr_mult: 0
  	}
  	param {
    		lr_mult: 0
  	}
}

layer {
	bottom: "res4_4_branch2a"
	top: "bn4_4_branch2a"
	name: "bn4_4_branch2a"
	type: "BatchNorm"
	include {
		phase: TEST
	}
	batch_norm_param {
		use_global_stats: true
	}
	param {
    		lr_mult: 0
  	}
	 param {
    		lr_mult: 0
  	}
  	param {
    		lr_mult: 0
  	}
}

layer {
	bottom: "bn4_4_branch2a"
	top: "scale4_4_branch2a"
	name: "scale4_4_branch2a"
	type: "Scale"
	scale_param {
		bias_term: true
	}
}
layer {
  name: "res4_4_branch2a_relu"
  type: "ReLU"
  bottom: "scale4_4_branch2a"
  top: "res4_4_branch2a_relu"
}
layer {
  name: "res4_4_branch2b"
  type: "Convolution"
  bottom: "res4_4_branch2a_relu"
  top: "res4_4_branch2b"
  convolution_param {
    num_output: 256
    pad: 1
    kernel_size: 3
    stride: 1
    bias_term: false
    weight_filler {
      type: "msra"
    }
  }
}
layer {
	bottom: "res4_4_branch2b"
	top: "bn4_4_branch2b"
	name: "bn4_4_branch2b"
	type: "BatchNorm"
	include {
		phase: TRAIN
	}
	batch_norm_param {
		use_global_stats: false
	}
	param {
    		lr_mult: 0
  	}
	 param {
    		lr_mult: 0
  	}
  	param {
    		lr_mult: 0
  	}
}

layer {
	bottom: "res4_4_branch2b"
	top: "bn4_4_branch2b"
	name: "bn4_4_branch2b"
	type: "BatchNorm"
	include {
		phase: TEST
	}
	batch_norm_param {
		use_global_stats: true
	}
	param {
    		lr_mult: 0
  	}
	 param {
    		lr_mult: 0
  	}
  	param {
    		lr_mult: 0
  	}
}

layer {
	bottom: "bn4_4_branch2b"
	top: "scale4_4_branch2b"
	name: "scale4_4_branch2b"
	type: "Scale"
	scale_param {
		bias_term: true
	}
}
layer {
  name: "res4_4_branch2b_relu"
  type: "ReLU"
  bottom: "scale4_4_branch2b"
  top: "res4_4_branch2b_relu"
}
layer {
  name: "res4_4_branch2c"
  type: "Convolution"
  bottom: "res4_4_branch2b_relu"
  top: "res4_4_branch2c"
  convolution_param {
    num_output: 1024
    pad: 0
    kernel_size: 1
    stride: 1
    bias_term: false
    weight_filler {
      type: "msra"
    }
  }
}
layer {
	bottom: "res4_4_branch2c"
	top: "bn4_4_branch2c"
	name: "bn4_4_branch2c"
	type: "BatchNorm"
	include {
		phase: TRAIN
	}
	batch_norm_param {
		use_global_stats: false
	}
	param {
    		lr_mult: 0
  	}
	 param {
    		lr_mult: 0
  	}
  	param {
    		lr_mult: 0
  	}
}

layer {
	bottom: "res4_4_branch2c"
	top: "bn4_4_branch2c"
	name: "bn4_4_branch2c"
	type: "BatchNorm"
	include {
		phase: TEST
	}
	batch_norm_param {
		use_global_stats: true
	}
	param {
    		lr_mult: 0
  	}
	 param {
    		lr_mult: 0
  	}
  	param {
    		lr_mult: 0
  	}
}

layer {
	bottom: "bn4_4_branch2c"
	top: "scale4_4_branch2c"
	name: "scale4_4_branch2c"
	type: "Scale"
	scale_param {
		bias_term: true
	}
}
layer {
  type: "Eltwise"
  bottom: "res4_3_relu"
  bottom: "scale4_4_branch2c"
  name: "res4_4"
  top: "res4_4"
}
layer {
  name: "res4_4_relu"
  type: "ReLU"
  bottom: "res4_4"
  top: "res4_4_relu"
}
layer {
  name: "res4_5_branch2a"
  type: "Convolution"
  bottom: "res4_4_relu"
  top: "res4_5_branch2a"
  convolution_param {
    num_output: 256
    pad: 0
    kernel_size: 1
    stride: 1
    bias_term: false
    weight_filler {
      type: "msra"
    }
  }
}
layer {
	bottom: "res4_5_branch2a"
	top: "bn4_5_branch2a"
	name: "bn4_5_branch2a"
	type: "BatchNorm"
	include {
		phase: TRAIN
	}
	batch_norm_param {
		use_global_stats: false
	}
	param {
    		lr_mult: 0
  	}
	 param {
    		lr_mult: 0
  	}
  	param {
    		lr_mult: 0
  	}
}

layer {
	bottom: "res4_5_branch2a"
	top: "bn4_5_branch2a"
	name: "bn4_5_branch2a"
	type: "BatchNorm"
	include {
		phase: TEST
	}
	batch_norm_param {
		use_global_stats: true
	}
	param {
    		lr_mult: 0
  	}
	 param {
    		lr_mult: 0
  	}
  	param {
    		lr_mult: 0
  	}
}

layer {
	bottom: "bn4_5_branch2a"
	top: "scale4_5_branch2a"
	name: "scale4_5_branch2a"
	type: "Scale"
	scale_param {
		bias_term: true
	}
}
layer {
  name: "res4_5_branch2a_relu"
  type: "ReLU"
  bottom: "scale4_5_branch2a"
  top: "res4_5_branch2a_relu"
}
layer {
  name: "res4_5_branch2b"
  type: "Convolution"
  bottom: "res4_5_branch2a_relu"
  top: "res4_5_branch2b"
  convolution_param {
    num_output: 256
    pad: 1
    kernel_size: 3
    stride: 1
    bias_term: false
    weight_filler {
      type: "msra"
    }
  }
}
layer {
	bottom: "res4_5_branch2b"
	top: "bn4_5_branch2b"
	name: "bn4_5_branch2b"
	type: "BatchNorm"
	include {
		phase: TRAIN
	}
	batch_norm_param {
		use_global_stats: false
	}
	param {
    		lr_mult: 0
  	}
	 param {
    		lr_mult: 0
  	}
  	param {
    		lr_mult: 0
  	}
}

layer {
	bottom: "res4_5_branch2b"
	top: "bn4_5_branch2b"
	name: "bn4_5_branch2b"
	type: "BatchNorm"
	include {
		phase: TEST
	}
	batch_norm_param {
		use_global_stats: true
	}
	param {
    		lr_mult: 0
  	}
	 param {
    		lr_mult: 0
  	}
  	param {
    		lr_mult: 0
  	}
}

layer {
	bottom: "bn4_5_branch2b"
	top: "scale4_5_branch2b"
	name: "scale4_5_branch2b"
	type: "Scale"
	scale_param {
		bias_term: true
	}
}
layer {
  name: "res4_5_branch2b_relu"
  type: "ReLU"
  bottom: "scale4_5_branch2b"
  top: "res4_5_branch2b_relu"
}
layer {
  name: "res4_5_branch2c"
  type: "Convolution"
  bottom: "res4_5_branch2b_relu"
  top: "res4_5_branch2c"
  convolution_param {
    num_output: 1024
    pad: 0
    kernel_size: 1
    stride: 1
    bias_term: false
    weight_filler {
      type: "msra"
    }
  }
}
layer {
	bottom: "res4_5_branch2c"
	top: "bn4_5_branch2c"
	name: "bn4_5_branch2c"
	type: "BatchNorm"
	include {
		phase: TRAIN
	}
	batch_norm_param {
		use_global_stats: false
	}
	param {
    		lr_mult: 0
  	}
	 param {
    		lr_mult: 0
  	}
  	param {
    		lr_mult: 0
  	}
}

layer {
	bottom: "res4_5_branch2c"
	top: "bn4_5_branch2c"
	name: "bn4_5_branch2c"
	type: "BatchNorm"
	include {
		phase: TEST
	}
	batch_norm_param {
		use_global_stats: true
	}
	param {
    		lr_mult: 0
  	}
	 param {
    		lr_mult: 0
  	}
  	param {
    		lr_mult: 0
  	}
}

layer {
	bottom: "bn4_5_branch2c"
	top: "scale4_5_branch2c"
	name: "scale4_5_branch2c"
	type: "Scale"
	scale_param {
		bias_term: true
	}
}
layer {
  type: "Eltwise"
  bottom: "res4_4_relu"
  bottom: "scale4_5_branch2c"
  name: "res4_5"
  top: "res4_5"
}
layer {
  name: "res4_5_relu"
  type: "ReLU"
  bottom: "res4_5"
  top: "res4_5_relu"
}
layer {
  name: "res4_6_branch2a"
  type: "Convolution"
  bottom: "res4_5_relu"
  top: "res4_6_branch2a"
  convolution_param {
    num_output: 256
    pad: 0
    kernel_size: 1
    stride: 1
    bias_term: false
    weight_filler {
      type: "msra"
    }
  }
}
layer {
	bottom: "res4_6_branch2a"
	top: "bn4_6_branch2a"
	name: "bn4_6_branch2a"
	type: "BatchNorm"
	include {
		phase: TRAIN
	}
	batch_norm_param {
		use_global_stats: false
	}
	param {
    		lr_mult: 0
  	}
	 param {
    		lr_mult: 0
  	}
  	param {
    		lr_mult: 0
  	}
}

layer {
	bottom: "res4_6_branch2a"
	top: "bn4_6_branch2a"
	name: "bn4_6_branch2a"
	type: "BatchNorm"
	include {
		phase: TEST
	}
	batch_norm_param {
		use_global_stats: true
	}
	param {
    		lr_mult: 0
  	}
	 param {
    		lr_mult: 0
  	}
  	param {
    		lr_mult: 0
  	}
}

layer {
	bottom: "bn4_6_branch2a"
	top: "scale4_6_branch2a"
	name: "scale4_6_branch2a"
	type: "Scale"
	scale_param {
		bias_term: true
	}
}
layer {
  name: "res4_6_branch2a_relu"
  type: "ReLU"
  bottom: "scale4_6_branch2a"
  top: "res4_6_branch2a_relu"
}
layer {
  name: "res4_6_branch2b"
  type: "Convolution"
  bottom: "res4_6_branch2a_relu"
  top: "res4_6_branch2b"
  convolution_param {
    num_output: 256
    pad: 1
    kernel_size: 3
    stride: 1
    bias_term: false
    weight_filler {
      type: "msra"
    }
  }
}
layer {
	bottom: "res4_6_branch2b"
	top: "bn4_6_branch2b"
	name: "bn4_6_branch2b"
	type: "BatchNorm"
	include {
		phase: TRAIN
	}
	batch_norm_param {
		use_global_stats: false
	}
	param {
    		lr_mult: 0
  	}
	 param {
    		lr_mult: 0
  	}
  	param {
    		lr_mult: 0
  	}
}

layer {
	bottom: "res4_6_branch2b"
	top: "bn4_6_branch2b"
	name: "bn4_6_branch2b"
	type: "BatchNorm"
	include {
		phase: TEST
	}
	batch_norm_param {
		use_global_stats: true
	}
	param {
    		lr_mult: 0
  	}
	 param {
    		lr_mult: 0
  	}
  	param {
    		lr_mult: 0
  	}
}

layer {
	bottom: "bn4_6_branch2b"
	top: "scale4_6_branch2b"
	name: "scale4_6_branch2b"
	type: "Scale"
	scale_param {
		bias_term: true
	}
}
layer {
  name: "res4_6_branch2b_relu"
  type: "ReLU"
  bottom: "scale4_6_branch2b"
  top: "res4_6_branch2b_relu"
}
layer {
  name: "res4_6_branch2c"
  type: "Convolution"
  bottom: "res4_6_branch2b_relu"
  top: "res4_6_branch2c"
  convolution_param {
    num_output: 1024
    pad: 0
    kernel_size: 1
    stride: 1
    bias_term: false
    weight_filler {
      type: "msra"
    }
  }
}
layer {
	bottom: "res4_6_branch2c"
	top: "bn4_6_branch2c"
	name: "bn4_6_branch2c"
	type: "BatchNorm"
	include {
		phase: TRAIN
	}
	batch_norm_param {
		use_global_stats: false
	}
	param {
    		lr_mult: 0
  	}
	 param {
    		lr_mult: 0
  	}
  	param {
    		lr_mult: 0
  	}
}

layer {
	bottom: "res4_6_branch2c"
	top: "bn4_6_branch2c"
	name: "bn4_6_branch2c"
	type: "BatchNorm"
	include {
		phase: TEST
	}
	batch_norm_param {
		use_global_stats: true
	}
	param {
    		lr_mult: 0
  	}
	 param {
    		lr_mult: 0
  	}
  	param {
    		lr_mult: 0
  	}
}

layer {
	bottom: "bn4_6_branch2c"
	top: "scale4_6_branch2c"
	name: "scale4_6_branch2c"
	type: "Scale"
	scale_param {
		bias_term: true
	}
}
layer {
  type: "Eltwise"
  bottom: "res4_5_relu"
  bottom: "scale4_6_branch2c"
  name: "res4_6"
  top: "res4_6"
}
layer {
  name: "res4_6_relu"
  type: "ReLU"
  bottom: "res4_6"
  top: "res4_6_relu"
}
layer {
  name: "res4_7_branch2a"
  type: "Convolution"
  bottom: "res4_6_relu"
  top: "res4_7_branch2a"
  convolution_param {
    num_output: 256
    pad: 0
    kernel_size: 1
    stride: 1
    bias_term: false
    weight_filler {
      type: "msra"
    }
  }
}
layer {
	bottom: "res4_7_branch2a"
	top: "bn4_7_branch2a"
	name: "bn4_7_branch2a"
	type: "BatchNorm"
	include {
		phase: TRAIN
	}
	batch_norm_param {
		use_global_stats: false
	}
	param {
    		lr_mult: 0
  	}
	 param {
    		lr_mult: 0
  	}
  	param {
    		lr_mult: 0
  	}
}

layer {
	bottom: "res4_7_branch2a"
	top: "bn4_7_branch2a"
	name: "bn4_7_branch2a"
	type: "BatchNorm"
	include {
		phase: TEST
	}
	batch_norm_param {
		use_global_stats: true
	}
	param {
    		lr_mult: 0
  	}
	 param {
    		lr_mult: 0
  	}
  	param {
    		lr_mult: 0
  	}
}

layer {
	bottom: "bn4_7_branch2a"
	top: "scale4_7_branch2a"
	name: "scale4_7_branch2a"
	type: "Scale"
	scale_param {
		bias_term: true
	}
}
layer {
  name: "res4_7_branch2a_relu"
  type: "ReLU"
  bottom: "scale4_7_branch2a"
  top: "res4_7_branch2a_relu"
}
layer {
  name: "res4_7_branch2b"
  type: "Convolution"
  bottom: "res4_7_branch2a_relu"
  top: "res4_7_branch2b"
  convolution_param {
    num_output: 256
    pad: 1
    kernel_size: 3
    stride: 1
    bias_term: false
    weight_filler {
      type: "msra"
    }
  }
}
layer {
	bottom: "res4_7_branch2b"
	top: "bn4_7_branch2b"
	name: "bn4_7_branch2b"
	type: "BatchNorm"
	include {
		phase: TRAIN
	}
	batch_norm_param {
		use_global_stats: false
	}
	param {
    		lr_mult: 0
  	}
	 param {
    		lr_mult: 0
  	}
  	param {
    		lr_mult: 0
  	}
}

layer {
	bottom: "res4_7_branch2b"
	top: "bn4_7_branch2b"
	name: "bn4_7_branch2b"
	type: "BatchNorm"
	include {
		phase: TEST
	}
	batch_norm_param {
		use_global_stats: true
	}
	param {
    		lr_mult: 0
  	}
	 param {
    		lr_mult: 0
  	}
  	param {
    		lr_mult: 0
  	}
}

layer {
	bottom: "bn4_7_branch2b"
	top: "scale4_7_branch2b"
	name: "scale4_7_branch2b"
	type: "Scale"
	scale_param {
		bias_term: true
	}
}
layer {
  name: "res4_7_branch2b_relu"
  type: "ReLU"
  bottom: "scale4_7_branch2b"
  top: "res4_7_branch2b_relu"
}
layer {
  name: "res4_7_branch2c"
  type: "Convolution"
  bottom: "res4_7_branch2b_relu"
  top: "res4_7_branch2c"
  convolution_param {
    num_output: 1024
    pad: 0
    kernel_size: 1
    stride: 1
    bias_term: false
    weight_filler {
      type: "msra"
    }
  }
}
layer {
	bottom: "res4_7_branch2c"
	top: "bn4_7_branch2c"
	name: "bn4_7_branch2c"
	type: "BatchNorm"
	include {
		phase: TRAIN
	}
	batch_norm_param {
		use_global_stats: false
	}
	param {
    		lr_mult: 0
  	}
	 param {
    		lr_mult: 0
  	}
  	param {
    		lr_mult: 0
  	}
}

layer {
	bottom: "res4_7_branch2c"
	top: "bn4_7_branch2c"
	name: "bn4_7_branch2c"
	type: "BatchNorm"
	include {
		phase: TEST
	}
	batch_norm_param {
		use_global_stats: true
	}
	param {
    		lr_mult: 0
  	}
	 param {
    		lr_mult: 0
  	}
  	param {
    		lr_mult: 0
  	}
}

layer {
	bottom: "bn4_7_branch2c"
	top: "scale4_7_branch2c"
	name: "scale4_7_branch2c"
	type: "Scale"
	scale_param {
		bias_term: true
	}
}
layer {
  type: "Eltwise"
  bottom: "res4_6_relu"
  bottom: "scale4_7_branch2c"
  name: "res4_7"
  top: "res4_7"
}
layer {
  name: "res4_7_relu"
  type: "ReLU"
  bottom: "res4_7"
  top: "res4_7_relu"
}
layer {
  name: "res4_8_branch2a"
  type: "Convolution"
  bottom: "res4_7_relu"
  top: "res4_8_branch2a"
  convolution_param {
    num_output: 256
    pad: 0
    kernel_size: 1
    stride: 1
    bias_term: false
    weight_filler {
      type: "msra"
    }
  }
}
layer {
	bottom: "res4_8_branch2a"
	top: "bn4_8_branch2a"
	name: "bn4_8_branch2a"
	type: "BatchNorm"
	include {
		phase: TRAIN
	}
	batch_norm_param {
		use_global_stats: false
	}
	param {
    		lr_mult: 0
  	}
	 param {
    		lr_mult: 0
  	}
  	param {
    		lr_mult: 0
  	}
}

layer {
	bottom: "res4_8_branch2a"
	top: "bn4_8_branch2a"
	name: "bn4_8_branch2a"
	type: "BatchNorm"
	include {
		phase: TEST
	}
	batch_norm_param {
		use_global_stats: true
	}
	param {
    		lr_mult: 0
  	}
	 param {
    		lr_mult: 0
  	}
  	param {
    		lr_mult: 0
  	}
}

layer {
	bottom: "bn4_8_branch2a"
	top: "scale4_8_branch2a"
	name: "scale4_8_branch2a"
	type: "Scale"
	scale_param {
		bias_term: true
	}
}
layer {
  name: "res4_8_branch2a_relu"
  type: "ReLU"
  bottom: "scale4_8_branch2a"
  top: "res4_8_branch2a_relu"
}
layer {
  name: "res4_8_branch2b"
  type: "Convolution"
  bottom: "res4_8_branch2a_relu"
  top: "res4_8_branch2b"
  convolution_param {
    num_output: 256
    pad: 1
    kernel_size: 3
    stride: 1
    bias_term: false
    weight_filler {
      type: "msra"
    }
  }
}
layer {
	bottom: "res4_8_branch2b"
	top: "bn4_8_branch2b"
	name: "bn4_8_branch2b"
	type: "BatchNorm"
	include {
		phase: TRAIN
	}
	batch_norm_param {
		use_global_stats: false
	}
	param {
    		lr_mult: 0
  	}
	 param {
    		lr_mult: 0
  	}
  	param {
    		lr_mult: 0
  	}
}

layer {
	bottom: "res4_8_branch2b"
	top: "bn4_8_branch2b"
	name: "bn4_8_branch2b"
	type: "BatchNorm"
	include {
		phase: TEST
	}
	batch_norm_param {
		use_global_stats: true
	}
	param {
    		lr_mult: 0
  	}
	 param {
    		lr_mult: 0
  	}
  	param {
    		lr_mult: 0
  	}
}

layer {
	bottom: "bn4_8_branch2b"
	top: "scale4_8_branch2b"
	name: "scale4_8_branch2b"
	type: "Scale"
	scale_param {
		bias_term: true
	}
}
layer {
  name: "res4_8_branch2b_relu"
  type: "ReLU"
  bottom: "scale4_8_branch2b"
  top: "res4_8_branch2b_relu"
}
layer {
  name: "res4_8_branch2c"
  type: "Convolution"
  bottom: "res4_8_branch2b_relu"
  top: "res4_8_branch2c"
  convolution_param {
    num_output: 1024
    pad: 0
    kernel_size: 1
    stride: 1
    bias_term: false
    weight_filler {
      type: "msra"
    }
  }
}
layer {
	bottom: "res4_8_branch2c"
	top: "bn4_8_branch2c"
	name: "bn4_8_branch2c"
	type: "BatchNorm"
	include {
		phase: TRAIN
	}
	batch_norm_param {
		use_global_stats: false
	}
	param {
    		lr_mult: 0
  	}
	 param {
    		lr_mult: 0
  	}
  	param {
    		lr_mult: 0
  	}
}

layer {
	bottom: "res4_8_branch2c"
	top: "bn4_8_branch2c"
	name: "bn4_8_branch2c"
	type: "BatchNorm"
	include {
		phase: TEST
	}
	batch_norm_param {
		use_global_stats: true
	}
	param {
    		lr_mult: 0
  	}
	 param {
    		lr_mult: 0
  	}
  	param {
    		lr_mult: 0
  	}
}

layer {
	bottom: "bn4_8_branch2c"
	top: "scale4_8_branch2c"
	name: "scale4_8_branch2c"
	type: "Scale"
	scale_param {
		bias_term: true
	}
}
layer {
  type: "Eltwise"
  bottom: "res4_7_relu"
  bottom: "scale4_8_branch2c"
  name: "res4_8"
  top: "res4_8"
}
layer {
  name: "res4_8_relu"
  type: "ReLU"
  bottom: "res4_8"
  top: "res4_8_relu"
}
layer {
  name: "res4_9_branch2a"
  type: "Convolution"
  bottom: "res4_8_relu"
  top: "res4_9_branch2a"
  convolution_param {
    num_output: 256
    pad: 0
    kernel_size: 1
    stride: 1
    bias_term: false
    weight_filler {
      type: "msra"
    }
  }
}
layer {
	bottom: "res4_9_branch2a"
	top: "bn4_9_branch2a"
	name: "bn4_9_branch2a"
	type: "BatchNorm"
	include {
		phase: TRAIN
	}
	batch_norm_param {
		use_global_stats: false
	}
	param {
    		lr_mult: 0
  	}
	 param {
    		lr_mult: 0
  	}
  	param {
    		lr_mult: 0
  	}
}

layer {
	bottom: "res4_9_branch2a"
	top: "bn4_9_branch2a"
	name: "bn4_9_branch2a"
	type: "BatchNorm"
	include {
		phase: TEST
	}
	batch_norm_param {
		use_global_stats: true
	}
	param {
    		lr_mult: 0
  	}
	 param {
    		lr_mult: 0
  	}
  	param {
    		lr_mult: 0
  	}
}

layer {
	bottom: "bn4_9_branch2a"
	top: "scale4_9_branch2a"
	name: "scale4_9_branch2a"
	type: "Scale"
	scale_param {
		bias_term: true
	}
}
layer {
  name: "res4_9_branch2a_relu"
  type: "ReLU"
  bottom: "scale4_9_branch2a"
  top: "res4_9_branch2a_relu"
}
layer {
  name: "res4_9_branch2b"
  type: "Convolution"
  bottom: "res4_9_branch2a_relu"
  top: "res4_9_branch2b"
  convolution_param {
    num_output: 256
    pad: 1
    kernel_size: 3
    stride: 1
    bias_term: false
    weight_filler {
      type: "msra"
    }
  }
}
layer {
	bottom: "res4_9_branch2b"
	top: "bn4_9_branch2b"
	name: "bn4_9_branch2b"
	type: "BatchNorm"
	include {
		phase: TRAIN
	}
	batch_norm_param {
		use_global_stats: false
	}
	param {
    		lr_mult: 0
  	}
	 param {
    		lr_mult: 0
  	}
  	param {
    		lr_mult: 0
  	}
}

layer {
	bottom: "res4_9_branch2b"
	top: "bn4_9_branch2b"
	name: "bn4_9_branch2b"
	type: "BatchNorm"
	include {
		phase: TEST
	}
	batch_norm_param {
		use_global_stats: true
	}
	param {
    		lr_mult: 0
  	}
	 param {
    		lr_mult: 0
  	}
  	param {
    		lr_mult: 0
  	}
}

layer {
	bottom: "bn4_9_branch2b"
	top: "scale4_9_branch2b"
	name: "scale4_9_branch2b"
	type: "Scale"
	scale_param {
		bias_term: true
	}
}
layer {
  name: "res4_9_branch2b_relu"
  type: "ReLU"
  bottom: "scale4_9_branch2b"
  top: "res4_9_branch2b_relu"
}
layer {
  name: "res4_9_branch2c"
  type: "Convolution"
  bottom: "res4_9_branch2b_relu"
  top: "res4_9_branch2c"
  convolution_param {
    num_output: 1024
    pad: 0
    kernel_size: 1
    stride: 1
    bias_term: false
    weight_filler {
      type: "msra"
    }
  }
}
layer {
	bottom: "res4_9_branch2c"
	top: "bn4_9_branch2c"
	name: "bn4_9_branch2c"
	type: "BatchNorm"
	include {
		phase: TRAIN
	}
	batch_norm_param {
		use_global_stats: false
	}
	param {
    		lr_mult: 0
  	}
	 param {
    		lr_mult: 0
  	}
  	param {
    		lr_mult: 0
  	}
}

layer {
	bottom: "res4_9_branch2c"
	top: "bn4_9_branch2c"
	name: "bn4_9_branch2c"
	type: "BatchNorm"
	include {
		phase: TEST
	}
	batch_norm_param {
		use_global_stats: true
	}
	param {
    		lr_mult: 0
  	}
	 param {
    		lr_mult: 0
  	}
  	param {
    		lr_mult: 0
  	}
}

layer {
	bottom: "bn4_9_branch2c"
	top: "scale4_9_branch2c"
	name: "scale4_9_branch2c"
	type: "Scale"
	scale_param {
		bias_term: true
	}
}
layer {
  type: "Eltwise"
  bottom: "res4_8_relu"
  bottom: "scale4_9_branch2c"
  name: "res4_9"
  top: "res4_9"
}
layer {
  name: "res4_9_relu"
  type: "ReLU"
  bottom: "res4_9"
  top: "res4_9_relu"
}
layer {
  name: "res4_10_branch2a"
  type: "Convolution"
  bottom: "res4_9_relu"
  top: "res4_10_branch2a"
  convolution_param {
    num_output: 256
    pad: 0
    kernel_size: 1
    stride: 1
    bias_term: false
    weight_filler {
      type: "msra"
    }
  }
}
layer {
	bottom: "res4_10_branch2a"
	top: "bn4_10_branch2a"
	name: "bn4_10_branch2a"
	type: "BatchNorm"
	include {
		phase: TRAIN
	}
	batch_norm_param {
		use_global_stats: false
	}
	param {
    		lr_mult: 0
  	}
	 param {
    		lr_mult: 0
  	}
  	param {
    		lr_mult: 0
  	}
}

layer {
	bottom: "res4_10_branch2a"
	top: "bn4_10_branch2a"
	name: "bn4_10_branch2a"
	type: "BatchNorm"
	include {
		phase: TEST
	}
	batch_norm_param {
		use_global_stats: true
	}
	param {
    		lr_mult: 0
  	}
	 param {
    		lr_mult: 0
  	}
  	param {
    		lr_mult: 0
  	}
}

layer {
	bottom: "bn4_10_branch2a"
	top: "scale4_10_branch2a"
	name: "scale4_10_branch2a"
	type: "Scale"
	scale_param {
		bias_term: true
	}
}
layer {
  name: "res4_10_branch2a_relu"
  type: "ReLU"
  bottom: "scale4_10_branch2a"
  top: "res4_10_branch2a_relu"
}
layer {
  name: "res4_10_branch2b"
  type: "Convolution"
  bottom: "res4_10_branch2a_relu"
  top: "res4_10_branch2b"
  convolution_param {
    num_output: 256
    pad: 1
    kernel_size: 3
    stride: 1
    bias_term: false
    weight_filler {
      type: "msra"
    }
  }
}
layer {
	bottom: "res4_10_branch2b"
	top: "bn4_10_branch2b"
	name: "bn4_10_branch2b"
	type: "BatchNorm"
	include {
		phase: TRAIN
	}
	batch_norm_param {
		use_global_stats: false
	}
	param {
    		lr_mult: 0
  	}
	 param {
    		lr_mult: 0
  	}
  	param {
    		lr_mult: 0
  	}
}

layer {
	bottom: "res4_10_branch2b"
	top: "bn4_10_branch2b"
	name: "bn4_10_branch2b"
	type: "BatchNorm"
	include {
		phase: TEST
	}
	batch_norm_param {
		use_global_stats: true
	}
	param {
    		lr_mult: 0
  	}
	 param {
    		lr_mult: 0
  	}
  	param {
    		lr_mult: 0
  	}
}

layer {
	bottom: "bn4_10_branch2b"
	top: "scale4_10_branch2b"
	name: "scale4_10_branch2b"
	type: "Scale"
	scale_param {
		bias_term: true
	}
}
layer {
  name: "res4_10_branch2b_relu"
  type: "ReLU"
  bottom: "scale4_10_branch2b"
  top: "res4_10_branch2b_relu"
}
layer {
  name: "res4_10_branch2c"
  type: "Convolution"
  bottom: "res4_10_branch2b_relu"
  top: "res4_10_branch2c"
  convolution_param {
    num_output: 1024
    pad: 0
    kernel_size: 1
    stride: 1
    bias_term: false
    weight_filler {
      type: "msra"
    }
  }
}
layer {
	bottom: "res4_10_branch2c"
	top: "bn4_10_branch2c"
	name: "bn4_10_branch2c"
	type: "BatchNorm"
	include {
		phase: TRAIN
	}
	batch_norm_param {
		use_global_stats: false
	}
	param {
    		lr_mult: 0
  	}
	 param {
    		lr_mult: 0
  	}
  	param {
    		lr_mult: 0
  	}
}

layer {
	bottom: "res4_10_branch2c"
	top: "bn4_10_branch2c"
	name: "bn4_10_branch2c"
	type: "BatchNorm"
	include {
		phase: TEST
	}
	batch_norm_param {
		use_global_stats: true
	}
	param {
    		lr_mult: 0
  	}
	 param {
    		lr_mult: 0
  	}
  	param {
    		lr_mult: 0
  	}
}

layer {
	bottom: "bn4_10_branch2c"
	top: "scale4_10_branch2c"
	name: "scale4_10_branch2c"
	type: "Scale"
	scale_param {
		bias_term: true
	}
}
layer {
  type: "Eltwise"
  bottom: "res4_9_relu"
  bottom: "scale4_10_branch2c"
  name: "res4_10"
  top: "res4_10"
}
layer {
  name: "res4_10_relu"
  type: "ReLU"
  bottom: "res4_10"
  top: "res4_10_relu"
}
layer {
  name: "res4_11_branch2a"
  type: "Convolution"
  bottom: "res4_10_relu"
  top: "res4_11_branch2a"
  convolution_param {
    num_output: 256
    pad: 0
    kernel_size: 1
    stride: 1
    bias_term: false
    weight_filler {
      type: "msra"
    }
  }
}
layer {
	bottom: "res4_11_branch2a"
	top: "bn4_11_branch2a"
	name: "bn4_11_branch2a"
	type: "BatchNorm"
	include {
		phase: TRAIN
	}
	batch_norm_param {
		use_global_stats: false
	}
	param {
    		lr_mult: 0
  	}
	 param {
    		lr_mult: 0
  	}
  	param {
    		lr_mult: 0
  	}
}

layer {
	bottom: "res4_11_branch2a"
	top: "bn4_11_branch2a"
	name: "bn4_11_branch2a"
	type: "BatchNorm"
	include {
		phase: TEST
	}
	batch_norm_param {
		use_global_stats: true
	}
	param {
    		lr_mult: 0
  	}
	 param {
    		lr_mult: 0
  	}
  	param {
    		lr_mult: 0
  	}
}

layer {
	bottom: "bn4_11_branch2a"
	top: "scale4_11_branch2a"
	name: "scale4_11_branch2a"
	type: "Scale"
	scale_param {
		bias_term: true
	}
}
layer {
  name: "res4_11_branch2a_relu"
  type: "ReLU"
  bottom: "scale4_11_branch2a"
  top: "res4_11_branch2a_relu"
}
layer {
  name: "res4_11_branch2b"
  type: "Convolution"
  bottom: "res4_11_branch2a_relu"
  top: "res4_11_branch2b"
  convolution_param {
    num_output: 256
    pad: 1
    kernel_size: 3
    stride: 1
    bias_term: false
    weight_filler {
      type: "msra"
    }
  }
}
layer {
	bottom: "res4_11_branch2b"
	top: "bn4_11_branch2b"
	name: "bn4_11_branch2b"
	type: "BatchNorm"
	include {
		phase: TRAIN
	}
	batch_norm_param {
		use_global_stats: false
	}
	param {
    		lr_mult: 0
  	}
	 param {
    		lr_mult: 0
  	}
  	param {
    		lr_mult: 0
  	}
}

layer {
	bottom: "res4_11_branch2b"
	top: "bn4_11_branch2b"
	name: "bn4_11_branch2b"
	type: "BatchNorm"
	include {
		phase: TEST
	}
	batch_norm_param {
		use_global_stats: true
	}
	param {
    		lr_mult: 0
  	}
	 param {
    		lr_mult: 0
  	}
  	param {
    		lr_mult: 0
  	}
}

layer {
	bottom: "bn4_11_branch2b"
	top: "scale4_11_branch2b"
	name: "scale4_11_branch2b"
	type: "Scale"
	scale_param {
		bias_term: true
	}
}
layer {
  name: "res4_11_branch2b_relu"
  type: "ReLU"
  bottom: "scale4_11_branch2b"
  top: "res4_11_branch2b_relu"
}
layer {
  name: "res4_11_branch2c"
  type: "Convolution"
  bottom: "res4_11_branch2b_relu"
  top: "res4_11_branch2c"
  convolution_param {
    num_output: 1024
    pad: 0
    kernel_size: 1
    stride: 1
    bias_term: false
    weight_filler {
      type: "msra"
    }
  }
}
layer {
	bottom: "res4_11_branch2c"
	top: "bn4_11_branch2c"
	name: "bn4_11_branch2c"
	type: "BatchNorm"
	include {
		phase: TRAIN
	}
	batch_norm_param {
		use_global_stats: false
	}
	param {
    		lr_mult: 0
  	}
	 param {
    		lr_mult: 0
  	}
  	param {
    		lr_mult: 0
  	}
}

layer {
	bottom: "res4_11_branch2c"
	top: "bn4_11_branch2c"
	name: "bn4_11_branch2c"
	type: "BatchNorm"
	include {
		phase: TEST
	}
	batch_norm_param {
		use_global_stats: true
	}
	param {
    		lr_mult: 0
  	}
	 param {
    		lr_mult: 0
  	}
  	param {
    		lr_mult: 0
  	}
}

layer {
	bottom: "bn4_11_branch2c"
	top: "scale4_11_branch2c"
	name: "scale4_11_branch2c"
	type: "Scale"
	scale_param {
		bias_term: true
	}
}
layer {
  type: "Eltwise"
  bottom: "res4_10_relu"
  bottom: "scale4_11_branch2c"
  name: "res4_11"
  top: "res4_11"
}
layer {
  name: "res4_11_relu"
  type: "ReLU"
  bottom: "res4_11"
  top: "res4_11_relu"
}
layer {
  name: "res4_12_branch2a"
  type: "Convolution"
  bottom: "res4_11_relu"
  top: "res4_12_branch2a"
  convolution_param {
    num_output: 256
    pad: 0
    kernel_size: 1
    stride: 1
    bias_term: false
    weight_filler {
      type: "msra"
    }
  }
}
layer {
	bottom: "res4_12_branch2a"
	top: "bn4_12_branch2a"
	name: "bn4_12_branch2a"
	type: "BatchNorm"
	include {
		phase: TRAIN
	}
	batch_norm_param {
		use_global_stats: false
	}
	param {
    		lr_mult: 0
  	}
	 param {
    		lr_mult: 0
  	}
  	param {
    		lr_mult: 0
  	}
}

layer {
	bottom: "res4_12_branch2a"
	top: "bn4_12_branch2a"
	name: "bn4_12_branch2a"
	type: "BatchNorm"
	include {
		phase: TEST
	}
	batch_norm_param {
		use_global_stats: true
	}
	param {
    		lr_mult: 0
  	}
	 param {
    		lr_mult: 0
  	}
  	param {
    		lr_mult: 0
  	}
}

layer {
	bottom: "bn4_12_branch2a"
	top: "scale4_12_branch2a"
	name: "scale4_12_branch2a"
	type: "Scale"
	scale_param {
		bias_term: true
	}
}
layer {
  name: "res4_12_branch2a_relu"
  type: "ReLU"
  bottom: "scale4_12_branch2a"
  top: "res4_12_branch2a_relu"
}
layer {
  name: "res4_12_branch2b"
  type: "Convolution"
  bottom: "res4_12_branch2a_relu"
  top: "res4_12_branch2b"
  convolution_param {
    num_output: 256
    pad: 1
    kernel_size: 3
    stride: 1
    bias_term: false
    weight_filler {
      type: "msra"
    }
  }
}
layer {
	bottom: "res4_12_branch2b"
	top: "bn4_12_branch2b"
	name: "bn4_12_branch2b"
	type: "BatchNorm"
	include {
		phase: TRAIN
	}
	batch_norm_param {
		use_global_stats: false
	}
	param {
    		lr_mult: 0
  	}
	 param {
    		lr_mult: 0
  	}
  	param {
    		lr_mult: 0
  	}
}

layer {
	bottom: "res4_12_branch2b"
	top: "bn4_12_branch2b"
	name: "bn4_12_branch2b"
	type: "BatchNorm"
	include {
		phase: TEST
	}
	batch_norm_param {
		use_global_stats: true
	}
	param {
    		lr_mult: 0
  	}
	 param {
    		lr_mult: 0
  	}
  	param {
    		lr_mult: 0
  	}
}

layer {
	bottom: "bn4_12_branch2b"
	top: "scale4_12_branch2b"
	name: "scale4_12_branch2b"
	type: "Scale"
	scale_param {
		bias_term: true
	}
}
layer {
  name: "res4_12_branch2b_relu"
  type: "ReLU"
  bottom: "scale4_12_branch2b"
  top: "res4_12_branch2b_relu"
}
layer {
  name: "res4_12_branch2c"
  type: "Convolution"
  bottom: "res4_12_branch2b_relu"
  top: "res4_12_branch2c"
  convolution_param {
    num_output: 1024
    pad: 0
    kernel_size: 1
    stride: 1
    bias_term: false
    weight_filler {
      type: "msra"
    }
  }
}
layer {
	bottom: "res4_12_branch2c"
	top: "bn4_12_branch2c"
	name: "bn4_12_branch2c"
	type: "BatchNorm"
	include {
		phase: TRAIN
	}
	batch_norm_param {
		use_global_stats: false
	}
	param {
    		lr_mult: 0
  	}
	 param {
    		lr_mult: 0
  	}
  	param {
    		lr_mult: 0
  	}
}

layer {
	bottom: "res4_12_branch2c"
	top: "bn4_12_branch2c"
	name: "bn4_12_branch2c"
	type: "BatchNorm"
	include {
		phase: TEST
	}
	batch_norm_param {
		use_global_stats: true
	}
	param {
    		lr_mult: 0
  	}
	 param {
    		lr_mult: 0
  	}
  	param {
    		lr_mult: 0
  	}
}

layer {
	bottom: "bn4_12_branch2c"
	top: "scale4_12_branch2c"
	name: "scale4_12_branch2c"
	type: "Scale"
	scale_param {
		bias_term: true
	}
}
layer {
  type: "Eltwise"
  bottom: "res4_11_relu"
  bottom: "scale4_12_branch2c"
  name: "res4_12"
  top: "res4_12"
}
layer {
  name: "res4_12_relu"
  type: "ReLU"
  bottom: "res4_12"
  top: "res4_12_relu"
}
layer {
  name: "res4_13_branch2a"
  type: "Convolution"
  bottom: "res4_12_relu"
  top: "res4_13_branch2a"
  convolution_param {
    num_output: 256
    pad: 0
    kernel_size: 1
    stride: 1
    bias_term: false
    weight_filler {
      type: "msra"
    }
  }
}
layer {
	bottom: "res4_13_branch2a"
	top: "bn4_13_branch2a"
	name: "bn4_13_branch2a"
	type: "BatchNorm"
	include {
		phase: TRAIN
	}
	batch_norm_param {
		use_global_stats: false
	}
	param {
    		lr_mult: 0
  	}
	 param {
    		lr_mult: 0
  	}
  	param {
    		lr_mult: 0
  	}
}

layer {
	bottom: "res4_13_branch2a"
	top: "bn4_13_branch2a"
	name: "bn4_13_branch2a"
	type: "BatchNorm"
	include {
		phase: TEST
	}
	batch_norm_param {
		use_global_stats: true
	}
	param {
    		lr_mult: 0
  	}
	 param {
    		lr_mult: 0
  	}
  	param {
    		lr_mult: 0
  	}
}

layer {
	bottom: "bn4_13_branch2a"
	top: "scale4_13_branch2a"
	name: "scale4_13_branch2a"
	type: "Scale"
	scale_param {
		bias_term: true
	}
}
layer {
  name: "res4_13_branch2a_relu"
  type: "ReLU"
  bottom: "scale4_13_branch2a"
  top: "res4_13_branch2a_relu"
}
layer {
  name: "res4_13_branch2b"
  type: "Convolution"
  bottom: "res4_13_branch2a_relu"
  top: "res4_13_branch2b"
  convolution_param {
    num_output: 256
    pad: 1
    kernel_size: 3
    stride: 1
    bias_term: false
    weight_filler {
      type: "msra"
    }
  }
}
layer {
	bottom: "res4_13_branch2b"
	top: "bn4_13_branch2b"
	name: "bn4_13_branch2b"
	type: "BatchNorm"
	include {
		phase: TRAIN
	}
	batch_norm_param {
		use_global_stats: false
	}
	param {
    		lr_mult: 0
  	}
	 param {
    		lr_mult: 0
  	}
  	param {
    		lr_mult: 0
  	}
}

layer {
	bottom: "res4_13_branch2b"
	top: "bn4_13_branch2b"
	name: "bn4_13_branch2b"
	type: "BatchNorm"
	include {
		phase: TEST
	}
	batch_norm_param {
		use_global_stats: true
	}
	param {
    		lr_mult: 0
  	}
	 param {
    		lr_mult: 0
  	}
  	param {
    		lr_mult: 0
  	}
}

layer {
	bottom: "bn4_13_branch2b"
	top: "scale4_13_branch2b"
	name: "scale4_13_branch2b"
	type: "Scale"
	scale_param {
		bias_term: true
	}
}
layer {
  name: "res4_13_branch2b_relu"
  type: "ReLU"
  bottom: "scale4_13_branch2b"
  top: "res4_13_branch2b_relu"
}
layer {
  name: "res4_13_branch2c"
  type: "Convolution"
  bottom: "res4_13_branch2b_relu"
  top: "res4_13_branch2c"
  convolution_param {
    num_output: 1024
    pad: 0
    kernel_size: 1
    stride: 1
    bias_term: false
    weight_filler {
      type: "msra"
    }
  }
}
layer {
	bottom: "res4_13_branch2c"
	top: "bn4_13_branch2c"
	name: "bn4_13_branch2c"
	type: "BatchNorm"
	include {
		phase: TRAIN
	}
	batch_norm_param {
		use_global_stats: false
	}
	param {
    		lr_mult: 0
  	}
	 param {
    		lr_mult: 0
  	}
  	param {
    		lr_mult: 0
  	}
}

layer {
	bottom: "res4_13_branch2c"
	top: "bn4_13_branch2c"
	name: "bn4_13_branch2c"
	type: "BatchNorm"
	include {
		phase: TEST
	}
	batch_norm_param {
		use_global_stats: true
	}
	param {
    		lr_mult: 0
  	}
	 param {
    		lr_mult: 0
  	}
  	param {
    		lr_mult: 0
  	}
}

layer {
	bottom: "bn4_13_branch2c"
	top: "scale4_13_branch2c"
	name: "scale4_13_branch2c"
	type: "Scale"
	scale_param {
		bias_term: true
	}
}
layer {
  type: "Eltwise"
  bottom: "res4_12_relu"
  bottom: "scale4_13_branch2c"
  name: "res4_13"
  top: "res4_13"
}
layer {
  name: "res4_13_relu"
  type: "ReLU"
  bottom: "res4_13"
  top: "res4_13_relu"
}
layer {
  name: "res4_14_branch2a"
  type: "Convolution"
  bottom: "res4_13_relu"
  top: "res4_14_branch2a"
  convolution_param {
    num_output: 256
    pad: 0
    kernel_size: 1
    stride: 1
    bias_term: false
    weight_filler {
      type: "msra"
    }
  }
}
layer {
	bottom: "res4_14_branch2a"
	top: "bn4_14_branch2a"
	name: "bn4_14_branch2a"
	type: "BatchNorm"
	include {
		phase: TRAIN
	}
	batch_norm_param {
		use_global_stats: false
	}
	param {
    		lr_mult: 0
  	}
	 param {
    		lr_mult: 0
  	}
  	param {
    		lr_mult: 0
  	}
}

layer {
	bottom: "res4_14_branch2a"
	top: "bn4_14_branch2a"
	name: "bn4_14_branch2a"
	type: "BatchNorm"
	include {
		phase: TEST
	}
	batch_norm_param {
		use_global_stats: true
	}
	param {
    		lr_mult: 0
  	}
	 param {
    		lr_mult: 0
  	}
  	param {
    		lr_mult: 0
  	}
}

layer {
	bottom: "bn4_14_branch2a"
	top: "scale4_14_branch2a"
	name: "scale4_14_branch2a"
	type: "Scale"
	scale_param {
		bias_term: true
	}
}
layer {
  name: "res4_14_branch2a_relu"
  type: "ReLU"
  bottom: "scale4_14_branch2a"
  top: "res4_14_branch2a_relu"
}
layer {
  name: "res4_14_branch2b"
  type: "Convolution"
  bottom: "res4_14_branch2a_relu"
  top: "res4_14_branch2b"
  convolution_param {
    num_output: 256
    pad: 1
    kernel_size: 3
    stride: 1
    bias_term: false
    weight_filler {
      type: "msra"
    }
  }
}
layer {
	bottom: "res4_14_branch2b"
	top: "bn4_14_branch2b"
	name: "bn4_14_branch2b"
	type: "BatchNorm"
	include {
		phase: TRAIN
	}
	batch_norm_param {
		use_global_stats: false
	}
	param {
    		lr_mult: 0
  	}
	 param {
    		lr_mult: 0
  	}
  	param {
    		lr_mult: 0
  	}
}

layer {
	bottom: "res4_14_branch2b"
	top: "bn4_14_branch2b"
	name: "bn4_14_branch2b"
	type: "BatchNorm"
	include {
		phase: TEST
	}
	batch_norm_param {
		use_global_stats: true
	}
	param {
    		lr_mult: 0
  	}
	 param {
    		lr_mult: 0
  	}
  	param {
    		lr_mult: 0
  	}
}

layer {
	bottom: "bn4_14_branch2b"
	top: "scale4_14_branch2b"
	name: "scale4_14_branch2b"
	type: "Scale"
	scale_param {
		bias_term: true
	}
}
layer {
  name: "res4_14_branch2b_relu"
  type: "ReLU"
  bottom: "scale4_14_branch2b"
  top: "res4_14_branch2b_relu"
}
layer {
  name: "res4_14_branch2c"
  type: "Convolution"
  bottom: "res4_14_branch2b_relu"
  top: "res4_14_branch2c"
  convolution_param {
    num_output: 1024
    pad: 0
    kernel_size: 1
    stride: 1
    bias_term: false
    weight_filler {
      type: "msra"
    }
  }
}
layer {
	bottom: "res4_14_branch2c"
	top: "bn4_14_branch2c"
	name: "bn4_14_branch2c"
	type: "BatchNorm"
	include {
		phase: TRAIN
	}
	batch_norm_param {
		use_global_stats: false
	}
	param {
    		lr_mult: 0
  	}
	 param {
    		lr_mult: 0
  	}
  	param {
    		lr_mult: 0
  	}
}

layer {
	bottom: "res4_14_branch2c"
	top: "bn4_14_branch2c"
	name: "bn4_14_branch2c"
	type: "BatchNorm"
	include {
		phase: TEST
	}
	batch_norm_param {
		use_global_stats: true
	}
	param {
    		lr_mult: 0
  	}
	 param {
    		lr_mult: 0
  	}
  	param {
    		lr_mult: 0
  	}
}

layer {
	bottom: "bn4_14_branch2c"
	top: "scale4_14_branch2c"
	name: "scale4_14_branch2c"
	type: "Scale"
	scale_param {
		bias_term: true
	}
}
layer {
  type: "Eltwise"
  bottom: "res4_13_relu"
  bottom: "scale4_14_branch2c"
  name: "res4_14"
  top: "res4_14"
}
layer {
  name: "res4_14_relu"
  type: "ReLU"
  bottom: "res4_14"
  top: "res4_14_relu"
}
layer {
  name: "res4_15_branch2a"
  type: "Convolution"
  bottom: "res4_14_relu"
  top: "res4_15_branch2a"
  convolution_param {
    num_output: 256
    pad: 0
    kernel_size: 1
    stride: 1
    bias_term: false
    weight_filler {
      type: "msra"
    }
  }
}
layer {
	bottom: "res4_15_branch2a"
	top: "bn4_15_branch2a"
	name: "bn4_15_branch2a"
	type: "BatchNorm"
	include {
		phase: TRAIN
	}
	batch_norm_param {
		use_global_stats: false
	}
	param {
    		lr_mult: 0
  	}
	 param {
    		lr_mult: 0
  	}
  	param {
    		lr_mult: 0
  	}
}

layer {
	bottom: "res4_15_branch2a"
	top: "bn4_15_branch2a"
	name: "bn4_15_branch2a"
	type: "BatchNorm"
	include {
		phase: TEST
	}
	batch_norm_param {
		use_global_stats: true
	}
	param {
    		lr_mult: 0
  	}
	 param {
    		lr_mult: 0
  	}
  	param {
    		lr_mult: 0
  	}
}

layer {
	bottom: "bn4_15_branch2a"
	top: "scale4_15_branch2a"
	name: "scale4_15_branch2a"
	type: "Scale"
	scale_param {
		bias_term: true
	}
}
layer {
  name: "res4_15_branch2a_relu"
  type: "ReLU"
  bottom: "scale4_15_branch2a"
  top: "res4_15_branch2a_relu"
}
layer {
  name: "res4_15_branch2b"
  type: "Convolution"
  bottom: "res4_15_branch2a_relu"
  top: "res4_15_branch2b"
  convolution_param {
    num_output: 256
    pad: 1
    kernel_size: 3
    stride: 1
    bias_term: false
    weight_filler {
      type: "msra"
    }
  }
}
layer {
	bottom: "res4_15_branch2b"
	top: "bn4_15_branch2b"
	name: "bn4_15_branch2b"
	type: "BatchNorm"
	include {
		phase: TRAIN
	}
	batch_norm_param {
		use_global_stats: false
	}
	param {
    		lr_mult: 0
  	}
	 param {
    		lr_mult: 0
  	}
  	param {
    		lr_mult: 0
  	}
}

layer {
	bottom: "res4_15_branch2b"
	top: "bn4_15_branch2b"
	name: "bn4_15_branch2b"
	type: "BatchNorm"
	include {
		phase: TEST
	}
	batch_norm_param {
		use_global_stats: true
	}
	param {
    		lr_mult: 0
  	}
	 param {
    		lr_mult: 0
  	}
  	param {
    		lr_mult: 0
  	}
}

layer {
	bottom: "bn4_15_branch2b"
	top: "scale4_15_branch2b"
	name: "scale4_15_branch2b"
	type: "Scale"
	scale_param {
		bias_term: true
	}
}
layer {
  name: "res4_15_branch2b_relu"
  type: "ReLU"
  bottom: "scale4_15_branch2b"
  top: "res4_15_branch2b_relu"
}
layer {
  name: "res4_15_branch2c"
  type: "Convolution"
  bottom: "res4_15_branch2b_relu"
  top: "res4_15_branch2c"
  convolution_param {
    num_output: 1024
    pad: 0
    kernel_size: 1
    stride: 1
    bias_term: false
    weight_filler {
      type: "msra"
    }
  }
}
layer {
	bottom: "res4_15_branch2c"
	top: "bn4_15_branch2c"
	name: "bn4_15_branch2c"
	type: "BatchNorm"
	include {
		phase: TRAIN
	}
	batch_norm_param {
		use_global_stats: false
	}
	param {
    		lr_mult: 0
  	}
	 param {
    		lr_mult: 0
  	}
  	param {
    		lr_mult: 0
  	}
}

layer {
	bottom: "res4_15_branch2c"
	top: "bn4_15_branch2c"
	name: "bn4_15_branch2c"
	type: "BatchNorm"
	include {
		phase: TEST
	}
	batch_norm_param {
		use_global_stats: true
	}
	param {
    		lr_mult: 0
  	}
	 param {
    		lr_mult: 0
  	}
  	param {
    		lr_mult: 0
  	}
}

layer {
	bottom: "bn4_15_branch2c"
	top: "scale4_15_branch2c"
	name: "scale4_15_branch2c"
	type: "Scale"
	scale_param {
		bias_term: true
	}
}
layer {
  type: "Eltwise"
  bottom: "res4_14_relu"
  bottom: "scale4_15_branch2c"
  name: "res4_15"
  top: "res4_15"
}
layer {
  name: "res4_15_relu"
  type: "ReLU"
  bottom: "res4_15"
  top: "res4_15_relu"
}
layer {
  name: "res4_16_branch2a"
  type: "Convolution"
  bottom: "res4_15_relu"
  top: "res4_16_branch2a"
  convolution_param {
    num_output: 256
    pad: 0
    kernel_size: 1
    stride: 1
    bias_term: false
    weight_filler {
      type: "msra"
    }
  }
}
layer {
	bottom: "res4_16_branch2a"
	top: "bn4_16_branch2a"
	name: "bn4_16_branch2a"
	type: "BatchNorm"
	include {
		phase: TRAIN
	}
	batch_norm_param {
		use_global_stats: false
	}
	param {
    		lr_mult: 0
  	}
	 param {
    		lr_mult: 0
  	}
  	param {
    		lr_mult: 0
  	}
}

layer {
	bottom: "res4_16_branch2a"
	top: "bn4_16_branch2a"
	name: "bn4_16_branch2a"
	type: "BatchNorm"
	include {
		phase: TEST
	}
	batch_norm_param {
		use_global_stats: true
	}
	param {
    		lr_mult: 0
  	}
	 param {
    		lr_mult: 0
  	}
  	param {
    		lr_mult: 0
  	}
}

layer {
	bottom: "bn4_16_branch2a"
	top: "scale4_16_branch2a"
	name: "scale4_16_branch2a"
	type: "Scale"
	scale_param {
		bias_term: true
	}
}
layer {
  name: "res4_16_branch2a_relu"
  type: "ReLU"
  bottom: "scale4_16_branch2a"
  top: "res4_16_branch2a_relu"
}
layer {
  name: "res4_16_branch2b"
  type: "Convolution"
  bottom: "res4_16_branch2a_relu"
  top: "res4_16_branch2b"
  convolution_param {
    num_output: 256
    pad: 1
    kernel_size: 3
    stride: 1
    bias_term: false
    weight_filler {
      type: "msra"
    }
  }
}
layer {
	bottom: "res4_16_branch2b"
	top: "bn4_16_branch2b"
	name: "bn4_16_branch2b"
	type: "BatchNorm"
	include {
		phase: TRAIN
	}
	batch_norm_param {
		use_global_stats: false
	}
	param {
    		lr_mult: 0
  	}
	 param {
    		lr_mult: 0
  	}
  	param {
    		lr_mult: 0
  	}
}

layer {
	bottom: "res4_16_branch2b"
	top: "bn4_16_branch2b"
	name: "bn4_16_branch2b"
	type: "BatchNorm"
	include {
		phase: TEST
	}
	batch_norm_param {
		use_global_stats: true
	}
	param {
    		lr_mult: 0
  	}
	 param {
    		lr_mult: 0
  	}
  	param {
    		lr_mult: 0
  	}
}

layer {
	bottom: "bn4_16_branch2b"
	top: "scale4_16_branch2b"
	name: "scale4_16_branch2b"
	type: "Scale"
	scale_param {
		bias_term: true
	}
}
layer {
  name: "res4_16_branch2b_relu"
  type: "ReLU"
  bottom: "scale4_16_branch2b"
  top: "res4_16_branch2b_relu"
}
layer {
  name: "res4_16_branch2c"
  type: "Convolution"
  bottom: "res4_16_branch2b_relu"
  top: "res4_16_branch2c"
  convolution_param {
    num_output: 1024
    pad: 0
    kernel_size: 1
    stride: 1
    bias_term: false
    weight_filler {
      type: "msra"
    }
  }
}
layer {
	bottom: "res4_16_branch2c"
	top: "bn4_16_branch2c"
	name: "bn4_16_branch2c"
	type: "BatchNorm"
	include {
		phase: TRAIN
	}
	batch_norm_param {
		use_global_stats: false
	}
	param {
    		lr_mult: 0
  	}
	 param {
    		lr_mult: 0
  	}
  	param {
    		lr_mult: 0
  	}
}

layer {
	bottom: "res4_16_branch2c"
	top: "bn4_16_branch2c"
	name: "bn4_16_branch2c"
	type: "BatchNorm"
	include {
		phase: TEST
	}
	batch_norm_param {
		use_global_stats: true
	}
	param {
    		lr_mult: 0
  	}
	 param {
    		lr_mult: 0
  	}
  	param {
    		lr_mult: 0
  	}
}

layer {
	bottom: "bn4_16_branch2c"
	top: "scale4_16_branch2c"
	name: "scale4_16_branch2c"
	type: "Scale"
	scale_param {
		bias_term: true
	}
}
layer {
  type: "Eltwise"
  bottom: "res4_15_relu"
  bottom: "scale4_16_branch2c"
  name: "res4_16"
  top: "res4_16"
}
layer {
  name: "res4_16_relu"
  type: "ReLU"
  bottom: "res4_16"
  top: "res4_16_relu"
}
layer {
  name: "res4_17_branch2a"
  type: "Convolution"
  bottom: "res4_16_relu"
  top: "res4_17_branch2a"
  convolution_param {
    num_output: 256
    pad: 0
    kernel_size: 1
    stride: 1
    bias_term: false
    weight_filler {
      type: "msra"
    }
  }
}
layer {
	bottom: "res4_17_branch2a"
	top: "bn4_17_branch2a"
	name: "bn4_17_branch2a"
	type: "BatchNorm"
	include {
		phase: TRAIN
	}
	batch_norm_param {
		use_global_stats: false
	}
	param {
    		lr_mult: 0
  	}
	 param {
    		lr_mult: 0
  	}
  	param {
    		lr_mult: 0
  	}
}

layer {
	bottom: "res4_17_branch2a"
	top: "bn4_17_branch2a"
	name: "bn4_17_branch2a"
	type: "BatchNorm"
	include {
		phase: TEST
	}
	batch_norm_param {
		use_global_stats: true
	}
	param {
    		lr_mult: 0
  	}
	 param {
    		lr_mult: 0
  	}
  	param {
    		lr_mult: 0
  	}
}

layer {
	bottom: "bn4_17_branch2a"
	top: "scale4_17_branch2a"
	name: "scale4_17_branch2a"
	type: "Scale"
	scale_param {
		bias_term: true
	}
}
layer {
  name: "res4_17_branch2a_relu"
  type: "ReLU"
  bottom: "scale4_17_branch2a"
  top: "res4_17_branch2a_relu"
}
layer {
  name: "res4_17_branch2b"
  type: "Convolution"
  bottom: "res4_17_branch2a_relu"
  top: "res4_17_branch2b"
  convolution_param {
    num_output: 256
    pad: 1
    kernel_size: 3
    stride: 1
    bias_term: false
    weight_filler {
      type: "msra"
    }
  }
}
layer {
	bottom: "res4_17_branch2b"
	top: "bn4_17_branch2b"
	name: "bn4_17_branch2b"
	type: "BatchNorm"
	include {
		phase: TRAIN
	}
	batch_norm_param {
		use_global_stats: false
	}
	param {
    		lr_mult: 0
  	}
	 param {
    		lr_mult: 0
  	}
  	param {
    		lr_mult: 0
  	}
}

layer {
	bottom: "res4_17_branch2b"
	top: "bn4_17_branch2b"
	name: "bn4_17_branch2b"
	type: "BatchNorm"
	include {
		phase: TEST
	}
	batch_norm_param {
		use_global_stats: true
	}
	param {
    		lr_mult: 0
  	}
	 param {
    		lr_mult: 0
  	}
  	param {
    		lr_mult: 0
  	}
}

layer {
	bottom: "bn4_17_branch2b"
	top: "scale4_17_branch2b"
	name: "scale4_17_branch2b"
	type: "Scale"
	scale_param {
		bias_term: true
	}
}
layer {
  name: "res4_17_branch2b_relu"
  type: "ReLU"
  bottom: "scale4_17_branch2b"
  top: "res4_17_branch2b_relu"
}
layer {
  name: "res4_17_branch2c"
  type: "Convolution"
  bottom: "res4_17_branch2b_relu"
  top: "res4_17_branch2c"
  convolution_param {
    num_output: 1024
    pad: 0
    kernel_size: 1
    stride: 1
    bias_term: false
    weight_filler {
      type: "msra"
    }
  }
}
layer {
	bottom: "res4_17_branch2c"
	top: "bn4_17_branch2c"
	name: "bn4_17_branch2c"
	type: "BatchNorm"
	include {
		phase: TRAIN
	}
	batch_norm_param {
		use_global_stats: false
	}
	param {
    		lr_mult: 0
  	}
	 param {
    		lr_mult: 0
  	}
  	param {
    		lr_mult: 0
  	}
}

layer {
	bottom: "res4_17_branch2c"
	top: "bn4_17_branch2c"
	name: "bn4_17_branch2c"
	type: "BatchNorm"
	include {
		phase: TEST
	}
	batch_norm_param {
		use_global_stats: true
	}
	param {
    		lr_mult: 0
  	}
	 param {
    		lr_mult: 0
  	}
  	param {
    		lr_mult: 0
  	}
}

layer {
	bottom: "bn4_17_branch2c"
	top: "scale4_17_branch2c"
	name: "scale4_17_branch2c"
	type: "Scale"
	scale_param {
		bias_term: true
	}
}
layer {
  type: "Eltwise"
  bottom: "res4_16_relu"
  bottom: "scale4_17_branch2c"
  name: "res4_17"
  top: "res4_17"
}
layer {
  name: "res4_17_relu"
  type: "ReLU"
  bottom: "res4_17"
  top: "res4_17_relu"
}
layer {
  name: "res4_18_branch2a"
  type: "Convolution"
  bottom: "res4_17_relu"
  top: "res4_18_branch2a"
  convolution_param {
    num_output: 256
    pad: 0
    kernel_size: 1
    stride: 1
    bias_term: false
    weight_filler {
      type: "msra"
    }
  }
}
layer {
	bottom: "res4_18_branch2a"
	top: "bn4_18_branch2a"
	name: "bn4_18_branch2a"
	type: "BatchNorm"
	include {
		phase: TRAIN
	}
	batch_norm_param {
		use_global_stats: false
	}
	param {
    		lr_mult: 0
  	}
	 param {
    		lr_mult: 0
  	}
  	param {
    		lr_mult: 0
  	}
}

layer {
	bottom: "res4_18_branch2a"
	top: "bn4_18_branch2a"
	name: "bn4_18_branch2a"
	type: "BatchNorm"
	include {
		phase: TEST
	}
	batch_norm_param {
		use_global_stats: true
	}
	param {
    		lr_mult: 0
  	}
	 param {
    		lr_mult: 0
  	}
  	param {
    		lr_mult: 0
  	}
}

layer {
	bottom: "bn4_18_branch2a"
	top: "scale4_18_branch2a"
	name: "scale4_18_branch2a"
	type: "Scale"
	scale_param {
		bias_term: true
	}
}
layer {
  name: "res4_18_branch2a_relu"
  type: "ReLU"
  bottom: "scale4_18_branch2a"
  top: "res4_18_branch2a_relu"
}
layer {
  name: "res4_18_branch2b"
  type: "Convolution"
  bottom: "res4_18_branch2a_relu"
  top: "res4_18_branch2b"
  convolution_param {
    num_output: 256
    pad: 1
    kernel_size: 3
    stride: 1
    bias_term: false
    weight_filler {
      type: "msra"
    }
  }
}
layer {
	bottom: "res4_18_branch2b"
	top: "bn4_18_branch2b"
	name: "bn4_18_branch2b"
	type: "BatchNorm"
	include {
		phase: TRAIN
	}
	batch_norm_param {
		use_global_stats: false
	}
	param {
    		lr_mult: 0
  	}
	 param {
    		lr_mult: 0
  	}
  	param {
    		lr_mult: 0
  	}
}

layer {
	bottom: "res4_18_branch2b"
	top: "bn4_18_branch2b"
	name: "bn4_18_branch2b"
	type: "BatchNorm"
	include {
		phase: TEST
	}
	batch_norm_param {
		use_global_stats: true
	}
	param {
    		lr_mult: 0
  	}
	 param {
    		lr_mult: 0
  	}
  	param {
    		lr_mult: 0
  	}
}

layer {
	bottom: "bn4_18_branch2b"
	top: "scale4_18_branch2b"
	name: "scale4_18_branch2b"
	type: "Scale"
	scale_param {
		bias_term: true
	}
}
layer {
  name: "res4_18_branch2b_relu"
  type: "ReLU"
  bottom: "scale4_18_branch2b"
  top: "res4_18_branch2b_relu"
}
layer {
  name: "res4_18_branch2c"
  type: "Convolution"
  bottom: "res4_18_branch2b_relu"
  top: "res4_18_branch2c"
  convolution_param {
    num_output: 1024
    pad: 0
    kernel_size: 1
    stride: 1
    bias_term: false
    weight_filler {
      type: "msra"
    }
  }
}
layer {
	bottom: "res4_18_branch2c"
	top: "bn4_18_branch2c"
	name: "bn4_18_branch2c"
	type: "BatchNorm"
	include {
		phase: TRAIN
	}
	batch_norm_param {
		use_global_stats: false
	}
	param {
    		lr_mult: 0
  	}
	 param {
    		lr_mult: 0
  	}
  	param {
    		lr_mult: 0
  	}
}

layer {
	bottom: "res4_18_branch2c"
	top: "bn4_18_branch2c"
	name: "bn4_18_branch2c"
	type: "BatchNorm"
	include {
		phase: TEST
	}
	batch_norm_param {
		use_global_stats: true
	}
	param {
    		lr_mult: 0
  	}
	 param {
    		lr_mult: 0
  	}
  	param {
    		lr_mult: 0
  	}
}

layer {
	bottom: "bn4_18_branch2c"
	top: "scale4_18_branch2c"
	name: "scale4_18_branch2c"
	type: "Scale"
	scale_param {
		bias_term: true
	}
}
layer {
  type: "Eltwise"
  bottom: "res4_17_relu"
  bottom: "scale4_18_branch2c"
  name: "res4_18"
  top: "res4_18"
}
layer {
  name: "res4_18_relu"
  type: "ReLU"
  bottom: "res4_18"
  top: "res4_18_relu"
}
layer {
  name: "res4_19_branch2a"
  type: "Convolution"
  bottom: "res4_18_relu"
  top: "res4_19_branch2a"
  convolution_param {
    num_output: 256
    pad: 0
    kernel_size: 1
    stride: 1
    bias_term: false
    weight_filler {
      type: "msra"
    }
  }
}
layer {
	bottom: "res4_19_branch2a"
	top: "bn4_19_branch2a"
	name: "bn4_19_branch2a"
	type: "BatchNorm"
	include {
		phase: TRAIN
	}
	batch_norm_param {
		use_global_stats: false
	}
	param {
    		lr_mult: 0
  	}
	 param {
    		lr_mult: 0
  	}
  	param {
    		lr_mult: 0
  	}
}

layer {
	bottom: "res4_19_branch2a"
	top: "bn4_19_branch2a"
	name: "bn4_19_branch2a"
	type: "BatchNorm"
	include {
		phase: TEST
	}
	batch_norm_param {
		use_global_stats: true
	}
	param {
    		lr_mult: 0
  	}
	 param {
    		lr_mult: 0
  	}
  	param {
    		lr_mult: 0
  	}
}

layer {
	bottom: "bn4_19_branch2a"
	top: "scale4_19_branch2a"
	name: "scale4_19_branch2a"
	type: "Scale"
	scale_param {
		bias_term: true
	}
}
layer {
  name: "res4_19_branch2a_relu"
  type: "ReLU"
  bottom: "scale4_19_branch2a"
  top: "res4_19_branch2a_relu"
}
layer {
  name: "res4_19_branch2b"
  type: "Convolution"
  bottom: "res4_19_branch2a_relu"
  top: "res4_19_branch2b"
  convolution_param {
    num_output: 256
    pad: 1
    kernel_size: 3
    stride: 1
    bias_term: false
    weight_filler {
      type: "msra"
    }
  }
}
layer {
	bottom: "res4_19_branch2b"
	top: "bn4_19_branch2b"
	name: "bn4_19_branch2b"
	type: "BatchNorm"
	include {
		phase: TRAIN
	}
	batch_norm_param {
		use_global_stats: false
	}
	param {
    		lr_mult: 0
  	}
	 param {
    		lr_mult: 0
  	}
  	param {
    		lr_mult: 0
  	}
}

layer {
	bottom: "res4_19_branch2b"
	top: "bn4_19_branch2b"
	name: "bn4_19_branch2b"
	type: "BatchNorm"
	include {
		phase: TEST
	}
	batch_norm_param {
		use_global_stats: true
	}
	param {
    		lr_mult: 0
  	}
	 param {
    		lr_mult: 0
  	}
  	param {
    		lr_mult: 0
  	}
}

layer {
	bottom: "bn4_19_branch2b"
	top: "scale4_19_branch2b"
	name: "scale4_19_branch2b"
	type: "Scale"
	scale_param {
		bias_term: true
	}
}
layer {
  name: "res4_19_branch2b_relu"
  type: "ReLU"
  bottom: "scale4_19_branch2b"
  top: "res4_19_branch2b_relu"
}
layer {
  name: "res4_19_branch2c"
  type: "Convolution"
  bottom: "res4_19_branch2b_relu"
  top: "res4_19_branch2c"
  convolution_param {
    num_output: 1024
    pad: 0
    kernel_size: 1
    stride: 1
    bias_term: false
    weight_filler {
      type: "msra"
    }
  }
}
layer {
	bottom: "res4_19_branch2c"
	top: "bn4_19_branch2c"
	name: "bn4_19_branch2c"
	type: "BatchNorm"
	include {
		phase: TRAIN
	}
	batch_norm_param {
		use_global_stats: false
	}
	param {
    		lr_mult: 0
  	}
	 param {
    		lr_mult: 0
  	}
  	param {
    		lr_mult: 0
  	}
}

layer {
	bottom: "res4_19_branch2c"
	top: "bn4_19_branch2c"
	name: "bn4_19_branch2c"
	type: "BatchNorm"
	include {
		phase: TEST
	}
	batch_norm_param {
		use_global_stats: true
	}
	param {
    		lr_mult: 0
  	}
	 param {
    		lr_mult: 0
  	}
  	param {
    		lr_mult: 0
  	}
}

layer {
	bottom: "bn4_19_branch2c"
	top: "scale4_19_branch2c"
	name: "scale4_19_branch2c"
	type: "Scale"
	scale_param {
		bias_term: true
	}
}
layer {
  type: "Eltwise"
  bottom: "res4_18_relu"
  bottom: "scale4_19_branch2c"
  name: "res4_19"
  top: "res4_19"
}
layer {
  name: "res4_19_relu"
  type: "ReLU"
  bottom: "res4_19"
  top: "res4_19_relu"
}
layer {
  name: "res4_20_branch2a"
  type: "Convolution"
  bottom: "res4_19_relu"
  top: "res4_20_branch2a"
  convolution_param {
    num_output: 256
    pad: 0
    kernel_size: 1
    stride: 1
    bias_term: false
    weight_filler {
      type: "msra"
    }
  }
}
layer {
	bottom: "res4_20_branch2a"
	top: "bn4_20_branch2a"
	name: "bn4_20_branch2a"
	type: "BatchNorm"
	include {
		phase: TRAIN
	}
	batch_norm_param {
		use_global_stats: false
	}
	param {
    		lr_mult: 0
  	}
	 param {
    		lr_mult: 0
  	}
  	param {
    		lr_mult: 0
  	}
}

layer {
	bottom: "res4_20_branch2a"
	top: "bn4_20_branch2a"
	name: "bn4_20_branch2a"
	type: "BatchNorm"
	include {
		phase: TEST
	}
	batch_norm_param {
		use_global_stats: true
	}
	param {
    		lr_mult: 0
  	}
	 param {
    		lr_mult: 0
  	}
  	param {
    		lr_mult: 0
  	}
}

layer {
	bottom: "bn4_20_branch2a"
	top: "scale4_20_branch2a"
	name: "scale4_20_branch2a"
	type: "Scale"
	scale_param {
		bias_term: true
	}
}
layer {
  name: "res4_20_branch2a_relu"
  type: "ReLU"
  bottom: "scale4_20_branch2a"
  top: "res4_20_branch2a_relu"
}
layer {
  name: "res4_20_branch2b"
  type: "Convolution"
  bottom: "res4_20_branch2a_relu"
  top: "res4_20_branch2b"
  convolution_param {
    num_output: 256
    pad: 1
    kernel_size: 3
    stride: 1
    bias_term: false
    weight_filler {
      type: "msra"
    }
  }
}
layer {
	bottom: "res4_20_branch2b"
	top: "bn4_20_branch2b"
	name: "bn4_20_branch2b"
	type: "BatchNorm"
	include {
		phase: TRAIN
	}
	batch_norm_param {
		use_global_stats: false
	}
	param {
    		lr_mult: 0
  	}
	 param {
    		lr_mult: 0
  	}
  	param {
    		lr_mult: 0
  	}
}

layer {
	bottom: "res4_20_branch2b"
	top: "bn4_20_branch2b"
	name: "bn4_20_branch2b"
	type: "BatchNorm"
	include {
		phase: TEST
	}
	batch_norm_param {
		use_global_stats: true
	}
	param {
    		lr_mult: 0
  	}
	 param {
    		lr_mult: 0
  	}
  	param {
    		lr_mult: 0
  	}
}

layer {
	bottom: "bn4_20_branch2b"
	top: "scale4_20_branch2b"
	name: "scale4_20_branch2b"
	type: "Scale"
	scale_param {
		bias_term: true
	}
}
layer {
  name: "res4_20_branch2b_relu"
  type: "ReLU"
  bottom: "scale4_20_branch2b"
  top: "res4_20_branch2b_relu"
}
layer {
  name: "res4_20_branch2c"
  type: "Convolution"
  bottom: "res4_20_branch2b_relu"
  top: "res4_20_branch2c"
  convolution_param {
    num_output: 1024
    pad: 0
    kernel_size: 1
    stride: 1
    bias_term: false
    weight_filler {
      type: "msra"
    }
  }
}
layer {
	bottom: "res4_20_branch2c"
	top: "bn4_20_branch2c"
	name: "bn4_20_branch2c"
	type: "BatchNorm"
	include {
		phase: TRAIN
	}
	batch_norm_param {
		use_global_stats: false
	}
	param {
    		lr_mult: 0
  	}
	 param {
    		lr_mult: 0
  	}
  	param {
    		lr_mult: 0
  	}
}

layer {
	bottom: "res4_20_branch2c"
	top: "bn4_20_branch2c"
	name: "bn4_20_branch2c"
	type: "BatchNorm"
	include {
		phase: TEST
	}
	batch_norm_param {
		use_global_stats: true
	}
	param {
    		lr_mult: 0
  	}
	 param {
    		lr_mult: 0
  	}
  	param {
    		lr_mult: 0
  	}
}

layer {
	bottom: "bn4_20_branch2c"
	top: "scale4_20_branch2c"
	name: "scale4_20_branch2c"
	type: "Scale"
	scale_param {
		bias_term: true
	}
}
layer {
  type: "Eltwise"
  bottom: "res4_19_relu"
  bottom: "scale4_20_branch2c"
  name: "res4_20"
  top: "res4_20"
}
layer {
  name: "res4_20_relu"
  type: "ReLU"
  bottom: "res4_20"
  top: "res4_20_relu"
}
layer {
  name: "res4_21_branch2a"
  type: "Convolution"
  bottom: "res4_20_relu"
  top: "res4_21_branch2a"
  convolution_param {
    num_output: 256
    pad: 0
    kernel_size: 1
    stride: 1
    bias_term: false
    weight_filler {
      type: "msra"
    }
  }
}
layer {
	bottom: "res4_21_branch2a"
	top: "bn4_21_branch2a"
	name: "bn4_21_branch2a"
	type: "BatchNorm"
	include {
		phase: TRAIN
	}
	batch_norm_param {
		use_global_stats: false
	}
	param {
    		lr_mult: 0
  	}
	 param {
    		lr_mult: 0
  	}
  	param {
    		lr_mult: 0
  	}
}

layer {
	bottom: "res4_21_branch2a"
	top: "bn4_21_branch2a"
	name: "bn4_21_branch2a"
	type: "BatchNorm"
	include {
		phase: TEST
	}
	batch_norm_param {
		use_global_stats: true
	}
	param {
    		lr_mult: 0
  	}
	 param {
    		lr_mult: 0
  	}
  	param {
    		lr_mult: 0
  	}
}

layer {
	bottom: "bn4_21_branch2a"
	top: "scale4_21_branch2a"
	name: "scale4_21_branch2a"
	type: "Scale"
	scale_param {
		bias_term: true
	}
}
layer {
  name: "res4_21_branch2a_relu"
  type: "ReLU"
  bottom: "scale4_21_branch2a"
  top: "res4_21_branch2a_relu"
}
layer {
  name: "res4_21_branch2b"
  type: "Convolution"
  bottom: "res4_21_branch2a_relu"
  top: "res4_21_branch2b"
  convolution_param {
    num_output: 256
    pad: 1
    kernel_size: 3
    stride: 1
    bias_term: false
    weight_filler {
      type: "msra"
    }
  }
}
layer {
	bottom: "res4_21_branch2b"
	top: "bn4_21_branch2b"
	name: "bn4_21_branch2b"
	type: "BatchNorm"
	include {
		phase: TRAIN
	}
	batch_norm_param {
		use_global_stats: false
	}
	param {
    		lr_mult: 0
  	}
	 param {
    		lr_mult: 0
  	}
  	param {
    		lr_mult: 0
  	}
}

layer {
	bottom: "res4_21_branch2b"
	top: "bn4_21_branch2b"
	name: "bn4_21_branch2b"
	type: "BatchNorm"
	include {
		phase: TEST
	}
	batch_norm_param {
		use_global_stats: true
	}
	param {
    		lr_mult: 0
  	}
	 param {
    		lr_mult: 0
  	}
  	param {
    		lr_mult: 0
  	}
}

layer {
	bottom: "bn4_21_branch2b"
	top: "scale4_21_branch2b"
	name: "scale4_21_branch2b"
	type: "Scale"
	scale_param {
		bias_term: true
	}
}
layer {
  name: "res4_21_branch2b_relu"
  type: "ReLU"
  bottom: "scale4_21_branch2b"
  top: "res4_21_branch2b_relu"
}
layer {
  name: "res4_21_branch2c"
  type: "Convolution"
  bottom: "res4_21_branch2b_relu"
  top: "res4_21_branch2c"
  convolution_param {
    num_output: 1024
    pad: 0
    kernel_size: 1
    stride: 1
    bias_term: false
    weight_filler {
      type: "msra"
    }
  }
}
layer {
	bottom: "res4_21_branch2c"
	top: "bn4_21_branch2c"
	name: "bn4_21_branch2c"
	type: "BatchNorm"
	include {
		phase: TRAIN
	}
	batch_norm_param {
		use_global_stats: false
	}
	param {
    		lr_mult: 0
  	}
	 param {
    		lr_mult: 0
  	}
  	param {
    		lr_mult: 0
  	}
}

layer {
	bottom: "res4_21_branch2c"
	top: "bn4_21_branch2c"
	name: "bn4_21_branch2c"
	type: "BatchNorm"
	include {
		phase: TEST
	}
	batch_norm_param {
		use_global_stats: true
	}
	param {
    		lr_mult: 0
  	}
	 param {
    		lr_mult: 0
  	}
  	param {
    		lr_mult: 0
  	}
}

layer {
	bottom: "bn4_21_branch2c"
	top: "scale4_21_branch2c"
	name: "scale4_21_branch2c"
	type: "Scale"
	scale_param {
		bias_term: true
	}
}
layer {
  type: "Eltwise"
  bottom: "res4_20_relu"
  bottom: "scale4_21_branch2c"
  name: "res4_21"
  top: "res4_21"
}
layer {
  name: "res4_21_relu"
  type: "ReLU"
  bottom: "res4_21"
  top: "res4_21_relu"
}
layer {
  name: "res4_22_branch2a"
  type: "Convolution"
  bottom: "res4_21_relu"
  top: "res4_22_branch2a"
  convolution_param {
    num_output: 256
    pad: 0
    kernel_size: 1
    stride: 1
    bias_term: false
    weight_filler {
      type: "msra"
    }
  }
}
layer {
	bottom: "res4_22_branch2a"
	top: "bn4_22_branch2a"
	name: "bn4_22_branch2a"
	type: "BatchNorm"
	include {
		phase: TRAIN
	}
	batch_norm_param {
		use_global_stats: false
	}
	param {
    		lr_mult: 0
  	}
	 param {
    		lr_mult: 0
  	}
  	param {
    		lr_mult: 0
  	}
}

layer {
	bottom: "res4_22_branch2a"
	top: "bn4_22_branch2a"
	name: "bn4_22_branch2a"
	type: "BatchNorm"
	include {
		phase: TEST
	}
	batch_norm_param {
		use_global_stats: true
	}
	param {
    		lr_mult: 0
  	}
	 param {
    		lr_mult: 0
  	}
  	param {
    		lr_mult: 0
  	}
}

layer {
	bottom: "bn4_22_branch2a"
	top: "scale4_22_branch2a"
	name: "scale4_22_branch2a"
	type: "Scale"
	scale_param {
		bias_term: true
	}
}
layer {
  name: "res4_22_branch2a_relu"
  type: "ReLU"
  bottom: "scale4_22_branch2a"
  top: "res4_22_branch2a_relu"
}
layer {
  name: "res4_22_branch2b"
  type: "Convolution"
  bottom: "res4_22_branch2a_relu"
  top: "res4_22_branch2b"
  convolution_param {
    num_output: 256
    pad: 1
    kernel_size: 3
    stride: 1
    bias_term: false
    weight_filler {
      type: "msra"
    }
  }
}
layer {
	bottom: "res4_22_branch2b"
	top: "bn4_22_branch2b"
	name: "bn4_22_branch2b"
	type: "BatchNorm"
	include {
		phase: TRAIN
	}
	batch_norm_param {
		use_global_stats: false
	}
	param {
    		lr_mult: 0
  	}
	 param {
    		lr_mult: 0
  	}
  	param {
    		lr_mult: 0
  	}
}

layer {
	bottom: "res4_22_branch2b"
	top: "bn4_22_branch2b"
	name: "bn4_22_branch2b"
	type: "BatchNorm"
	include {
		phase: TEST
	}
	batch_norm_param {
		use_global_stats: true
	}
	param {
    		lr_mult: 0
  	}
	 param {
    		lr_mult: 0
  	}
  	param {
    		lr_mult: 0
  	}
}

layer {
	bottom: "bn4_22_branch2b"
	top: "scale4_22_branch2b"
	name: "scale4_22_branch2b"
	type: "Scale"
	scale_param {
		bias_term: true
	}
}
layer {
  name: "res4_22_branch2b_relu"
  type: "ReLU"
  bottom: "scale4_22_branch2b"
  top: "res4_22_branch2b_relu"
}
layer {
  name: "res4_22_branch2c"
  type: "Convolution"
  bottom: "res4_22_branch2b_relu"
  top: "res4_22_branch2c"
  convolution_param {
    num_output: 1024
    pad: 0
    kernel_size: 1
    stride: 1
    bias_term: false
    weight_filler {
      type: "msra"
    }
  }
}
layer {
	bottom: "res4_22_branch2c"
	top: "bn4_22_branch2c"
	name: "bn4_22_branch2c"
	type: "BatchNorm"
	include {
		phase: TRAIN
	}
	batch_norm_param {
		use_global_stats: false
	}
	param {
    		lr_mult: 0
  	}
	 param {
    		lr_mult: 0
  	}
  	param {
    		lr_mult: 0
  	}
}

layer {
	bottom: "res4_22_branch2c"
	top: "bn4_22_branch2c"
	name: "bn4_22_branch2c"
	type: "BatchNorm"
	include {
		phase: TEST
	}
	batch_norm_param {
		use_global_stats: true
	}
	param {
    		lr_mult: 0
  	}
	 param {
    		lr_mult: 0
  	}
  	param {
    		lr_mult: 0
  	}
}

layer {
	bottom: "bn4_22_branch2c"
	top: "scale4_22_branch2c"
	name: "scale4_22_branch2c"
	type: "Scale"
	scale_param {
		bias_term: true
	}
}
layer {
  type: "Eltwise"
  bottom: "res4_21_relu"
  bottom: "scale4_22_branch2c"
  name: "res4_22"
  top: "res4_22"
}
layer {
  name: "res4_22_relu"
  type: "ReLU"
  bottom: "res4_22"
  top: "res4_22_relu"
}
layer {
  name: "res4_23_branch2a"
  type: "Convolution"
  bottom: "res4_22_relu"
  top: "res4_23_branch2a"
  convolution_param {
    num_output: 256
    pad: 0
    kernel_size: 1
    stride: 1
    bias_term: false
    weight_filler {
      type: "msra"
    }
  }
}
layer {
	bottom: "res4_23_branch2a"
	top: "bn4_23_branch2a"
	name: "bn4_23_branch2a"
	type: "BatchNorm"
	include {
		phase: TRAIN
	}
	batch_norm_param {
		use_global_stats: false
	}
	param {
    		lr_mult: 0
  	}
	 param {
    		lr_mult: 0
  	}
  	param {
    		lr_mult: 0
  	}
}

layer {
	bottom: "res4_23_branch2a"
	top: "bn4_23_branch2a"
	name: "bn4_23_branch2a"
	type: "BatchNorm"
	include {
		phase: TEST
	}
	batch_norm_param {
		use_global_stats: true
	}
	param {
    		lr_mult: 0
  	}
	 param {
    		lr_mult: 0
  	}
  	param {
    		lr_mult: 0
  	}
}

layer {
	bottom: "bn4_23_branch2a"
	top: "scale4_23_branch2a"
	name: "scale4_23_branch2a"
	type: "Scale"
	scale_param {
		bias_term: true
	}
}
layer {
  name: "res4_23_branch2a_relu"
  type: "ReLU"
  bottom: "scale4_23_branch2a"
  top: "res4_23_branch2a_relu"
}
layer {
  name: "res4_23_branch2b"
  type: "Convolution"
  bottom: "res4_23_branch2a_relu"
  top: "res4_23_branch2b"
  convolution_param {
    num_output: 256
    pad: 1
    kernel_size: 3
    stride: 1
    bias_term: false
    weight_filler {
      type: "msra"
    }
  }
}
layer {
	bottom: "res4_23_branch2b"
	top: "bn4_23_branch2b"
	name: "bn4_23_branch2b"
	type: "BatchNorm"
	include {
		phase: TRAIN
	}
	batch_norm_param {
		use_global_stats: false
	}
	param {
    		lr_mult: 0
  	}
	 param {
    		lr_mult: 0
  	}
  	param {
    		lr_mult: 0
  	}
}

layer {
	bottom: "res4_23_branch2b"
	top: "bn4_23_branch2b"
	name: "bn4_23_branch2b"
	type: "BatchNorm"
	include {
		phase: TEST
	}
	batch_norm_param {
		use_global_stats: true
	}
	param {
    		lr_mult: 0
  	}
	 param {
    		lr_mult: 0
  	}
  	param {
    		lr_mult: 0
  	}
}

layer {
	bottom: "bn4_23_branch2b"
	top: "scale4_23_branch2b"
	name: "scale4_23_branch2b"
	type: "Scale"
	scale_param {
		bias_term: true
	}
}
layer {
  name: "res4_23_branch2b_relu"
  type: "ReLU"
  bottom: "scale4_23_branch2b"
  top: "res4_23_branch2b_relu"
}
layer {
  name: "res4_23_branch2c"
  type: "Convolution"
  bottom: "res4_23_branch2b_relu"
  top: "res4_23_branch2c"
  convolution_param {
    num_output: 1024
    pad: 0
    kernel_size: 1
    stride: 1
    bias_term: false
    weight_filler {
      type: "msra"
    }
  }
}
layer {
	bottom: "res4_23_branch2c"
	top: "bn4_23_branch2c"
	name: "bn4_23_branch2c"
	type: "BatchNorm"
	include {
		phase: TRAIN
	}
	batch_norm_param {
		use_global_stats: false
	}
	param {
    		lr_mult: 0
  	}
	 param {
    		lr_mult: 0
  	}
  	param {
    		lr_mult: 0
  	}
}

layer {
	bottom: "res4_23_branch2c"
	top: "bn4_23_branch2c"
	name: "bn4_23_branch2c"
	type: "BatchNorm"
	include {
		phase: TEST
	}
	batch_norm_param {
		use_global_stats: true
	}
	param {
    		lr_mult: 0
  	}
	 param {
    		lr_mult: 0
  	}
  	param {
    		lr_mult: 0
  	}
}

layer {
	bottom: "bn4_23_branch2c"
	top: "scale4_23_branch2c"
	name: "scale4_23_branch2c"
	type: "Scale"
	scale_param {
		bias_term: true
	}
}
layer {
  type: "Eltwise"
  bottom: "res4_22_relu"
  bottom: "scale4_23_branch2c"
  name: "res4_23"
  top: "res4_23"
}
layer {
  name: "res4_23_relu"
  type: "ReLU"
  bottom: "res4_23"
  top: "res4_23_relu"
}
layer {
  name: "res4_24_branch2a"
  type: "Convolution"
  bottom: "res4_23_relu"
  top: "res4_24_branch2a"
  convolution_param {
    num_output: 256
    pad: 0
    kernel_size: 1
    stride: 1
    bias_term: false
    weight_filler {
      type: "msra"
    }
  }
}
layer {
	bottom: "res4_24_branch2a"
	top: "bn4_24_branch2a"
	name: "bn4_24_branch2a"
	type: "BatchNorm"
	include {
		phase: TRAIN
	}
	batch_norm_param {
		use_global_stats: false
	}
	param {
    		lr_mult: 0
  	}
	 param {
    		lr_mult: 0
  	}
  	param {
    		lr_mult: 0
  	}
}

layer {
	bottom: "res4_24_branch2a"
	top: "bn4_24_branch2a"
	name: "bn4_24_branch2a"
	type: "BatchNorm"
	include {
		phase: TEST
	}
	batch_norm_param {
		use_global_stats: true
	}
	param {
    		lr_mult: 0
  	}
	 param {
    		lr_mult: 0
  	}
  	param {
    		lr_mult: 0
  	}
}

layer {
	bottom: "bn4_24_branch2a"
	top: "scale4_24_branch2a"
	name: "scale4_24_branch2a"
	type: "Scale"
	scale_param {
		bias_term: true
	}
}
layer {
  name: "res4_24_branch2a_relu"
  type: "ReLU"
  bottom: "scale4_24_branch2a"
  top: "res4_24_branch2a_relu"
}
layer {
  name: "res4_24_branch2b"
  type: "Convolution"
  bottom: "res4_24_branch2a_relu"
  top: "res4_24_branch2b"
  convolution_param {
    num_output: 256
    pad: 1
    kernel_size: 3
    stride: 1
    bias_term: false
    weight_filler {
      type: "msra"
    }
  }
}
layer {
	bottom: "res4_24_branch2b"
	top: "bn4_24_branch2b"
	name: "bn4_24_branch2b"
	type: "BatchNorm"
	include {
		phase: TRAIN
	}
	batch_norm_param {
		use_global_stats: false
	}
	param {
    		lr_mult: 0
  	}
	 param {
    		lr_mult: 0
  	}
  	param {
    		lr_mult: 0
  	}
}

layer {
	bottom: "res4_24_branch2b"
	top: "bn4_24_branch2b"
	name: "bn4_24_branch2b"
	type: "BatchNorm"
	include {
		phase: TEST
	}
	batch_norm_param {
		use_global_stats: true
	}
	param {
    		lr_mult: 0
  	}
	 param {
    		lr_mult: 0
  	}
  	param {
    		lr_mult: 0
  	}
}

layer {
	bottom: "bn4_24_branch2b"
	top: "scale4_24_branch2b"
	name: "scale4_24_branch2b"
	type: "Scale"
	scale_param {
		bias_term: true
	}
}
layer {
  name: "res4_24_branch2b_relu"
  type: "ReLU"
  bottom: "scale4_24_branch2b"
  top: "res4_24_branch2b_relu"
}
layer {
  name: "res4_24_branch2c"
  type: "Convolution"
  bottom: "res4_24_branch2b_relu"
  top: "res4_24_branch2c"
  convolution_param {
    num_output: 1024
    pad: 0
    kernel_size: 1
    stride: 1
    bias_term: false
    weight_filler {
      type: "msra"
    }
  }
}
layer {
	bottom: "res4_24_branch2c"
	top: "bn4_24_branch2c"
	name: "bn4_24_branch2c"
	type: "BatchNorm"
	include {
		phase: TRAIN
	}
	batch_norm_param {
		use_global_stats: false
	}
	param {
    		lr_mult: 0
  	}
	 param {
    		lr_mult: 0
  	}
  	param {
    		lr_mult: 0
  	}
}

layer {
	bottom: "res4_24_branch2c"
	top: "bn4_24_branch2c"
	name: "bn4_24_branch2c"
	type: "BatchNorm"
	include {
		phase: TEST
	}
	batch_norm_param {
		use_global_stats: true
	}
	param {
    		lr_mult: 0
  	}
	 param {
    		lr_mult: 0
  	}
  	param {
    		lr_mult: 0
  	}
}

layer {
	bottom: "bn4_24_branch2c"
	top: "scale4_24_branch2c"
	name: "scale4_24_branch2c"
	type: "Scale"
	scale_param {
		bias_term: true
	}
}
layer {
  type: "Eltwise"
  bottom: "res4_23_relu"
  bottom: "scale4_24_branch2c"
  name: "res4_24"
  top: "res4_24"
}
layer {
  name: "res4_24_relu"
  type: "ReLU"
  bottom: "res4_24"
  top: "res4_24_relu"
}
layer {
  name: "res4_25_branch2a"
  type: "Convolution"
  bottom: "res4_24_relu"
  top: "res4_25_branch2a"
  convolution_param {
    num_output: 256
    pad: 0
    kernel_size: 1
    stride: 1
    bias_term: false
    weight_filler {
      type: "msra"
    }
  }
}
layer {
	bottom: "res4_25_branch2a"
	top: "bn4_25_branch2a"
	name: "bn4_25_branch2a"
	type: "BatchNorm"
	include {
		phase: TRAIN
	}
	batch_norm_param {
		use_global_stats: false
	}
	param {
    		lr_mult: 0
  	}
	 param {
    		lr_mult: 0
  	}
  	param {
    		lr_mult: 0
  	}
}

layer {
	bottom: "res4_25_branch2a"
	top: "bn4_25_branch2a"
	name: "bn4_25_branch2a"
	type: "BatchNorm"
	include {
		phase: TEST
	}
	batch_norm_param {
		use_global_stats: true
	}
	param {
    		lr_mult: 0
  	}
	 param {
    		lr_mult: 0
  	}
  	param {
    		lr_mult: 0
  	}
}

layer {
	bottom: "bn4_25_branch2a"
	top: "scale4_25_branch2a"
	name: "scale4_25_branch2a"
	type: "Scale"
	scale_param {
		bias_term: true
	}
}
layer {
  name: "res4_25_branch2a_relu"
  type: "ReLU"
  bottom: "scale4_25_branch2a"
  top: "res4_25_branch2a_relu"
}
layer {
  name: "res4_25_branch2b"
  type: "Convolution"
  bottom: "res4_25_branch2a_relu"
  top: "res4_25_branch2b"
  convolution_param {
    num_output: 256
    pad: 1
    kernel_size: 3
    stride: 1
    bias_term: false
    weight_filler {
      type: "msra"
    }
  }
}
layer {
	bottom: "res4_25_branch2b"
	top: "bn4_25_branch2b"
	name: "bn4_25_branch2b"
	type: "BatchNorm"
	include {
		phase: TRAIN
	}
	batch_norm_param {
		use_global_stats: false
	}
	param {
    		lr_mult: 0
  	}
	 param {
    		lr_mult: 0
  	}
  	param {
    		lr_mult: 0
  	}
}

layer {
	bottom: "res4_25_branch2b"
	top: "bn4_25_branch2b"
	name: "bn4_25_branch2b"
	type: "BatchNorm"
	include {
		phase: TEST
	}
	batch_norm_param {
		use_global_stats: true
	}
	param {
    		lr_mult: 0
  	}
	 param {
    		lr_mult: 0
  	}
  	param {
    		lr_mult: 0
  	}
}

layer {
	bottom: "bn4_25_branch2b"
	top: "scale4_25_branch2b"
	name: "scale4_25_branch2b"
	type: "Scale"
	scale_param {
		bias_term: true
	}
}
layer {
  name: "res4_25_branch2b_relu"
  type: "ReLU"
  bottom: "scale4_25_branch2b"
  top: "res4_25_branch2b_relu"
}
layer {
  name: "res4_25_branch2c"
  type: "Convolution"
  bottom: "res4_25_branch2b_relu"
  top: "res4_25_branch2c"
  convolution_param {
    num_output: 1024
    pad: 0
    kernel_size: 1
    stride: 1
    bias_term: false
    weight_filler {
      type: "msra"
    }
  }
}
layer {
	bottom: "res4_25_branch2c"
	top: "bn4_25_branch2c"
	name: "bn4_25_branch2c"
	type: "BatchNorm"
	include {
		phase: TRAIN
	}
	batch_norm_param {
		use_global_stats: false
	}
	param {
    		lr_mult: 0
  	}
	 param {
    		lr_mult: 0
  	}
  	param {
    		lr_mult: 0
  	}
}

layer {
	bottom: "res4_25_branch2c"
	top: "bn4_25_branch2c"
	name: "bn4_25_branch2c"
	type: "BatchNorm"
	include {
		phase: TEST
	}
	batch_norm_param {
		use_global_stats: true
	}
	param {
    		lr_mult: 0
  	}
	 param {
    		lr_mult: 0
  	}
  	param {
    		lr_mult: 0
  	}
}

layer {
	bottom: "bn4_25_branch2c"
	top: "scale4_25_branch2c"
	name: "scale4_25_branch2c"
	type: "Scale"
	scale_param {
		bias_term: true
	}
}
layer {
  type: "Eltwise"
  bottom: "res4_24_relu"
  bottom: "scale4_25_branch2c"
  name: "res4_25"
  top: "res4_25"
}
layer {
  name: "res4_25_relu"
  type: "ReLU"
  bottom: "res4_25"
  top: "res4_25_relu"
}
layer {
  name: "res4_26_branch2a"
  type: "Convolution"
  bottom: "res4_25_relu"
  top: "res4_26_branch2a"
  convolution_param {
    num_output: 256
    pad: 0
    kernel_size: 1
    stride: 1
    bias_term: false
    weight_filler {
      type: "msra"
    }
  }
}
layer {
	bottom: "res4_26_branch2a"
	top: "bn4_26_branch2a"
	name: "bn4_26_branch2a"
	type: "BatchNorm"
	include {
		phase: TRAIN
	}
	batch_norm_param {
		use_global_stats: false
	}
	param {
    		lr_mult: 0
  	}
	 param {
    		lr_mult: 0
  	}
  	param {
    		lr_mult: 0
  	}
}

layer {
	bottom: "res4_26_branch2a"
	top: "bn4_26_branch2a"
	name: "bn4_26_branch2a"
	type: "BatchNorm"
	include {
		phase: TEST
	}
	batch_norm_param {
		use_global_stats: true
	}
	param {
    		lr_mult: 0
  	}
	 param {
    		lr_mult: 0
  	}
  	param {
    		lr_mult: 0
  	}
}

layer {
	bottom: "bn4_26_branch2a"
	top: "scale4_26_branch2a"
	name: "scale4_26_branch2a"
	type: "Scale"
	scale_param {
		bias_term: true
	}
}
layer {
  name: "res4_26_branch2a_relu"
  type: "ReLU"
  bottom: "scale4_26_branch2a"
  top: "res4_26_branch2a_relu"
}
layer {
  name: "res4_26_branch2b"
  type: "Convolution"
  bottom: "res4_26_branch2a_relu"
  top: "res4_26_branch2b"
  convolution_param {
    num_output: 256
    pad: 1
    kernel_size: 3
    stride: 1
    bias_term: false
    weight_filler {
      type: "msra"
    }
  }
}
layer {
	bottom: "res4_26_branch2b"
	top: "bn4_26_branch2b"
	name: "bn4_26_branch2b"
	type: "BatchNorm"
	include {
		phase: TRAIN
	}
	batch_norm_param {
		use_global_stats: false
	}
	param {
    		lr_mult: 0
  	}
	 param {
    		lr_mult: 0
  	}
  	param {
    		lr_mult: 0
  	}
}

layer {
	bottom: "res4_26_branch2b"
	top: "bn4_26_branch2b"
	name: "bn4_26_branch2b"
	type: "BatchNorm"
	include {
		phase: TEST
	}
	batch_norm_param {
		use_global_stats: true
	}
	param {
    		lr_mult: 0
  	}
	 param {
    		lr_mult: 0
  	}
  	param {
    		lr_mult: 0
  	}
}

layer {
	bottom: "bn4_26_branch2b"
	top: "scale4_26_branch2b"
	name: "scale4_26_branch2b"
	type: "Scale"
	scale_param {
		bias_term: true
	}
}
layer {
  name: "res4_26_branch2b_relu"
  type: "ReLU"
  bottom: "scale4_26_branch2b"
  top: "res4_26_branch2b_relu"
}
layer {
  name: "res4_26_branch2c"
  type: "Convolution"
  bottom: "res4_26_branch2b_relu"
  top: "res4_26_branch2c"
  convolution_param {
    num_output: 1024
    pad: 0
    kernel_size: 1
    stride: 1
    bias_term: false
    weight_filler {
      type: "msra"
    }
  }
}
layer {
	bottom: "res4_26_branch2c"
	top: "bn4_26_branch2c"
	name: "bn4_26_branch2c"
	type: "BatchNorm"
	include {
		phase: TRAIN
	}
	batch_norm_param {
		use_global_stats: false
	}
	param {
    		lr_mult: 0
  	}
	 param {
    		lr_mult: 0
  	}
  	param {
    		lr_mult: 0
  	}
}

layer {
	bottom: "res4_26_branch2c"
	top: "bn4_26_branch2c"
	name: "bn4_26_branch2c"
	type: "BatchNorm"
	include {
		phase: TEST
	}
	batch_norm_param {
		use_global_stats: true
	}
	param {
    		lr_mult: 0
  	}
	 param {
    		lr_mult: 0
  	}
  	param {
    		lr_mult: 0
  	}
}

layer {
	bottom: "bn4_26_branch2c"
	top: "scale4_26_branch2c"
	name: "scale4_26_branch2c"
	type: "Scale"
	scale_param {
		bias_term: true
	}
}
layer {
  type: "Eltwise"
  bottom: "res4_25_relu"
  bottom: "scale4_26_branch2c"
  name: "res4_26"
  top: "res4_26"
}
layer {
  name: "res4_26_relu"
  type: "ReLU"
  bottom: "res4_26"
  top: "res4_26_relu"
}
layer {
  name: "res4_27_branch2a"
  type: "Convolution"
  bottom: "res4_26_relu"
  top: "res4_27_branch2a"
  convolution_param {
    num_output: 256
    pad: 0
    kernel_size: 1
    stride: 1
    bias_term: false
    weight_filler {
      type: "msra"
    }
  }
}
layer {
	bottom: "res4_27_branch2a"
	top: "bn4_27_branch2a"
	name: "bn4_27_branch2a"
	type: "BatchNorm"
	include {
		phase: TRAIN
	}
	batch_norm_param {
		use_global_stats: false
	}
	param {
    		lr_mult: 0
  	}
	 param {
    		lr_mult: 0
  	}
  	param {
    		lr_mult: 0
  	}
}

layer {
	bottom: "res4_27_branch2a"
	top: "bn4_27_branch2a"
	name: "bn4_27_branch2a"
	type: "BatchNorm"
	include {
		phase: TEST
	}
	batch_norm_param {
		use_global_stats: true
	}
	param {
    		lr_mult: 0
  	}
	 param {
    		lr_mult: 0
  	}
  	param {
    		lr_mult: 0
  	}
}

layer {
	bottom: "bn4_27_branch2a"
	top: "scale4_27_branch2a"
	name: "scale4_27_branch2a"
	type: "Scale"
	scale_param {
		bias_term: true
	}
}
layer {
  name: "res4_27_branch2a_relu"
  type: "ReLU"
  bottom: "scale4_27_branch2a"
  top: "res4_27_branch2a_relu"
}
layer {
  name: "res4_27_branch2b"
  type: "Convolution"
  bottom: "res4_27_branch2a_relu"
  top: "res4_27_branch2b"
  convolution_param {
    num_output: 256
    pad: 1
    kernel_size: 3
    stride: 1
    bias_term: false
    weight_filler {
      type: "msra"
    }
  }
}
layer {
	bottom: "res4_27_branch2b"
	top: "bn4_27_branch2b"
	name: "bn4_27_branch2b"
	type: "BatchNorm"
	include {
		phase: TRAIN
	}
	batch_norm_param {
		use_global_stats: false
	}
	param {
    		lr_mult: 0
  	}
	 param {
    		lr_mult: 0
  	}
  	param {
    		lr_mult: 0
  	}
}

layer {
	bottom: "res4_27_branch2b"
	top: "bn4_27_branch2b"
	name: "bn4_27_branch2b"
	type: "BatchNorm"
	include {
		phase: TEST
	}
	batch_norm_param {
		use_global_stats: true
	}
	param {
    		lr_mult: 0
  	}
	 param {
    		lr_mult: 0
  	}
  	param {
    		lr_mult: 0
  	}
}

layer {
	bottom: "bn4_27_branch2b"
	top: "scale4_27_branch2b"
	name: "scale4_27_branch2b"
	type: "Scale"
	scale_param {
		bias_term: true
	}
}
layer {
  name: "res4_27_branch2b_relu"
  type: "ReLU"
  bottom: "scale4_27_branch2b"
  top: "res4_27_branch2b_relu"
}
layer {
  name: "res4_27_branch2c"
  type: "Convolution"
  bottom: "res4_27_branch2b_relu"
  top: "res4_27_branch2c"
  convolution_param {
    num_output: 1024
    pad: 0
    kernel_size: 1
    stride: 1
    bias_term: false
    weight_filler {
      type: "msra"
    }
  }
}
layer {
	bottom: "res4_27_branch2c"
	top: "bn4_27_branch2c"
	name: "bn4_27_branch2c"
	type: "BatchNorm"
	include {
		phase: TRAIN
	}
	batch_norm_param {
		use_global_stats: false
	}
	param {
    		lr_mult: 0
  	}
	 param {
    		lr_mult: 0
  	}
  	param {
    		lr_mult: 0
  	}
}

layer {
	bottom: "res4_27_branch2c"
	top: "bn4_27_branch2c"
	name: "bn4_27_branch2c"
	type: "BatchNorm"
	include {
		phase: TEST
	}
	batch_norm_param {
		use_global_stats: true
	}
	param {
    		lr_mult: 0
  	}
	 param {
    		lr_mult: 0
  	}
  	param {
    		lr_mult: 0
  	}
}

layer {
	bottom: "bn4_27_branch2c"
	top: "scale4_27_branch2c"
	name: "scale4_27_branch2c"
	type: "Scale"
	scale_param {
		bias_term: true
	}
}
layer {
  type: "Eltwise"
  bottom: "res4_26_relu"
  bottom: "scale4_27_branch2c"
  name: "res4_27"
  top: "res4_27"
}
layer {
  name: "res4_27_relu"
  type: "ReLU"
  bottom: "res4_27"
  top: "res4_27_relu"
}
layer {
  name: "res4_28_branch2a"
  type: "Convolution"
  bottom: "res4_27_relu"
  top: "res4_28_branch2a"
  convolution_param {
    num_output: 256
    pad: 0
    kernel_size: 1
    stride: 1
    bias_term: false
    weight_filler {
      type: "msra"
    }
  }
}
layer {
	bottom: "res4_28_branch2a"
	top: "bn4_28_branch2a"
	name: "bn4_28_branch2a"
	type: "BatchNorm"
	include {
		phase: TRAIN
	}
	batch_norm_param {
		use_global_stats: false
	}
	param {
    		lr_mult: 0
  	}
	 param {
    		lr_mult: 0
  	}
  	param {
    		lr_mult: 0
  	}
}

layer {
	bottom: "res4_28_branch2a"
	top: "bn4_28_branch2a"
	name: "bn4_28_branch2a"
	type: "BatchNorm"
	include {
		phase: TEST
	}
	batch_norm_param {
		use_global_stats: true
	}
	param {
    		lr_mult: 0
  	}
	 param {
    		lr_mult: 0
  	}
  	param {
    		lr_mult: 0
  	}
}

layer {
	bottom: "bn4_28_branch2a"
	top: "scale4_28_branch2a"
	name: "scale4_28_branch2a"
	type: "Scale"
	scale_param {
		bias_term: true
	}
}
layer {
  name: "res4_28_branch2a_relu"
  type: "ReLU"
  bottom: "scale4_28_branch2a"
  top: "res4_28_branch2a_relu"
}
layer {
  name: "res4_28_branch2b"
  type: "Convolution"
  bottom: "res4_28_branch2a_relu"
  top: "res4_28_branch2b"
  convolution_param {
    num_output: 256
    pad: 1
    kernel_size: 3
    stride: 1
    bias_term: false
    weight_filler {
      type: "msra"
    }
  }
}
layer {
	bottom: "res4_28_branch2b"
	top: "bn4_28_branch2b"
	name: "bn4_28_branch2b"
	type: "BatchNorm"
	include {
		phase: TRAIN
	}
	batch_norm_param {
		use_global_stats: false
	}
	param {
    		lr_mult: 0
  	}
	 param {
    		lr_mult: 0
  	}
  	param {
    		lr_mult: 0
  	}
}

layer {
	bottom: "res4_28_branch2b"
	top: "bn4_28_branch2b"
	name: "bn4_28_branch2b"
	type: "BatchNorm"
	include {
		phase: TEST
	}
	batch_norm_param {
		use_global_stats: true
	}
	param {
    		lr_mult: 0
  	}
	 param {
    		lr_mult: 0
  	}
  	param {
    		lr_mult: 0
  	}
}

layer {
	bottom: "bn4_28_branch2b"
	top: "scale4_28_branch2b"
	name: "scale4_28_branch2b"
	type: "Scale"
	scale_param {
		bias_term: true
	}
}
layer {
  name: "res4_28_branch2b_relu"
  type: "ReLU"
  bottom: "scale4_28_branch2b"
  top: "res4_28_branch2b_relu"
}
layer {
  name: "res4_28_branch2c"
  type: "Convolution"
  bottom: "res4_28_branch2b_relu"
  top: "res4_28_branch2c"
  convolution_param {
    num_output: 1024
    pad: 0
    kernel_size: 1
    stride: 1
    bias_term: false
    weight_filler {
      type: "msra"
    }
  }
}
layer {
	bottom: "res4_28_branch2c"
	top: "bn4_28_branch2c"
	name: "bn4_28_branch2c"
	type: "BatchNorm"
	include {
		phase: TRAIN
	}
	batch_norm_param {
		use_global_stats: false
	}
	param {
    		lr_mult: 0
  	}
	 param {
    		lr_mult: 0
  	}
  	param {
    		lr_mult: 0
  	}
}

layer {
	bottom: "res4_28_branch2c"
	top: "bn4_28_branch2c"
	name: "bn4_28_branch2c"
	type: "BatchNorm"
	include {
		phase: TEST
	}
	batch_norm_param {
		use_global_stats: true
	}
	param {
    		lr_mult: 0
  	}
	 param {
    		lr_mult: 0
  	}
  	param {
    		lr_mult: 0
  	}
}

layer {
	bottom: "bn4_28_branch2c"
	top: "scale4_28_branch2c"
	name: "scale4_28_branch2c"
	type: "Scale"
	scale_param {
		bias_term: true
	}
}
layer {
  type: "Eltwise"
  bottom: "res4_27_relu"
  bottom: "scale4_28_branch2c"
  name: "res4_28"
  top: "res4_28"
}
layer {
  name: "res4_28_relu"
  type: "ReLU"
  bottom: "res4_28"
  top: "res4_28_relu"
}
layer {
  name: "res4_29_branch2a"
  type: "Convolution"
  bottom: "res4_28_relu"
  top: "res4_29_branch2a"
  convolution_param {
    num_output: 256
    pad: 0
    kernel_size: 1
    stride: 1
    bias_term: false
    weight_filler {
      type: "msra"
    }
  }
}
layer {
	bottom: "res4_29_branch2a"
	top: "bn4_29_branch2a"
	name: "bn4_29_branch2a"
	type: "BatchNorm"
	include {
		phase: TRAIN
	}
	batch_norm_param {
		use_global_stats: false
	}
	param {
    		lr_mult: 0
  	}
	 param {
    		lr_mult: 0
  	}
  	param {
    		lr_mult: 0
  	}
}

layer {
	bottom: "res4_29_branch2a"
	top: "bn4_29_branch2a"
	name: "bn4_29_branch2a"
	type: "BatchNorm"
	include {
		phase: TEST
	}
	batch_norm_param {
		use_global_stats: true
	}
	param {
    		lr_mult: 0
  	}
	 param {
    		lr_mult: 0
  	}
  	param {
    		lr_mult: 0
  	}
}

layer {
	bottom: "bn4_29_branch2a"
	top: "scale4_29_branch2a"
	name: "scale4_29_branch2a"
	type: "Scale"
	scale_param {
		bias_term: true
	}
}
layer {
  name: "res4_29_branch2a_relu"
  type: "ReLU"
  bottom: "scale4_29_branch2a"
  top: "res4_29_branch2a_relu"
}
layer {
  name: "res4_29_branch2b"
  type: "Convolution"
  bottom: "res4_29_branch2a_relu"
  top: "res4_29_branch2b"
  convolution_param {
    num_output: 256
    pad: 1
    kernel_size: 3
    stride: 1
    bias_term: false
    weight_filler {
      type: "msra"
    }
  }
}
layer {
	bottom: "res4_29_branch2b"
	top: "bn4_29_branch2b"
	name: "bn4_29_branch2b"
	type: "BatchNorm"
	include {
		phase: TRAIN
	}
	batch_norm_param {
		use_global_stats: false
	}
	param {
    		lr_mult: 0
  	}
	 param {
    		lr_mult: 0
  	}
  	param {
    		lr_mult: 0
  	}
}

layer {
	bottom: "res4_29_branch2b"
	top: "bn4_29_branch2b"
	name: "bn4_29_branch2b"
	type: "BatchNorm"
	include {
		phase: TEST
	}
	batch_norm_param {
		use_global_stats: true
	}
	param {
    		lr_mult: 0
  	}
	 param {
    		lr_mult: 0
  	}
  	param {
    		lr_mult: 0
  	}
}

layer {
	bottom: "bn4_29_branch2b"
	top: "scale4_29_branch2b"
	name: "scale4_29_branch2b"
	type: "Scale"
	scale_param {
		bias_term: true
	}
}
layer {
  name: "res4_29_branch2b_relu"
  type: "ReLU"
  bottom: "scale4_29_branch2b"
  top: "res4_29_branch2b_relu"
}
layer {
  name: "res4_29_branch2c"
  type: "Convolution"
  bottom: "res4_29_branch2b_relu"
  top: "res4_29_branch2c"
  convolution_param {
    num_output: 1024
    pad: 0
    kernel_size: 1
    stride: 1
    bias_term: false
    weight_filler {
      type: "msra"
    }
  }
}
layer {
	bottom: "res4_29_branch2c"
	top: "bn4_29_branch2c"
	name: "bn4_29_branch2c"
	type: "BatchNorm"
	include {
		phase: TRAIN
	}
	batch_norm_param {
		use_global_stats: false
	}
	param {
    		lr_mult: 0
  	}
	 param {
    		lr_mult: 0
  	}
  	param {
    		lr_mult: 0
  	}
}

layer {
	bottom: "res4_29_branch2c"
	top: "bn4_29_branch2c"
	name: "bn4_29_branch2c"
	type: "BatchNorm"
	include {
		phase: TEST
	}
	batch_norm_param {
		use_global_stats: true
	}
	param {
    		lr_mult: 0
  	}
	 param {
    		lr_mult: 0
  	}
  	param {
    		lr_mult: 0
  	}
}

layer {
	bottom: "bn4_29_branch2c"
	top: "scale4_29_branch2c"
	name: "scale4_29_branch2c"
	type: "Scale"
	scale_param {
		bias_term: true
	}
}
layer {
  type: "Eltwise"
  bottom: "res4_28_relu"
  bottom: "scale4_29_branch2c"
  name: "res4_29"
  top: "res4_29"
}
layer {
  name: "res4_29_relu"
  type: "ReLU"
  bottom: "res4_29"
  top: "res4_29_relu"
}
layer {
  name: "res4_30_branch2a"
  type: "Convolution"
  bottom: "res4_29_relu"
  top: "res4_30_branch2a"
  convolution_param {
    num_output: 256
    pad: 0
    kernel_size: 1
    stride: 1
    bias_term: false
    weight_filler {
      type: "msra"
    }
  }
}
layer {
	bottom: "res4_30_branch2a"
	top: "bn4_30_branch2a"
	name: "bn4_30_branch2a"
	type: "BatchNorm"
	include {
		phase: TRAIN
	}
	batch_norm_param {
		use_global_stats: false
	}
	param {
    		lr_mult: 0
  	}
	 param {
    		lr_mult: 0
  	}
  	param {
    		lr_mult: 0
  	}
}

layer {
	bottom: "res4_30_branch2a"
	top: "bn4_30_branch2a"
	name: "bn4_30_branch2a"
	type: "BatchNorm"
	include {
		phase: TEST
	}
	batch_norm_param {
		use_global_stats: true
	}
	param {
    		lr_mult: 0
  	}
	 param {
    		lr_mult: 0
  	}
  	param {
    		lr_mult: 0
  	}
}

layer {
	bottom: "bn4_30_branch2a"
	top: "scale4_30_branch2a"
	name: "scale4_30_branch2a"
	type: "Scale"
	scale_param {
		bias_term: true
	}
}
layer {
  name: "res4_30_branch2a_relu"
  type: "ReLU"
  bottom: "scale4_30_branch2a"
  top: "res4_30_branch2a_relu"
}
layer {
  name: "res4_30_branch2b"
  type: "Convolution"
  bottom: "res4_30_branch2a_relu"
  top: "res4_30_branch2b"
  convolution_param {
    num_output: 256
    pad: 1
    kernel_size: 3
    stride: 1
    bias_term: false
    weight_filler {
      type: "msra"
    }
  }
}
layer {
	bottom: "res4_30_branch2b"
	top: "bn4_30_branch2b"
	name: "bn4_30_branch2b"
	type: "BatchNorm"
	include {
		phase: TRAIN
	}
	batch_norm_param {
		use_global_stats: false
	}
	param {
    		lr_mult: 0
  	}
	 param {
    		lr_mult: 0
  	}
  	param {
    		lr_mult: 0
  	}
}

layer {
	bottom: "res4_30_branch2b"
	top: "bn4_30_branch2b"
	name: "bn4_30_branch2b"
	type: "BatchNorm"
	include {
		phase: TEST
	}
	batch_norm_param {
		use_global_stats: true
	}
	param {
    		lr_mult: 0
  	}
	 param {
    		lr_mult: 0
  	}
  	param {
    		lr_mult: 0
  	}
}

layer {
	bottom: "bn4_30_branch2b"
	top: "scale4_30_branch2b"
	name: "scale4_30_branch2b"
	type: "Scale"
	scale_param {
		bias_term: true
	}
}
layer {
  name: "res4_30_branch2b_relu"
  type: "ReLU"
  bottom: "scale4_30_branch2b"
  top: "res4_30_branch2b_relu"
}
layer {
  name: "res4_30_branch2c"
  type: "Convolution"
  bottom: "res4_30_branch2b_relu"
  top: "res4_30_branch2c"
  convolution_param {
    num_output: 1024
    pad: 0
    kernel_size: 1
    stride: 1
    bias_term: false
    weight_filler {
      type: "msra"
    }
  }
}
layer {
	bottom: "res4_30_branch2c"
	top: "bn4_30_branch2c"
	name: "bn4_30_branch2c"
	type: "BatchNorm"
	include {
		phase: TRAIN
	}
	batch_norm_param {
		use_global_stats: false
	}
	param {
    		lr_mult: 0
  	}
	 param {
    		lr_mult: 0
  	}
  	param {
    		lr_mult: 0
  	}
}

layer {
	bottom: "res4_30_branch2c"
	top: "bn4_30_branch2c"
	name: "bn4_30_branch2c"
	type: "BatchNorm"
	include {
		phase: TEST
	}
	batch_norm_param {
		use_global_stats: true
	}
	param {
    		lr_mult: 0
  	}
	 param {
    		lr_mult: 0
  	}
  	param {
    		lr_mult: 0
  	}
}

layer {
	bottom: "bn4_30_branch2c"
	top: "scale4_30_branch2c"
	name: "scale4_30_branch2c"
	type: "Scale"
	scale_param {
		bias_term: true
	}
}
layer {
  type: "Eltwise"
  bottom: "res4_29_relu"
  bottom: "scale4_30_branch2c"
  name: "res4_30"
  top: "res4_30"
}
layer {
  name: "res4_30_relu"
  type: "ReLU"
  bottom: "res4_30"
  top: "res4_30_relu"
}
layer {
  name: "res4_31_branch2a"
  type: "Convolution"
  bottom: "res4_30_relu"
  top: "res4_31_branch2a"
  convolution_param {
    num_output: 256
    pad: 0
    kernel_size: 1
    stride: 1
    bias_term: false
    weight_filler {
      type: "msra"
    }
  }
}
layer {
	bottom: "res4_31_branch2a"
	top: "bn4_31_branch2a"
	name: "bn4_31_branch2a"
	type: "BatchNorm"
	include {
		phase: TRAIN
	}
	batch_norm_param {
		use_global_stats: false
	}
	param {
    		lr_mult: 0
  	}
	 param {
    		lr_mult: 0
  	}
  	param {
    		lr_mult: 0
  	}
}

layer {
	bottom: "res4_31_branch2a"
	top: "bn4_31_branch2a"
	name: "bn4_31_branch2a"
	type: "BatchNorm"
	include {
		phase: TEST
	}
	batch_norm_param {
		use_global_stats: true
	}
	param {
    		lr_mult: 0
  	}
	 param {
    		lr_mult: 0
  	}
  	param {
    		lr_mult: 0
  	}
}

layer {
	bottom: "bn4_31_branch2a"
	top: "scale4_31_branch2a"
	name: "scale4_31_branch2a"
	type: "Scale"
	scale_param {
		bias_term: true
	}
}
layer {
  name: "res4_31_branch2a_relu"
  type: "ReLU"
  bottom: "scale4_31_branch2a"
  top: "res4_31_branch2a_relu"
}
layer {
  name: "res4_31_branch2b"
  type: "Convolution"
  bottom: "res4_31_branch2a_relu"
  top: "res4_31_branch2b"
  convolution_param {
    num_output: 256
    pad: 1
    kernel_size: 3
    stride: 1
    bias_term: false
    weight_filler {
      type: "msra"
    }
  }
}
layer {
	bottom: "res4_31_branch2b"
	top: "bn4_31_branch2b"
	name: "bn4_31_branch2b"
	type: "BatchNorm"
	include {
		phase: TRAIN
	}
	batch_norm_param {
		use_global_stats: false
	}
	param {
    		lr_mult: 0
  	}
	 param {
    		lr_mult: 0
  	}
  	param {
    		lr_mult: 0
  	}
}

layer {
	bottom: "res4_31_branch2b"
	top: "bn4_31_branch2b"
	name: "bn4_31_branch2b"
	type: "BatchNorm"
	include {
		phase: TEST
	}
	batch_norm_param {
		use_global_stats: true
	}
	param {
    		lr_mult: 0
  	}
	 param {
    		lr_mult: 0
  	}
  	param {
    		lr_mult: 0
  	}
}

layer {
	bottom: "bn4_31_branch2b"
	top: "scale4_31_branch2b"
	name: "scale4_31_branch2b"
	type: "Scale"
	scale_param {
		bias_term: true
	}
}
layer {
  name: "res4_31_branch2b_relu"
  type: "ReLU"
  bottom: "scale4_31_branch2b"
  top: "res4_31_branch2b_relu"
}
layer {
  name: "res4_31_branch2c"
  type: "Convolution"
  bottom: "res4_31_branch2b_relu"
  top: "res4_31_branch2c"
  convolution_param {
    num_output: 1024
    pad: 0
    kernel_size: 1
    stride: 1
    bias_term: false
    weight_filler {
      type: "msra"
    }
  }
}
layer {
	bottom: "res4_31_branch2c"
	top: "bn4_31_branch2c"
	name: "bn4_31_branch2c"
	type: "BatchNorm"
	include {
		phase: TRAIN
	}
	batch_norm_param {
		use_global_stats: false
	}
	param {
    		lr_mult: 0
  	}
	 param {
    		lr_mult: 0
  	}
  	param {
    		lr_mult: 0
  	}
}

layer {
	bottom: "res4_31_branch2c"
	top: "bn4_31_branch2c"
	name: "bn4_31_branch2c"
	type: "BatchNorm"
	include {
		phase: TEST
	}
	batch_norm_param {
		use_global_stats: true
	}
	param {
    		lr_mult: 0
  	}
	 param {
    		lr_mult: 0
  	}
  	param {
    		lr_mult: 0
  	}
}

layer {
	bottom: "bn4_31_branch2c"
	top: "scale4_31_branch2c"
	name: "scale4_31_branch2c"
	type: "Scale"
	scale_param {
		bias_term: true
	}
}
layer {
  type: "Eltwise"
  bottom: "res4_30_relu"
  bottom: "scale4_31_branch2c"
  name: "res4_31"
  top: "res4_31"
}
layer {
  name: "res4_31_relu"
  type: "ReLU"
  bottom: "res4_31"
  top: "res4_31_relu"
}
layer {
  name: "res4_32_branch2a"
  type: "Convolution"
  bottom: "res4_31_relu"
  top: "res4_32_branch2a"
  convolution_param {
    num_output: 256
    pad: 0
    kernel_size: 1
    stride: 1
    bias_term: false
    weight_filler {
      type: "msra"
    }
  }
}
layer {
	bottom: "res4_32_branch2a"
	top: "bn4_32_branch2a"
	name: "bn4_32_branch2a"
	type: "BatchNorm"
	include {
		phase: TRAIN
	}
	batch_norm_param {
		use_global_stats: false
	}
	param {
    		lr_mult: 0
  	}
	 param {
    		lr_mult: 0
  	}
  	param {
    		lr_mult: 0
  	}
}

layer {
	bottom: "res4_32_branch2a"
	top: "bn4_32_branch2a"
	name: "bn4_32_branch2a"
	type: "BatchNorm"
	include {
		phase: TEST
	}
	batch_norm_param {
		use_global_stats: true
	}
	param {
    		lr_mult: 0
  	}
	 param {
    		lr_mult: 0
  	}
  	param {
    		lr_mult: 0
  	}
}

layer {
	bottom: "bn4_32_branch2a"
	top: "scale4_32_branch2a"
	name: "scale4_32_branch2a"
	type: "Scale"
	scale_param {
		bias_term: true
	}
}
layer {
  name: "res4_32_branch2a_relu"
  type: "ReLU"
  bottom: "scale4_32_branch2a"
  top: "res4_32_branch2a_relu"
}
layer {
  name: "res4_32_branch2b"
  type: "Convolution"
  bottom: "res4_32_branch2a_relu"
  top: "res4_32_branch2b"
  convolution_param {
    num_output: 256
    pad: 1
    kernel_size: 3
    stride: 1
    bias_term: false
    weight_filler {
      type: "msra"
    }
  }
}
layer {
	bottom: "res4_32_branch2b"
	top: "bn4_32_branch2b"
	name: "bn4_32_branch2b"
	type: "BatchNorm"
	include {
		phase: TRAIN
	}
	batch_norm_param {
		use_global_stats: false
	}
	param {
    		lr_mult: 0
  	}
	 param {
    		lr_mult: 0
  	}
  	param {
    		lr_mult: 0
  	}
}

layer {
	bottom: "res4_32_branch2b"
	top: "bn4_32_branch2b"
	name: "bn4_32_branch2b"
	type: "BatchNorm"
	include {
		phase: TEST
	}
	batch_norm_param {
		use_global_stats: true
	}
	param {
    		lr_mult: 0
  	}
	 param {
    		lr_mult: 0
  	}
  	param {
    		lr_mult: 0
  	}
}

layer {
	bottom: "bn4_32_branch2b"
	top: "scale4_32_branch2b"
	name: "scale4_32_branch2b"
	type: "Scale"
	scale_param {
		bias_term: true
	}
}
layer {
  name: "res4_32_branch2b_relu"
  type: "ReLU"
  bottom: "scale4_32_branch2b"
  top: "res4_32_branch2b_relu"
}
layer {
  name: "res4_32_branch2c"
  type: "Convolution"
  bottom: "res4_32_branch2b_relu"
  top: "res4_32_branch2c"
  convolution_param {
    num_output: 1024
    pad: 0
    kernel_size: 1
    stride: 1
    bias_term: false
    weight_filler {
      type: "msra"
    }
  }
}
layer {
	bottom: "res4_32_branch2c"
	top: "bn4_32_branch2c"
	name: "bn4_32_branch2c"
	type: "BatchNorm"
	include {
		phase: TRAIN
	}
	batch_norm_param {
		use_global_stats: false
	}
	param {
    		lr_mult: 0
  	}
	 param {
    		lr_mult: 0
  	}
  	param {
    		lr_mult: 0
  	}
}

layer {
	bottom: "res4_32_branch2c"
	top: "bn4_32_branch2c"
	name: "bn4_32_branch2c"
	type: "BatchNorm"
	include {
		phase: TEST
	}
	batch_norm_param {
		use_global_stats: true
	}
	param {
    		lr_mult: 0
  	}
	 param {
    		lr_mult: 0
  	}
  	param {
    		lr_mult: 0
  	}
}

layer {
	bottom: "bn4_32_branch2c"
	top: "scale4_32_branch2c"
	name: "scale4_32_branch2c"
	type: "Scale"
	scale_param {
		bias_term: true
	}
}
layer {
  type: "Eltwise"
  bottom: "res4_31_relu"
  bottom: "scale4_32_branch2c"
  name: "res4_32"
  top: "res4_32"
}
layer {
  name: "res4_32_relu"
  type: "ReLU"
  bottom: "res4_32"
  top: "res4_32_relu"
}
layer {
  name: "res4_33_branch2a"
  type: "Convolution"
  bottom: "res4_32_relu"
  top: "res4_33_branch2a"
  convolution_param {
    num_output: 256
    pad: 0
    kernel_size: 1
    stride: 1
    bias_term: false
    weight_filler {
      type: "msra"
    }
  }
}
layer {
	bottom: "res4_33_branch2a"
	top: "bn4_33_branch2a"
	name: "bn4_33_branch2a"
	type: "BatchNorm"
	include {
		phase: TRAIN
	}
	batch_norm_param {
		use_global_stats: false
	}
	param {
    		lr_mult: 0
  	}
	 param {
    		lr_mult: 0
  	}
  	param {
    		lr_mult: 0
  	}
}

layer {
	bottom: "res4_33_branch2a"
	top: "bn4_33_branch2a"
	name: "bn4_33_branch2a"
	type: "BatchNorm"
	include {
		phase: TEST
	}
	batch_norm_param {
		use_global_stats: true
	}
	param {
    		lr_mult: 0
  	}
	 param {
    		lr_mult: 0
  	}
  	param {
    		lr_mult: 0
  	}
}

layer {
	bottom: "bn4_33_branch2a"
	top: "scale4_33_branch2a"
	name: "scale4_33_branch2a"
	type: "Scale"
	scale_param {
		bias_term: true
	}
}
layer {
  name: "res4_33_branch2a_relu"
  type: "ReLU"
  bottom: "scale4_33_branch2a"
…
    weight_filler {
      type: "msra"
    }
  }
}
layer {
	bottom: "res5_19_branch2b"
	top: "bn5_19_branch2b"
	name: "bn5_19_branch2b"
	type: "BatchNorm"
	include {
		phase: TRAIN
	}
	batch_norm_param {
		use_global_stats: false
	}
	param {
    		lr_mult: 0
  	}
	 param {
    		lr_mult: 0
  	}
  	param {
    		lr_mult: 0
  	}
}

layer {
	bottom: "res5_19_branch2b"
	top: "bn5_19_branch2b"
	name: "bn5_19_branch2b"
	type: "BatchNorm"
	include {
		phase: TEST
	}
	batch_norm_param {
		use_global_stats: true
	}
	param {
    		lr_mult: 0
  	}
	 param {
    		lr_mult: 0
  	}
  	param {
    		lr_mult: 0
  	}
}

layer {
	bottom: "bn5_19_branch2b"
	top: "scale5_19_branch2b"
	name: "scale5_19_branch2b"
	type: "Scale"
	scale_param {
		bias_term: true
	}
}
layer {
  name: "res5_19_branch2b_relu"
  type: "ReLU"
  bottom: "scale5_19_branch2b"
  top: "res5_19_branch2b_relu"
}
layer {
  name: "res5_19_branch2c"
  type: "Convolution"
  bottom: "res5_19_branch2b_relu"
  top: "res5_19_branch2c"
  convolution_param {
    num_output: 2048
    pad: 0
    kernel_size: 1
    stride: 1
    bias_term: false
    weight_filler {
      type: "msra"
    }
  }
}
layer {
	bottom: "res5_19_branch2c"
	top: "bn5_19_branch2c"
	name: "bn5_19_branch2c"
	type: "BatchNorm"
	include {
		phase: TRAIN
	}
	batch_norm_param {
		use_global_stats: false
	}
	param {
    		lr_mult: 0
  	}
	 param {
    		lr_mult: 0
  	}
  	param {
    		lr_mult: 0
  	}
}

layer {
	bottom: "res5_19_branch2c"
	top: "bn5_19_branch2c"
	name: "bn5_19_branch2c"
	type: "BatchNorm"
	include {
		phase: TEST
	}
	batch_norm_param {
		use_global_stats: true
	}
	param {
    		lr_mult: 0
  	}
	 param {
    		lr_mult: 0
  	}
  	param {
    		lr_mult: 0
  	}
}

layer {
	bottom: "bn5_19_branch2c"
	top: "scale5_19_branch2c"
	name: "scale5_19_branch2c"
	type: "Scale"
	scale_param {
		bias_term: true
	}
}
layer {
  type: "Eltwise"
  bottom: "res5_18_relu"
  bottom: "scale5_19_branch2c"
  name: "res5_19"
  top: "res5_19"
}
layer {
  name: "res5_19_relu"
  type: "ReLU"
  bottom: "res5_19"
  top: "res5_19_relu"
}
layer {
  name: "res5_20_branch2a"
  type: "Convolution"
  bottom: "res5_19_relu"
  top: "res5_20_branch2a"
  convolution_param {
    num_output: 512
    pad: 0
    kernel_size: 1
    stride: 1
    bias_term: false
    weight_filler {
      type: "msra"
    }
  }
}
layer {
	bottom: "res5_20_branch2a"
	top: "bn5_20_branch2a"
	name: "bn5_20_branch2a"
	type: "BatchNorm"
	include {
		phase: TRAIN
	}
	batch_norm_param {
		use_global_stats: false
	}
	param {
    		lr_mult: 0
  	}
	 param {
    		lr_mult: 0
  	}
  	param {
    		lr_mult: 0
  	}
}

layer {
	bottom: "res5_20_branch2a"
	top: "bn5_20_branch2a"
	name: "bn5_20_branch2a"
	type: "BatchNorm"
	include {
		phase: TEST
	}
	batch_norm_param {
		use_global_stats: true
	}
	param {
    		lr_mult: 0
  	}
	 param {
    		lr_mult: 0
  	}
  	param {
    		lr_mult: 0
  	}
}

layer {
	bottom: "bn5_20_branch2a"
	top: "scale5_20_branch2a"
	name: "scale5_20_branch2a"
	type: "Scale"
	scale_param {
		bias_term: true
	}
}
layer {
  name: "res5_20_branch2a_relu"
  type: "ReLU"
  bottom: "scale5_20_branch2a"
  top: "res5_20_branch2a_relu"
}
layer {
  name: "res5_20_branch2b"
  type: "Convolution"
  bottom: "res5_20_branch2a_relu"
  top: "res5_20_branch2b"
  convolution_param {
    num_output: 512
    pad: 1
    kernel_size: 3
    stride: 1
    bias_term: false
    weight_filler {
      type: "msra"
    }
  }
}
layer {
	bottom: "res5_20_branch2b"
	top: "bn5_20_branch2b"
	name: "bn5_20_branch2b"
	type: "BatchNorm"
	include {
		phase: TRAIN
	}
	batch_norm_param {
		use_global_stats: false
	}
	param {
    		lr_mult: 0
  	}
	 param {
    		lr_mult: 0
  	}
  	param {
    		lr_mult: 0
  	}
}

layer {
	bottom: "res5_20_branch2b"
	top: "bn5_20_branch2b"
	name: "bn5_20_branch2b"
	type: "BatchNorm"
	include {
		phase: TEST
	}
	batch_norm_param {
		use_global_stats: true
	}
	param {
    		lr_mult: 0
  	}
	 param {
    		lr_mult: 0
  	}
  	param {
    		lr_mult: 0
  	}
}

layer {
	bottom: "bn5_20_branch2b"
	top: "scale5_20_branch2b"
	name: "scale5_20_branch2b"
	type: "Scale"
	scale_param {
		bias_term: true
	}
}
layer {
  name: "res5_20_branch2b_relu"
  type: "ReLU"
  bottom: "scale5_20_branch2b"
  top: "res5_20_branch2b_relu"
}
layer {
  name: "res5_20_branch2c"
  type: "Convolution"
  bottom: "res5_20_branch2b_relu"
  top: "res5_20_branch2c"
  convolution_param {
    num_output: 2048
    pad: 0
    kernel_size: 1
    stride: 1
    bias_term: false
    weight_filler {
      type: "msra"
    }
  }
}
layer {
	bottom: "res5_20_branch2c"
	top: "bn5_20_branch2c"
	name: "bn5_20_branch2c"
	type: "BatchNorm"
	include {
		phase: TRAIN
	}
	batch_norm_param {
		use_global_stats: false
	}
	param {
    		lr_mult: 0
  	}
	 param {
    		lr_mult: 0
  	}
  	param {
    		lr_mult: 0
  	}
}

layer {
	bottom: "res5_20_branch2c"
	top: "bn5_20_branch2c"
	name: "bn5_20_branch2c"
	type: "BatchNorm"
	include {
		phase: TEST
	}
	batch_norm_param {
		use_global_stats: true
	}
	param {
    		lr_mult: 0
  	}
	 param {
    		lr_mult: 0
  	}
  	param {
    		lr_mult: 0
  	}
}

layer {
	bottom: "bn5_20_branch2c"
	top: "scale5_20_branch2c"
	name: "scale5_20_branch2c"
	type: "Scale"
	scale_param {
		bias_term: true
	}
}
layer {
  type: "Eltwise"
  bottom: "res5_19_relu"
  bottom: "scale5_20_branch2c"
  name: "res5_20"
  top: "res5_20"
}
layer {
  name: "res5_20_relu"
  type: "ReLU"
  bottom: "res5_20"
  top: "res5_20_relu"
}
layer {
  name: "res5_21_branch2a"
  type: "Convolution"
  bottom: "res5_20_relu"
  top: "res5_21_branch2a"
  convolution_param {
    num_output: 512
    pad: 0
    kernel_size: 1
    stride: 1
    bias_term: false
    weight_filler {
      type: "msra"
    }
  }
}
layer {
	bottom: "res5_21_branch2a"
	top: "bn5_21_branch2a"
	name: "bn5_21_branch2a"
	type: "BatchNorm"
	include {
		phase: TRAIN
	}
	batch_norm_param {
		use_global_stats: false
	}
	param {
    		lr_mult: 0
  	}
	 param {
    		lr_mult: 0
  	}
  	param {
    		lr_mult: 0
  	}
}

layer {
	bottom: "res5_21_branch2a"
	top: "bn5_21_branch2a"
	name: "bn5_21_branch2a"
	type: "BatchNorm"
	include {
		phase: TEST
	}
	batch_norm_param {
		use_global_stats: true
	}
	param {
    		lr_mult: 0
  	}
	 param {
    		lr_mult: 0
  	}
  	param {
    		lr_mult: 0
  	}
}

layer {
	bottom: "bn5_21_branch2a"
	top: "scale5_21_branch2a"
	name: "scale5_21_branch2a"
	type: "Scale"
	scale_param {
		bias_term: true
	}
}
layer {
  name: "res5_21_branch2a_relu"
  type: "ReLU"
  bottom: "scale5_21_branch2a"
  top: "res5_21_branch2a_relu"
}
layer {
  name: "res5_21_branch2b"
  type: "Convolution"
  bottom: "res5_21_branch2a_relu"
  top: "res5_21_branch2b"
  convolution_param {
    num_output: 512
    pad: 1
    kernel_size: 3
    stride: 1
    bias_term: false
    weight_filler {
      type: "msra"
    }
  }
}
layer {
	bottom: "res5_21_branch2b"
	top: "bn5_21_branch2b"
	name: "bn5_21_branch2b"
	type: "BatchNorm"
	include {
		phase: TRAIN
	}
	batch_norm_param {
		use_global_stats: false
	}
	param {
    		lr_mult: 0
  	}
	 param {
    		lr_mult: 0
  	}
  	param {
    		lr_mult: 0
  	}
}

layer {
	bottom: "res5_21_branch2b"
	top: "bn5_21_branch2b"
	name: "bn5_21_branch2b"
	type: "BatchNorm"
	include {
		phase: TEST
	}
	batch_norm_param {
		use_global_stats: true
	}
	param {
    		lr_mult: 0
  	}
	 param {
    		lr_mult: 0
  	}
  	param {
    		lr_mult: 0
  	}
}

layer {
	bottom: "bn5_21_branch2b"
	top: "scale5_21_branch2b"
	name: "scale5_21_branch2b"
	type: "Scale"
	scale_param {
		bias_term: true
	}
}
layer {
  name: "res5_21_branch2b_relu"
  type: "ReLU"
  bottom: "scale5_21_branch2b"
  top: "res5_21_branch2b_relu"
}
layer {
  name: "res5_21_branch2c"
  type: "Convolution"
  bottom: "res5_21_branch2b_relu"
  top: "res5_21_branch2c"
  convolution_param {
    num_output: 2048
    pad: 0
    kernel_size: 1
    stride: 1
    bias_term: false
    weight_filler {
      type: "msra"
    }
  }
}
layer {
	bottom: "res5_21_branch2c"
	top: "bn5_21_branch2c"
	name: "bn5_21_branch2c"
	type: "BatchNorm"
	include {
		phase: TRAIN
	}
	batch_norm_param {
		use_global_stats: false
	}
	param {
    		lr_mult: 0
  	}
	 param {
    		lr_mult: 0
  	}
  	param {
    		lr_mult: 0
  	}
}

layer {
	bottom: "res5_21_branch2c"
	top: "bn5_21_branch2c"
	name: "bn5_21_branch2c"
	type: "BatchNorm"
	include {
		phase: TEST
	}
	batch_norm_param {
		use_global_stats: true
	}
	param {
    		lr_mult: 0
  	}
	 param {
    		lr_mult: 0
  	}
  	param {
    		lr_mult: 0
  	}
}

layer {
	bottom: "bn5_21_branch2c"
	top: "scale5_21_branch2c"
	name: "scale5_21_branch2c"
	type: "Scale"
	scale_param {
		bias_term: true
	}
}
layer {
  type: "Eltwise"
  bottom: "res5_20_relu"
  bottom: "scale5_21_branch2c"
  name: "res5_21"
  top: "res5_21"
}
layer {
  name: "res5_21_relu"
  type: "ReLU"
  bottom: "res5_21"
  top: "res5_21_relu"
}
layer {
  name: "res5_22_branch2a"
  type: "Convolution"
  bottom: "res5_21_relu"
  top: "res5_22_branch2a"
  convolution_param {
    num_output: 512
    pad: 0
    kernel_size: 1
    stride: 1
    bias_term: false
    weight_filler {
      type: "msra"
    }
  }
}
layer {
	bottom: "res5_22_branch2a"
	top: "bn5_22_branch2a"
	name: "bn5_22_branch2a"
	type: "BatchNorm"
	include {
		phase: TRAIN
	}
	batch_norm_param {
		use_global_stats: false
	}
	param {
    		lr_mult: 0
  	}
	 param {
    		lr_mult: 0
  	}
  	param {
    		lr_mult: 0
  	}
}

layer {
	bottom: "res5_22_branch2a"
	top: "bn5_22_branch2a"
	name: "bn5_22_branch2a"
	type: "BatchNorm"
	include {
		phase: TEST
	}
	batch_norm_param {
		use_global_stats: true
	}
	param {
    		lr_mult: 0
  	}
	 param {
    		lr_mult: 0
  	}
  	param {
    		lr_mult: 0
  	}
}

layer {
	bottom: "bn5_22_branch2a"
	top: "scale5_22_branch2a"
	name: "scale5_22_branch2a"
	type: "Scale"
	scale_param {
		bias_term: true
	}
}
layer {
  name: "res5_22_branch2a_relu"
  type: "ReLU"
  bottom: "scale5_22_branch2a"
  top: "res5_22_branch2a_relu"
}
layer {
  name: "res5_22_branch2b"
  type: "Convolution"
  bottom: "res5_22_branch2a_relu"
  top: "res5_22_branch2b"
  convolution_param {
    num_output: 512
    pad: 1
    kernel_size: 3
    stride: 1
    bias_term: false
    weight_filler {
      type: "msra"
    }
  }
}
layer {
	bottom: "res5_22_branch2b"
	top: "bn5_22_branch2b"
	name: "bn5_22_branch2b"
	type: "BatchNorm"
	include {
		phase: TRAIN
	}
	batch_norm_param {
		use_global_stats: false
	}
	param {
    		lr_mult: 0
  	}
	 param {
    		lr_mult: 0
  	}
  	param {
    		lr_mult: 0
  	}
}

layer {
	bottom: "res5_22_branch2b"
	top: "bn5_22_branch2b"
	name: "bn5_22_branch2b"
	type: "BatchNorm"
	include {
		phase: TEST
	}
	batch_norm_param {
		use_global_stats: true
	}
	param {
    		lr_mult: 0
  	}
	 param {
    		lr_mult: 0
  	}
  	param {
    		lr_mult: 0
  	}
}

layer {
	bottom: "bn5_22_branch2b"
	top: "scale5_22_branch2b"
	name: "scale5_22_branch2b"
	type: "Scale"
	scale_param {
		bias_term: true
	}
}
layer {
  name: "res5_22_branch2b_relu"
  type: "ReLU"
  bottom: "scale5_22_branch2b"
  top: "res5_22_branch2b_relu"
}
layer {
  name: "res5_22_branch2c"
  type: "Convolution"
  bottom: "res5_22_branch2b_relu"
  top: "res5_22_branch2c"
  convolution_param {
    num_output: 2048
    pad: 0
    kernel_size: 1
    stride: 1
    bias_term: false
    weight_filler {
      type: "msra"
    }
  }
}
layer {
	bottom: "res5_22_branch2c"
	top: "bn5_22_branch2c"
	name: "bn5_22_branch2c"
	type: "BatchNorm"
	include {
		phase: TRAIN
	}
	batch_norm_param {
		use_global_stats: false
	}
	param {
    		lr_mult: 0
  	}
	 param {
    		lr_mult: 0
  	}
  	param {
    		lr_mult: 0
  	}
}

layer {
	bottom: "res5_22_branch2c"
	top: "bn5_22_branch2c"
	name: "bn5_22_branch2c"
	type: "BatchNorm"
	include {
		phase: TEST
	}
	batch_norm_param {
		use_global_stats: true
	}
	param {
    		lr_mult: 0
  	}
	 param {
    		lr_mult: 0
  	}
  	param {
    		lr_mult: 0
  	}
}

layer {
	bottom: "bn5_22_branch2c"
	top: "scale5_22_branch2c"
	name: "scale5_22_branch2c"
	type: "Scale"
	scale_param {
		bias_term: true
	}
}
layer {
  type: "Eltwise"
  bottom: "res5_21_relu"
  bottom: "scale5_22_branch2c"
  name: "res5_22"
  top: "res5_22"
}
layer {
  name: "res5_22_relu"
  type: "ReLU"
  bottom: "res5_22"
  top: "res5_22_relu"
}
layer {
  name: "res5_23_branch2a"
  type: "Convolution"
  bottom: "res5_22_relu"
  top: "res5_23_branch2a"
  convolution_param {
    num_output: 512
    pad: 0
    kernel_size: 1
    stride: 1
    bias_term: false
    weight_filler {
      type: "msra"
    }
  }
}
layer {
	bottom: "res5_23_branch2a"
	top: "bn5_23_branch2a"
	name: "bn5_23_branch2a"
	type: "BatchNorm"
	include {
		phase: TRAIN
	}
	batch_norm_param {
		use_global_stats: false
	}
	param {
    		lr_mult: 0
  	}
	 param {
    		lr_mult: 0
  	}
  	param {
    		lr_mult: 0
  	}
}

layer {
	bottom: "res5_23_branch2a"
	top: "bn5_23_branch2a"
	name: "bn5_23_branch2a"
	type: "BatchNorm"
	include {
		phase: TEST
	}
	batch_norm_param {
		use_global_stats: true
	}
	param {
    		lr_mult: 0
  	}
	 param {
    		lr_mult: 0
  	}
  	param {
    		lr_mult: 0
  	}
}

layer {
	bottom: "bn5_23_branch2a"
	top: "scale5_23_branch2a"
	name: "scale5_23_branch2a"
	type: "Scale"
	scale_param {
		bias_term: true
	}
}
layer {
  name: "res5_23_branch2a_relu"
  type: "ReLU"
  bottom: "scale5_23_branch2a"
  top: "res5_23_branch2a_relu"
}
layer {
  name: "res5_23_branch2b"
  type: "Convolution"
  bottom: "res5_23_branch2a_relu"
  top: "res5_23_branch2b"
  convolution_param {
    num_output: 512
    pad: 1
    kernel_size: 3
    stride: 1
    bias_term: false
    weight_filler {
      type: "msra"
    }
  }
}
layer {
	bottom: "res5_23_branch2b"
	top: "bn5_23_branch2b"
	name: "bn5_23_branch2b"
	type: "BatchNorm"
	include {
		phase: TRAIN
	}
	batch_norm_param {
		use_global_stats: false
	}
	param {
    		lr_mult: 0
  	}
	 param {
    		lr_mult: 0
  	}
  	param {
    		lr_mult: 0
  	}
}

layer {
	bottom: "res5_23_branch2b"
	top: "bn5_23_branch2b"
	name: "bn5_23_branch2b"
	type: "BatchNorm"
	include {
		phase: TEST
	}
	batch_norm_param {
		use_global_stats: true
	}
	param {
    		lr_mult: 0
  	}
	 param {
    		lr_mult: 0
  	}
  	param {
    		lr_mult: 0
  	}
}

layer {
	bottom: "bn5_23_branch2b"
	top: "scale5_23_branch2b"
	name: "scale5_23_branch2b"
	type: "Scale"
	scale_param {
		bias_term: true
	}
}
layer {
  name: "res5_23_branch2b_relu"
  type: "ReLU"
  bottom: "scale5_23_branch2b"
  top: "res5_23_branch2b_relu"
}
layer {
  name: "res5_23_branch2c"
  type: "Convolution"
  bottom: "res5_23_branch2b_relu"
  top: "res5_23_branch2c"
  convolution_param {
    num_output: 2048
    pad: 0
    kernel_size: 1
    stride: 1
    bias_term: false
    weight_filler {
      type: "msra"
    }
  }
}
layer {
	bottom: "res5_23_branch2c"
	top: "bn5_23_branch2c"
	name: "bn5_23_branch2c"
	type: "BatchNorm"
	include {
		phase: TRAIN
	}
	batch_norm_param {
		use_global_stats: false
	}
	param {
    		lr_mult: 0
  	}
	 param {
    		lr_mult: 0
  	}
  	param {
    		lr_mult: 0
  	}
}

layer {
	bottom: "res5_23_branch2c"
	top: "bn5_23_branch2c"
	name: "bn5_23_branch2c"
	type: "BatchNorm"
	include {
		phase: TEST
	}
	batch_norm_param {
		use_global_stats: true
	}
	param {
    		lr_mult: 0
  	}
	 param {
    		lr_mult: 0
  	}
  	param {
    		lr_mult: 0
  	}
}

layer {
	bottom: "bn5_23_branch2c"
	top: "scale5_23_branch2c"
	name: "scale5_23_branch2c"
	type: "Scale"
	scale_param {
		bias_term: true
	}
}
layer {
  type: "Eltwise"
  bottom: "res5_22_relu"
  bottom: "scale5_23_branch2c"
  name: "res5_23"
  top: "res5_23"
}
layer {
  name: "res5_23_relu"
  type: "ReLU"
  bottom: "res5_23"
  top: "res5_23_relu"
}
layer {
  name: "res5_24_branch2a"
  type: "Convolution"
  bottom: "res5_23_relu"
  top: "res5_24_branch2a"
  convolution_param {
    num_output: 512
    pad: 0
    kernel_size: 1
    stride: 1
    bias_term: false
    weight_filler {
      type: "msra"
    }
  }
}
layer {
	bottom: "res5_24_branch2a"
	top: "bn5_24_branch2a"
	name: "bn5_24_branch2a"
	type: "BatchNorm"
	include {
		phase: TRAIN
	}
	batch_norm_param {
		use_global_stats: false
	}
	param {
    		lr_mult: 0
  	}
	 param {
    		lr_mult: 0
  	}
  	param {
    		lr_mult: 0
  	}
}

layer {
	bottom: "res5_24_branch2a"
	top: "bn5_24_branch2a"
	name: "bn5_24_branch2a"
	type: "BatchNorm"
	include {
		phase: TEST
	}
	batch_norm_param {
		use_global_stats: true
	}
	param {
    		lr_mult: 0
  	}
	 param {
    		lr_mult: 0
  	}
  	param {
    		lr_mult: 0
  	}
}

layer {
	bottom: "bn5_24_branch2a"
	top: "scale5_24_branch2a"
	name: "scale5_24_branch2a"
	type: "Scale"
	scale_param {
		bias_term: true
	}
}
layer {
  name: "res5_24_branch2a_relu"
  type: "ReLU"
  bottom: "scale5_24_branch2a"
  top: "res5_24_branch2a_relu"
}
layer {
  name: "res5_24_branch2b"
  type: "Convolution"
  bottom: "res5_24_branch2a_relu"
  top: "res5_24_branch2b"
  convolution_param {
    num_output: 512
    pad: 1
    kernel_size: 3
    stride: 1
    bias_term: false
    weight_filler {
      type: "msra"
    }
  }
}
layer {
	bottom: "res5_24_branch2b"
	top: "bn5_24_branch2b"
	name: "bn5_24_branch2b"
	type: "BatchNorm"
	include {
		phase: TRAIN
	}
	batch_norm_param {
		use_global_stats: false
	}
	param {
    		lr_mult: 0
  	}
	 param {
    		lr_mult: 0
  	}
  	param {
    		lr_mult: 0
  	}
}

layer {
	bottom: "res5_24_branch2b"
	top: "bn5_24_branch2b"
	name: "bn5_24_branch2b"
	type: "BatchNorm"
	include {
		phase: TEST
	}
	batch_norm_param {
		use_global_stats: true
	}
	param {
    		lr_mult: 0
  	}
	 param {
    		lr_mult: 0
  	}
  	param {
    		lr_mult: 0
  	}
}

layer {
	bottom: "bn5_24_branch2b"
	top: "scale5_24_branch2b"
	name: "scale5_24_branch2b"
	type: "Scale"
	scale_param {
		bias_term: true
	}
}
layer {
  name: "res5_24_branch2b_relu"
  type: "ReLU"
  bottom: "scale5_24_branch2b"
  top: "res5_24_branch2b_relu"
}
layer {
  name: "res5_24_branch2c"
  type: "Convolution"
  bottom: "res5_24_branch2b_relu"
  top: "res5_24_branch2c"
  convolution_param {
    num_output: 2048
    pad: 0
    kernel_size: 1
    stride: 1
    bias_term: false
    weight_filler {
      type: "msra"
    }
  }
}
layer {
	bottom: "res5_24_branch2c"
	top: "bn5_24_branch2c"
	name: "bn5_24_branch2c"
	type: "BatchNorm"
	include {
		phase: TRAIN
	}
	batch_norm_param {
		use_global_stats: false
	}
	param {
    		lr_mult: 0
  	}
	 param {
    		lr_mult: 0
  	}
  	param {
    		lr_mult: 0
  	}
}

layer {
	bottom: "res5_24_branch2c"
	top: "bn5_24_branch2c"
	name: "bn5_24_branch2c"
	type: "BatchNorm"
	include {
		phase: TEST
	}
	batch_norm_param {
		use_global_stats: true
	}
	param {
    		lr_mult: 0
  	}
	 param {
    		lr_mult: 0
  	}
  	param {
    		lr_mult: 0
  	}
}

layer {
	bottom: "bn5_24_branch2c"
	top: "scale5_24_branch2c"
	name: "scale5_24_branch2c"
	type: "Scale"
	scale_param {
		bias_term: true
	}
}
layer {
  type: "Eltwise"
  bottom: "res5_23_relu"
  bottom: "scale5_24_branch2c"
  name: "res5_24"
  top: "res5_24"
}
layer {
  name: "res5_24_relu"
  type: "ReLU"
  bottom: "res5_24"
  top: "res5_24_relu"
}
layer {
  name: "res5_25_branch2a"
  type: "Convolution"
  bottom: "res5_24_relu"
  top: "res5_25_branch2a"
  convolution_param {
    num_output: 512
    pad: 0
    kernel_size: 1
    stride: 1
    bias_term: false
    weight_filler {
      type: "msra"
    }
  }
}
layer {
	bottom: "res5_25_branch2a"
	top: "bn5_25_branch2a"
	name: "bn5_25_branch2a"
	type: "BatchNorm"
	include {
		phase: TRAIN
	}
	batch_norm_param {
		use_global_stats: false
	}
	param {
    		lr_mult: 0
  	}
	 param {
    		lr_mult: 0
  	}
  	param {
    		lr_mult: 0
  	}
}

layer {
	bottom: "res5_25_branch2a"
	top: "bn5_25_branch2a"
	name: "bn5_25_branch2a"
	type: "BatchNorm"
	include {
		phase: TEST
	}
	batch_norm_param {
		use_global_stats: true
	}
	param {
    		lr_mult: 0
  	}
	 param {
    		lr_mult: 0
  	}
  	param {
    		lr_mult: 0
  	}
}

layer {
	bottom: "bn5_25_branch2a"
	top: "scale5_25_branch2a"
	name: "scale5_25_branch2a"
	type: "Scale"
	scale_param {
		bias_term: true
	}
}
layer {
  name: "res5_25_branch2a_relu"
  type: "ReLU"
  bottom: "scale5_25_branch2a"
  top: "res5_25_branch2a_relu"
}
layer {
  name: "res5_25_branch2b"
  type: "Convolution"
  bottom: "res5_25_branch2a_relu"
  top: "res5_25_branch2b"
  convolution_param {
    num_output: 512
    pad: 1
    kernel_size: 3
    stride: 1
    bias_term: false
    weight_filler {
      type: "msra"
    }
  }
}
layer {
	bottom: "res5_25_branch2b"
	top: "bn5_25_branch2b"
	name: "bn5_25_branch2b"
	type: "BatchNorm"
	include {
		phase: TRAIN
	}
	batch_norm_param {
		use_global_stats: false
	}
	param {
    		lr_mult: 0
  	}
	 param {
    		lr_mult: 0
  	}
  	param {
    		lr_mult: 0
  	}
}

layer {
	bottom: "res5_25_branch2b"
	top: "bn5_25_branch2b"
	name: "bn5_25_branch2b"
	type: "BatchNorm"
	include {
		phase: TEST
	}
	batch_norm_param {
		use_global_stats: true
	}
	param {
    		lr_mult: 0
  	}
	 param {
    		lr_mult: 0
  	}
  	param {
    		lr_mult: 0
  	}
}

layer {
	bottom: "bn5_25_branch2b"
	top: "scale5_25_branch2b"
	name: "scale5_25_branch2b"
	type: "Scale"
	scale_param {
		bias_term: true
	}
}
layer {
  name: "res5_25_branch2b_relu"
  type: "ReLU"
  bottom: "scale5_25_branch2b"
  top: "res5_25_branch2b_relu"
}
layer {
  name: "res5_25_branch2c"
  type: "Convolution"
  bottom: "res5_25_branch2b_relu"
  top: "res5_25_branch2c"
  convolution_param {
    num_output: 2048
    pad: 0
    kernel_size: 1
    stride: 1
    bias_term: false
    weight_filler {
      type: "msra"
    }
  }
}
layer {
	bottom: "res5_25_branch2c"
	top: "bn5_25_branch2c"
	name: "bn5_25_branch2c"
	type: "BatchNorm"
	include {
		phase: TRAIN
	}
	batch_norm_param {
		use_global_stats: false
	}
	param {
    		lr_mult: 0
  	}
	 param {
    		lr_mult: 0
  	}
  	param {
    		lr_mult: 0
  	}
}

layer {
	bottom: "res5_25_branch2c"
	top: "bn5_25_branch2c"
	name: "bn5_25_branch2c"
	type: "BatchNorm"
	include {
		phase: TEST
	}
	batch_norm_param {
		use_global_stats: true
	}
	param {
    		lr_mult: 0
  	}
	 param {
    		lr_mult: 0
  	}
  	param {
    		lr_mult: 0
  	}
}

layer {
	bottom: "bn5_25_branch2c"
	top: "scale5_25_branch2c"
	name: "scale5_25_branch2c"
	type: "Scale"
	scale_param {
		bias_term: true
	}
}
layer {
  type: "Eltwise"
  bottom: "res5_24_relu"
  bottom: "scale5_25_branch2c"
  name: "res5_25"
  top: "res5_25"
}
layer {
  name: "res5_25_relu"
  type: "ReLU"
  bottom: "res5_25"
  top: "res5_25_relu"
}
layer {
  name: "res5_26_branch2a"
  type: "Convolution"
  bottom: "res5_25_relu"
  top: "res5_26_branch2a"
  convolution_param {
    num_output: 512
    pad: 0
    kernel_size: 1
    stride: 1
    bias_term: false
    weight_filler {
      type: "msra"
    }
  }
}
layer {
	bottom: "res5_26_branch2a"
	top: "bn5_26_branch2a"
	name: "bn5_26_branch2a"
	type: "BatchNorm"
	include {
		phase: TRAIN
	}
	batch_norm_param {
		use_global_stats: false
	}
	param {
    		lr_mult: 0
  	}
	 param {
    		lr_mult: 0
  	}
  	param {
    		lr_mult: 0
  	}
}

layer {
	bottom: "res5_26_branch2a"
	top: "bn5_26_branch2a"
	name: "bn5_26_branch2a"
	type: "BatchNorm"
	include {
		phase: TEST
	}
	batch_norm_param {
		use_global_stats: true
	}
	param {
    		lr_mult: 0
  	}
	 param {
    		lr_mult: 0
  	}
  	param {
    		lr_mult: 0
  	}
}

layer {
	bottom: "bn5_26_branch2a"
	top: "scale5_26_branch2a"
	name: "scale5_26_branch2a"
	type: "Scale"
	scale_param {
		bias_term: true
	}
}
layer {
  name: "res5_26_branch2a_relu"
  type: "ReLU"
  bottom: "scale5_26_branch2a"
  top: "res5_26_branch2a_relu"
}
layer {
  name: "res5_26_branch2b"
  type: "Convolution"
  bottom: "res5_26_branch2a_relu"
  top: "res5_26_branch2b"
  convolution_param {
    num_output: 512
    pad: 1
    kernel_size: 3
    stride: 1
    bias_term: false
    weight_filler {
      type: "msra"
    }
  }
}
layer {
	bottom: "res5_26_branch2b"
	top: "bn5_26_branch2b"
	name: "bn5_26_branch2b"
	type: "BatchNorm"
	include {
		phase: TRAIN
	}
	batch_norm_param {
		use_global_stats: false
	}
	param {
    		lr_mult: 0
  	}
	 param {
    		lr_mult: 0
  	}
  	param {
    		lr_mult: 0
  	}
}

layer {
	bottom: "res5_26_branch2b"
	top: "bn5_26_branch2b"
	name: "bn5_26_branch2b"
	type: "BatchNorm"
	include {
		phase: TEST
	}
	batch_norm_param {
		use_global_stats: true
	}
	param {
    		lr_mult: 0
  	}
	 param {
    		lr_mult: 0
  	}
  	param {
    		lr_mult: 0
  	}
}

layer {
	bottom: "bn5_26_branch2b"
	top: "scale5_26_branch2b"
	name: "scale5_26_branch2b"
	type: "Scale"
	scale_param {
		bias_term: true
	}
}
layer {
  name: "res5_26_branch2b_relu"
  type: "ReLU"
  bottom: "scale5_26_branch2b"
  top: "res5_26_branch2b_relu"
}
layer {
  name: "res5_26_branch2c"
  type: "Convolution"
  bottom: "res5_26_branch2b_relu"
  top: "res5_26_branch2c"
  convolution_param {
    num_output: 2048
    pad: 0
    kernel_size: 1
    stride: 1
    bias_term: false
    weight_filler {
      type: "msra"
    }
  }
}
layer {
	bottom: "res5_26_branch2c"
	top: "bn5_26_branch2c"
	name: "bn5_26_branch2c"
	type: "BatchNorm"
	include {
		phase: TRAIN
	}
	batch_norm_param {
		use_global_stats: false
	}
	param {
    		lr_mult: 0
  	}
	 param {
    		lr_mult: 0
  	}
  	param {
    		lr_mult: 0
  	}
}

layer {
	bottom: "res5_26_branch2c"
	top: "bn5_26_branch2c"
	name: "bn5_26_branch2c"
	type: "BatchNorm"
	include {
		phase: TEST
	}
	batch_norm_param {
		use_global_stats: true
	}
	param {
    		lr_mult: 0
  	}
	 param {
    		lr_mult: 0
  	}
  	param {
    		lr_mult: 0
  	}
}

layer {
	bottom: "bn5_26_branch2c"
	top: "scale5_26_branch2c"
	name: "scale5_26_branch2c"
	type: "Scale"
	scale_param {
		bias_term: true
	}
}
layer {
  type: "Eltwise"
  bottom: "res5_25_relu"
  bottom: "scale5_26_branch2c"
  name: "res5_26"
  top: "res5_26"
}
layer {
  name: "res5_26_relu"
  type: "ReLU"
  bottom: "res5_26"
  top: "res5_26_relu"
}
layer {
  name: "res5_27_branch2a"
  type: "Convolution"
  bottom: "res5_26_relu"
  top: "res5_27_branch2a"
  convolution_param {
    num_output: 512
    pad: 0
    kernel_size: 1
    stride: 1
    bias_term: false
    weight_filler {
      type: "msra"
    }
  }
}
layer {
	bottom: "res5_27_branch2a"
	top: "bn5_27_branch2a"
	name: "bn5_27_branch2a"
	type: "BatchNorm"
	include {
		phase: TRAIN
	}
	batch_norm_param {
		use_global_stats: false
	}
	param {
    		lr_mult: 0
  	}
	 param {
    		lr_mult: 0
  	}
  	param {
    		lr_mult: 0
  	}
}

layer {
	bottom: "res5_27_branch2a"
	top: "bn5_27_branch2a"
	name: "bn5_27_branch2a"
	type: "BatchNorm"
	include {
		phase: TEST
	}
	batch_norm_param {
		use_global_stats: true
	}
	param {
    		lr_mult: 0
  	}
	 param {
    		lr_mult: 0
  	}
  	param {
    		lr_mult: 0
  	}
}

layer {
	bottom: "bn5_27_branch2a"
	top: "scale5_27_branch2a"
	name: "scale5_27_branch2a"
	type: "Scale"
	scale_param {
		bias_term: true
	}
}
layer {
  name: "res5_27_branch2a_relu"
  type: "ReLU"
  bottom: "scale5_27_branch2a"
  top: "res5_27_branch2a_relu"
}
layer {
  name: "res5_27_branch2b"
  type: "Convolution"
  bottom: "res5_27_branch2a_relu"
  top: "res5_27_branch2b"
  convolution_param {
    num_output: 512
    pad: 1
    kernel_size: 3
    stride: 1
    bias_term: false
    weight_filler {
      type: "msra"
    }
  }
}
layer {
	bottom: "res5_27_branch2b"
	top: "bn5_27_branch2b"
	name: "bn5_27_branch2b"
	type: "BatchNorm"
	include {
		phase: TRAIN
	}
	batch_norm_param {
		use_global_stats: false
	}
	param {
    		lr_mult: 0
  	}
	 param {
    		lr_mult: 0
  	}
  	param {
    		lr_mult: 0
  	}
}

layer {
	bottom: "res5_27_branch2b"
	top: "bn5_27_branch2b"
	name: "bn5_27_branch2b"
	type: "BatchNorm"
	include {
		phase: TEST
	}
	batch_norm_param {
		use_global_stats: true
	}
	param {
    		lr_mult: 0
  	}
	 param {
    		lr_mult: 0
  	}
  	param {
    		lr_mult: 0
  	}
}

layer {
	bottom: "bn5_27_branch2b"
	top: "scale5_27_branch2b"
	name: "scale5_27_branch2b"
	type: "Scale"
	scale_param {
		bias_term: true
	}
}
layer {
  name: "res5_27_branch2b_relu"
  type: "ReLU"
  bottom: "scale5_27_branch2b"
  top: "res5_27_branch2b_relu"
}
layer {
  name: "res5_27_branch2c"
  type: "Convolution"
  bottom: "res5_27_branch2b_relu"
  top: "res5_27_branch2c"
  convolution_param {
    num_output: 2048
    pad: 0
    kernel_size: 1
    stride: 1
    bias_term: false
    weight_filler {
      type: "msra"
    }
  }
}
layer {
	bottom: "res5_27_branch2c"
	top: "bn5_27_branch2c"
	name: "bn5_27_branch2c"
	type: "BatchNorm"
	include {
		phase: TRAIN
	}
	batch_norm_param {
		use_global_stats: false
	}
	param {
    		lr_mult: 0
  	}
	 param {
    		lr_mult: 0
  	}
  	param {
    		lr_mult: 0
  	}
}

layer {
	bottom: "res5_27_branch2c"
	top: "bn5_27_branch2c"
	name: "bn5_27_branch2c"
	type: "BatchNorm"
	include {
		phase: TEST
	}
	batch_norm_param {
		use_global_stats: true
	}
	param {
    		lr_mult: 0
  	}
	 param {
    		lr_mult: 0
  	}
  	param {
    		lr_mult: 0
  	}
}

layer {
	bottom: "bn5_27_branch2c"
	top: "scale5_27_branch2c"
	name: "scale5_27_branch2c"
	type: "Scale"
	scale_param {
		bias_term: true
	}
}
layer {
  type: "Eltwise"
  bottom: "res5_26_relu"
  bottom: "scale5_27_branch2c"
  name: "res5_27"
  top: "res5_27"
}
layer {
  name: "res5_27_relu"
  type: "ReLU"
  bottom: "res5_27"
  top: "res5_27_relu"
}
layer {
  name: "res5_28_branch2a"
  type: "Convolution"
  bottom: "res5_27_relu"
  top: "res5_28_branch2a"
  convolution_param {
    num_output: 512
    pad: 0
    kernel_size: 1
    stride: 1
    bias_term: false
    weight_filler {
      type: "msra"
    }
  }
}
layer {
	bottom: "res5_28_branch2a"
	top: "bn5_28_branch2a"
	name: "bn5_28_branch2a"
	type: "BatchNorm"
	include {
		phase: TRAIN
	}
	batch_norm_param {
		use_global_stats: false
	}
	param {
    		lr_mult: 0
  	}
	 param {
    		lr_mult: 0
  	}
  	param {
    		lr_mult: 0
  	}
}

layer {
	bottom: "res5_28_branch2a"
	top: "bn5_28_branch2a"
	name: "bn5_28_branch2a"
	type: "BatchNorm"
	include {
		phase: TEST
	}
	batch_norm_param {
		use_global_stats: true
	}
	param {
    		lr_mult: 0
  	}
	 param {
    		lr_mult: 0
  	}
  	param {
    		lr_mult: 0
  	}
}

layer {
	bottom: "bn5_28_branch2a"
	top: "scale5_28_branch2a"
	name: "scale5_28_branch2a"
	type: "Scale"
	scale_param {
		bias_term: true
	}
}
layer {
  name: "res5_28_branch2a_relu"
  type: "ReLU"
  bottom: "scale5_28_branch2a"
  top: "res5_28_branch2a_relu"
}
layer {
  name: "res5_28_branch2b"
  type: "Convolution"
  bottom: "res5_28_branch2a_relu"
  top: "res5_28_branch2b"
  convolution_param {
    num_output: 512
    pad: 1
    kernel_size: 3
    stride: 1
    bias_term: false
    weight_filler {
      type: "msra"
    }
  }
}
layer {
	bottom: "res5_28_branch2b"
	top: "bn5_28_branch2b"
	name: "bn5_28_branch2b"
	type: "BatchNorm"
	include {
		phase: TRAIN
	}
	batch_norm_param {
		use_global_stats: false
	}
	param {
    		lr_mult: 0
  	}
	 param {
    		lr_mult: 0
  	}
  	param {
    		lr_mult: 0
  	}
}

layer {
	bottom: "res5_28_branch2b"
	top: "bn5_28_branch2b"
	name: "bn5_28_branch2b"
	type: "BatchNorm"
	include {
		phase: TEST
	}
	batch_norm_param {
		use_global_stats: true
	}
	param {
    		lr_mult: 0
  	}
	 param {
    		lr_mult: 0
  	}
  	param {
    		lr_mult: 0
  	}
}

layer {
	bottom: "bn5_28_branch2b"
	top: "scale5_28_branch2b"
	name: "scale5_28_branch2b"
	type: "Scale"
	scale_param {
		bias_term: true
	}
}
layer {
  name: "res5_28_branch2b_relu"
  type: "ReLU"
  bottom: "scale5_28_branch2b"
  top: "res5_28_branch2b_relu"
}
layer {
  name: "res5_28_branch2c"
  type: "Convolution"
  bottom: "res5_28_branch2b_relu"
  top: "res5_28_branch2c"
  convolution_param {
    num_output: 2048
    pad: 0
    kernel_size: 1
    stride: 1
    bias_term: false
    weight_filler {
      type: "msra"
    }
  }
}
layer {
	bottom: "res5_28_branch2c"
	top: "bn5_28_branch2c"
	name: "bn5_28_branch2c"
	type: "BatchNorm"
	include {
		phase: TRAIN
	}
	batch_norm_param {
		use_global_stats: false
	}
	param {
    		lr_mult: 0
  	}
	 param {
    		lr_mult: 0
  	}
  	param {
    		lr_mult: 0
  	}
}

layer {
	bottom: "res5_28_branch2c"
	top: "bn5_28_branch2c"
	name: "bn5_28_branch2c"
	type: "BatchNorm"
	include {
		phase: TEST
	}
	batch_norm_param {
		use_global_stats: true
	}
	param {
    		lr_mult: 0
  	}
	 param {
    		lr_mult: 0
  	}
  	param {
    		lr_mult: 0
  	}
}

layer {
	bottom: "bn5_28_branch2c"
	top: "scale5_28_branch2c"
	name: "scale5_28_branch2c"
	type: "Scale"
	scale_param {
		bias_term: true
	}
}
layer {
  type: "Eltwise"
  bottom: "res5_27_relu"
  bottom: "scale5_28_branch2c"
  name: "res5_28"
  top: "res5_28"
}
layer {
  name: "res5_28_relu"
  type: "ReLU"
  bottom: "res5_28"
  top: "res5_28_relu"
}
layer {
  name: "res5_29_branch2a"
  type: "Convolution"
  bottom: "res5_28_relu"
  top: "res5_29_branch2a"
  convolution_param {
    num_output: 512
    pad: 0
    kernel_size: 1
    stride: 1
    bias_term: false
    weight_filler {
      type: "msra"
    }
  }
}
layer {
	bottom: "res5_29_branch2a"
	top: "bn5_29_branch2a"
	name: "bn5_29_branch2a"
	type: "BatchNorm"
	include {
		phase: TRAIN
	}
	batch_norm_param {
		use_global_stats: false
	}
	param {
    		lr_mult: 0
  	}
	 param {
    		lr_mult: 0
  	}
  	param {
    		lr_mult: 0
  	}
}

layer {
	bottom: "res5_29_branch2a"
	top: "bn5_29_branch2a"
	name: "bn5_29_branch2a"
	type: "BatchNorm"
	include {
		phase: TEST
	}
	batch_norm_param {
		use_global_stats: true
	}
	param {
    		lr_mult: 0
  	}
	 param {
    		lr_mult: 0
  	}
  	param {
    		lr_mult: 0
  	}
}

layer {
	bottom: "bn5_29_branch2a"
	top: "scale5_29_branch2a"
	name: "scale5_29_branch2a"
	type: "Scale"
	scale_param {
		bias_term: true
	}
}
layer {
  name: "res5_29_branch2a_relu"
  type: "ReLU"
  bottom: "scale5_29_branch2a"
  top: "res5_29_branch2a_relu"
}
layer {
  name: "res5_29_branch2b"
  type: "Convolution"
  bottom: "res5_29_branch2a_relu"
  top: "res5_29_branch2b"
  convolution_param {
    num_output: 512
    pad: 1
    kernel_size: 3
    stride: 1
    bias_term: false
    weight_filler {
      type: "msra"
    }
  }
}
layer {
	bottom: "res5_29_branch2b"
	top: "bn5_29_branch2b"
	name: "bn5_29_branch2b"
	type: "BatchNorm"
	include {
		phase: TRAIN
	}
	batch_norm_param {
		use_global_stats: false
	}
	param {
    		lr_mult: 0
  	}
	 param {
    		lr_mult: 0
  	}
  	param {
    		lr_mult: 0
  	}
}

layer {
	bottom: "res5_29_branch2b"
	top: "bn5_29_branch2b"
	name: "bn5_29_branch2b"
	type: "BatchNorm"
	include {
		phase: TEST
	}
	batch_norm_param {
		use_global_stats: true
	}
	param {
    		lr_mult: 0
  	}
	 param {
    		lr_mult: 0
  	}
  	param {
    		lr_mult: 0
  	}
}

layer {
	bottom: "bn5_29_branch2b"
	top: "scale5_29_branch2b"
	name: "scale5_29_branch2b"
	type: "Scale"
	scale_param {
		bias_term: true
	}
}
layer {
  name: "res5_29_branch2b_relu"
  type: "ReLU"
  bottom: "scale5_29_branch2b"
  top: "res5_29_branch2b_relu"
}
layer {
  name: "res5_29_branch2c"
  type: "Convolution"
  bottom: "res5_29_branch2b_relu"
  top: "res5_29_branch2c"
  convolution_param {
    num_output: 2048
    pad: 0
    kernel_size: 1
    stride: 1
    bias_term: false
    weight_filler {
      type: "msra"
    }
  }
}
layer {
	bottom: "res5_29_branch2c"
	top: "bn5_29_branch2c"
	name: "bn5_29_branch2c"
	type: "BatchNorm"
	include {
		phase: TRAIN
	}
	batch_norm_param {
		use_global_stats: false
	}
	param {
    		lr_mult: 0
  	}
	 param {
    		lr_mult: 0
  	}
  	param {
    		lr_mult: 0
  	}
}

layer {
	bottom: "res5_29_branch2c"
	top: "bn5_29_branch2c"
	name: "bn5_29_branch2c"
	type: "BatchNorm"
	include {
		phase: TEST
	}
	batch_norm_param {
		use_global_stats: true
	}
	param {
    		lr_mult: 0
  	}
	 param {
    		lr_mult: 0
  	}
  	param {
    		lr_mult: 0
  	}
}

layer {
	bottom: "bn5_29_branch2c"
	top: "scale5_29_branch2c"
	name: "scale5_29_branch2c"
	type: "Scale"
	scale_param {
		bias_term: true
	}
}
layer {
  type: "Eltwise"
  bottom: "res5_28_relu"
  bottom: "scale5_29_branch2c"
  name: "res5_29"
  top: "res5_29"
}
layer {
  name: "res5_29_relu"
  type: "ReLU"
  bottom: "res5_29"
  top: "res5_29_relu"
}
layer {
  name: "res5_30_branch2a"
  type: "Convolution"
  bottom: "res5_29_relu"
  top: "res5_30_branch2a"
  convolution_param {
    num_output: 512
    pad: 0
    kernel_size: 1
    stride: 1
    bias_term: false
    weight_filler {
      type: "msra"
    }
  }
}
layer {
	bottom: "res5_30_branch2a"
	top: "bn5_30_branch2a"
	name: "bn5_30_branch2a"
	type: "BatchNorm"
	include {
		phase: TRAIN
	}
	batch_norm_param {
		use_global_stats: false
	}
	param {
    		lr_mult: 0
  	}
	 param {
    		lr_mult: 0
  	}
  	param {
    		lr_mult: 0
  	}
}

layer {
	bottom: "res5_30_branch2a"
	top: "bn5_30_branch2a"
	name: "bn5_30_branch2a"
	type: "BatchNorm"
	include {
		phase: TEST
	}
	batch_norm_param {
		use_global_stats: true
	}
	param {
    		lr_mult: 0
  	}
	 param {
    		lr_mult: 0
  	}
  	param {
    		lr_mult: 0
  	}
}

layer {
	bottom: "bn5_30_branch2a"
	top: "scale5_30_branch2a"
	name: "scale5_30_branch2a"
	type: "Scale"
	scale_param {
		bias_term: true
	}
}
layer {
  name: "res5_30_branch2a_relu"
  type: "ReLU"
  bottom: "scale5_30_branch2a"
  top: "res5_30_branch2a_relu"
}
layer {
  name: "res5_30_branch2b"
  type: "Convolution"
  bottom: "res5_30_branch2a_relu"
  top: "res5_30_branch2b"
  convolution_param {
    num_output: 512
    pad: 1
    kernel_size: 3
    stride: 1
    bias_term: false
    weight_filler {
      type: "msra"
    }
  }
}
layer {
	bottom: "res5_30_branch2b"
	top: "bn5_30_branch2b"
	name: "bn5_30_branch2b"
	type: "BatchNorm"
	include {
		phase: TRAIN
	}
	batch_norm_param {
		use_global_stats: false
	}
	param {
    		lr_mult: 0
  	}
	 param {
    		lr_mult: 0
  	}
  	param {
    		lr_mult: 0
  	}
}

layer {
	bottom: "res5_30_branch2b"
	top: "bn5_30_branch2b"
	name: "bn5_30_branch2b"
	type: "BatchNorm"
	include {
		phase: TEST
	}
	batch_norm_param {
		use_global_stats: true
	}
	param {
    		lr_mult: 0
  	}
	 param {
    		lr_mult: 0
  	}
  	param {
    		lr_mult: 0
  	}
}

layer {
	bottom: "bn5_30_branch2b"
	top: "scale5_30_branch2b"
	name: "scale5_30_branch2b"
	type: "Scale"
	scale_param {
		bias_term: true
	}
}
layer {
  name: "res5_30_branch2b_relu"
  type: "ReLU"
  bottom: "scale5_30_branch2b"
  top: "res5_30_branch2b_relu"
}
layer {
  name: "res5_30_branch2c"
  type: "Convolution"
  bottom: "res5_30_branch2b_relu"
  top: "res5_30_branch2c"
  convolution_param {
    num_output: 2048
    pad: 0
    kernel_size: 1
    stride: 1
    bias_term: false
    weight_filler {
      type: "msra"
    }
  }
}
layer {
	bottom: "res5_30_branch2c"
	top: "bn5_30_branch2c"
	name: "bn5_30_branch2c"
	type: "BatchNorm"
	include {
		phase: TRAIN
	}
	batch_norm_param {
		use_global_stats: false
	}
	param {
    		lr_mult: 0
  	}
	 param {
    		lr_mult: 0
  	}
  	param {
    		lr_mult: 0
  	}
}

layer {
	bottom: "res5_30_branch2c"
	top: "bn5_30_branch2c"
	name: "bn5_30_branch2c"
	type: "BatchNorm"
	include {
		phase: TEST
	}
	batch_norm_param {
		use_global_stats: true
	}
	param {
    		lr_mult: 0
  	}
	 param {
    		lr_mult: 0
  	}
  	param {
    		lr_mult: 0
  	}
}

layer {
	bottom: "bn5_30_branch2c"
	top: "scale5_30_branch2c"
	name: "scale5_30_branch2c"
	type: "Scale"
	scale_param {
		bias_term: true
	}
}
layer {
  type: "Eltwise"
  bottom: "res5_29_relu"
  bottom: "scale5_30_branch2c"
  name: "res5_30"
  top: "res5_30"
}
layer {
  name: "res5_30_relu"
  type: "ReLU"
  bottom: "res5_30"
  top: "res5_30_relu"
}
layer {
  name: "res5_31_branch2a"
  type: "Convolution"
  bottom: "res5_30_relu"
  top: "res5_31_branch2a"
  convolution_param {
    num_output: 512
    pad: 0
    kernel_size: 1
    stride: 1
    bias_term: false
    weight_filler {
      type: "msra"
    }
  }
}
layer {
	bottom: "res5_31_branch2a"
	top: "bn5_31_branch2a"
	name: "bn5_31_branch2a"
	type: "BatchNorm"
	include {
		phase: TRAIN
	}
	batch_norm_param {
		use_global_stats: false
	}
	param {
    		lr_mult: 0
  	}
	 param {
    		lr_mult: 0
  	}
  	param {
    		lr_mult: 0
  	}
}

layer {
	bottom: "res5_31_branch2a"
	top: "bn5_31_branch2a"
	name: "bn5_31_branch2a"
	type: "BatchNorm"
	include {
		phase: TEST
	}
	batch_norm_param {
		use_global_stats: true
	}
	param {
    		lr_mult: 0
  	}
	 param {
    		lr_mult: 0
  	}
  	param {
    		lr_mult: 0
  	}
}

layer {
	bottom: "bn5_31_branch2a"
	top: "scale5_31_branch2a"
	name: "scale5_31_branch2a"
	type: "Scale"
	scale_param {
		bias_term: true
	}
}
layer {
  name: "res5_31_branch2a_relu"
  type: "ReLU"
  bottom: "scale5_31_branch2a"
  top: "res5_31_branch2a_relu"
}
layer {
  name: "res5_31_branch2b"
  type: "Convolution"
  bottom: "res5_31_branch2a_relu"
  top: "res5_31_branch2b"
  convolution_param {
    num_output: 512
    pad: 1
    kernel_size: 3
    stride: 1
    bias_term: false
    weight_filler {
      type: "msra"
    }
  }
}
layer {
	bottom: "res5_31_branch2b"
	top: "bn5_31_branch2b"
	name: "bn5_31_branch2b"
	type: "BatchNorm"
	include {
		phase: TRAIN
	}
	batch_norm_param {
		use_global_stats: false
	}
	param {
    		lr_mult: 0
  	}
	 param {
    		lr_mult: 0
  	}
  	param {
    		lr_mult: 0
  	}
}

layer {
	bottom: "res5_31_branch2b"
	top: "bn5_31_branch2b"
	name: "bn5_31_branch2b"
	type: "BatchNorm"
	include {
		phase: TEST
	}
	batch_norm_param {
		use_global_stats: true
	}
	param {
    		lr_mult: 0
  	}
	 param {
    		lr_mult: 0
  	}
  	param {
    		lr_mult: 0
  	}
}

layer {
	bottom: "bn5_31_branch2b"
	top: "scale5_31_branch2b"
	name: "scale5_31_branch2b"
	type: "Scale"
	scale_param {
		bias_term: true
	}
}
layer {
  name: "res5_31_branch2b_relu"
  type: "ReLU"
  bottom: "scale5_31_branch2b"
  top: "res5_31_branch2b_relu"
}
layer {
  name: "res5_31_branch2c"
  type: "Convolution"
  bottom: "res5_31_branch2b_relu"
  top: "res5_31_branch2c"
  convolution_param {
    num_output: 2048
    pad: 0
    kernel_size: 1
    stride: 1
    bias_term: false
    weight_filler {
      type: "msra"
    }
  }
}
layer {
	bottom: "res5_31_branch2c"
	top: "bn5_31_branch2c"
	name: "bn5_31_branch2c"
	type: "BatchNorm"
	include {
		phase: TRAIN
	}
	batch_norm_param {
		use_global_stats: false
	}
	param {
    		lr_mult: 0
  	}
	 param {
    		lr_mult: 0
  	}
  	param {
    		lr_mult: 0
  	}
}

layer {
	bottom: "res5_31_branch2c"
	top: "bn5_31_branch2c"
	name: "bn5_31_branch2c"
	type: "BatchNorm"
	include {
		phase: TEST
	}
	batch_norm_param {
		use_global_stats: true
	}
	param {
    		lr_mult: 0
  	}
	 param {
    		lr_mult: 0
  	}
  	param {
    		lr_mult: 0
  	}
}

layer {
	bottom: "bn5_31_branch2c"
	top: "scale5_31_branch2c"
	name: "scale5_31_branch2c"
	type: "Scale"
	scale_param {
		bias_term: true
	}
}
layer {
  type: "Eltwise"
  bottom: "res5_30_relu"
  bottom: "scale5_31_branch2c"
  name: "res5_31"
  top: "res5_31"
}
layer {
  name: "res5_31_relu"
  type: "ReLU"
  bottom: "res5_31"
  top: "res5_31_relu"
}
layer {
  name: "res5_32_branch2a"
  type: "Convolution"
  bottom: "res5_31_relu"
  top: "res5_32_branch2a"
  convolution_param {
    num_output: 512
    pad: 0
    kernel_size: 1
    stride: 1
    bias_term: false
    weight_filler {
      type: "msra"
    }
  }
}
layer {
	bottom: "res5_32_branch2a"
	top: "bn5_32_branch2a"
	name: "bn5_32_branch2a"
	type: "BatchNorm"
	include {
		phase: TRAIN
	}
	batch_norm_param {
		use_global_stats: false
	}
	param {
    		lr_mult: 0
  	}
	 param {
    		lr_mult: 0
  	}
  	param {
    		lr_mult: 0
  	}
}

layer {
	bottom: "res5_32_branch2a"
	top: "bn5_32_branch2a"
	name: "bn5_32_branch2a"
	type: "BatchNorm"
	include {
		phase: TEST
	}
	batch_norm_param {
		use_global_stats: true
	}
	param {
    		lr_mult: 0
  	}
	 param {
    		lr_mult: 0
  	}
  	param {
    		lr_mult: 0
  	}
}

layer {
	bottom: "bn5_32_branch2a"
	top: "scale5_32_branch2a"
	name: "scale5_32_branch2a"
	type: "Scale"
	scale_param {
		bias_term: true
	}
}
layer {
  name: "res5_32_branch2a_relu"
  type: "ReLU"
  bottom: "scale5_32_branch2a"
  top: "res5_32_branch2a_relu"
}
layer {
  name: "res5_32_branch2b"
  type: "Convolution"
  bottom: "res5_32_branch2a_relu"
  top: "res5_32_branch2b"
  convolution_param {
    num_output: 512
    pad: 1
    kernel_size: 3
    stride: 1
    bias_term: false
    weight_filler {
      type: "msra"
    }
  }
}
layer {
	bottom: "res5_32_branch2b"
	top: "bn5_32_branch2b"
	name: "bn5_32_branch2b"
	type: "BatchNorm"
	include {
		phase: TRAIN
	}
	batch_norm_param {
		use_global_stats: false
	}
	param {
    		lr_mult: 0
  	}
	 param {
    		lr_mult: 0
  	}
  	param {
    		lr_mult: 0
  	}
}

layer {
	bottom: "res5_32_branch2b"
	top: "bn5_32_branch2b"
	name: "bn5_32_branch2b"
	type: "BatchNorm"
	include {
		phase: TEST
	}
	batch_norm_param {
		use_global_stats: true
	}
	param {
    		lr_mult: 0
  	}
	 param {
    		lr_mult: 0
  	}
  	param {
    		lr_mult: 0
  	}
}

layer {
	bottom: "bn5_32_branch2b"
	top: "scale5_32_branch2b"
	name: "scale5_32_branch2b"
	type: "Scale"
	scale_param {
		bias_term: true
	}
}
layer {
  name: "res5_32_branch2b_relu"
  type: "ReLU"
  bottom: "scale5_32_branch2b"
  top: "res5_32_branch2b_relu"
}
layer {
  name: "res5_32_branch2c"
  type: "Convolution"
  bottom: "res5_32_branch2b_relu"
  top: "res5_32_branch2c"
  convolution_param {
    num_output: 2048
    pad: 0
    kernel_size: 1
    stride: 1
    bias_term: false
    weight_filler {
      type: "msra"
    }
  }
}
layer {
	bottom: "res5_32_branch2c"
	top: "bn5_32_branch2c"
	name: "bn5_32_branch2c"
	type: "BatchNorm"
	include {
		phase: TRAIN
	}
	batch_norm_param {
		use_global_stats: false
	}
	param {
    		lr_mult: 0
  	}
	 param {
    		lr_mult: 0
  	}
  	param {
    		lr_mult: 0
  	}
}

layer {
	bottom: "res5_32_branch2c"
	top: "bn5_32_branch2c"
	name: "bn5_32_branch2c"
	type: "BatchNorm"
	include {
		phase: TEST
	}
	batch_norm_param {
		use_global_stats: true
	}
	param {
    		lr_mult: 0
  	}
	 param {
    		lr_mult: 0
  	}
  	param {
    		lr_mult: 0
  	}
}

layer {
	bottom: "bn5_32_branch2c"
	top: "scale5_32_branch2c"
	name: "scale5_32_branch2c"
	type: "Scale"
	scale_param {
		bias_term: true
	}
}
layer {
  type: "Eltwise"
  bottom: "res5_31_relu"
  bottom: "scale5_32_branch2c"
  name: "res5_32"
  top: "res5_32"
}
layer {
  name: "res5_32_relu"
  type: "ReLU"
  bottom: "res5_32"
  top: "res5_32_relu"
}
layer {
  name: "res5_33_branch2a"
  type: "Convolution"
  bottom: "res5_32_relu"
  top: "res5_33_branch2a"
  convolution_param {
    num_output: 512
    pad: 0
    kernel_size: 1
    stride: 1
    bias_term: false
    weight_filler {
      type: "msra"
    }
  }
}
layer {
	bottom: "res5_33_branch2a"
	top: "bn5_33_branch2a"
	name: "bn5_33_branch2a"
	type: "BatchNorm"
	include {
		phase: TRAIN
	}
	batch_norm_param {
		use_global_stats: false
	}
	param {
    		lr_mult: 0
  	}
	 param {
    		lr_mult: 0
  	}
  	param {
    		lr_mult: 0
  	}
}

layer {
	bottom: "res5_33_branch2a"
	top: "bn5_33_branch2a"
	name: "bn5_33_branch2a"
	type: "BatchNorm"
	include {
		phase: TEST
	}
	batch_norm_param {
		use_global_stats: true
	}
	param {
    		lr_mult: 0
  	}
	 param {
    		lr_mult: 0
  	}
  	param {
    		lr_mult: 0
  	}
}

layer {
	bottom: "bn5_33_branch2a"
	top: "scale5_33_branch2a"
	name: "scale5_33_branch2a"
	type: "Scale"
	scale_param {
		bias_term: true
	}
}
layer {
  name: "res5_33_branch2a_relu"
  type: "ReLU"
  bottom: "scale5_33_branch2a"
  top: "res5_33_branch2a_relu"
}
layer {
  name: "res5_33_branch2b"
  type: "Convolution"
  bottom: "res5_33_branch2a_relu"
  top: "res5_33_branch2b"
  convolution_param {
    num_output: 512
    pad: 1
    kernel_size: 3
    stride: 1
    bias_term: false
    weight_filler {
      type: "msra"
    }
  }
}
layer {
	bottom: "res5_33_branch2b"
	top: "bn5_33_branch2b"
	name: "bn5_33_branch2b"
	type: "BatchNorm"
	include {
		phase: TRAIN
	}
	batch_norm_param {
		use_global_stats: false
	}
	param {
    		lr_mult: 0
  	}
	 param {
    		lr_mult: 0
  	}
  	param {
    		lr_mult: 0
  	}
}

layer {
	bottom: "res5_33_branch2b"
	top: "bn5_33_branch2b"
	name: "bn5_33_branch2b"
	type: "BatchNorm"
	include {
		phase: TEST
	}
	batch_norm_param {
		use_global_stats: true
	}
	param {
    		lr_mult: 0
  	}
	 param {
    		lr_mult: 0
  	}
  	param {
    		lr_mult: 0
  	}
}

layer {
	bottom: "bn5_33_branch2b"
	top: "scale5_33_branch2b"
	name: "scale5_33_branch2b"
	type: "Scale"
	scale_param {
		bias_term: true
	}
}
layer {
  name: "res5_33_branch2b_relu"
  type: "ReLU"
  bottom: "scale5_33_branch2b"
  top: "res5_33_branch2b_relu"
}
layer {
  name: "res5_33_branch2c"
  type: "Convolution"
  bottom: "res5_33_branch2b_relu"
  top: "res5_33_branch2c"
  convolution_param {
    num_output: 2048
    pad: 0
    kernel_size: 1
    stride: 1
    bias_term: false
    weight_filler {
      type: "msra"
    }
  }
}
layer {
	bottom: "res5_33_branch2c"
	top: "bn5_33_branch2c"
	name: "bn5_33_branch2c"
	type: "BatchNorm"
	include {
		phase: TRAIN
	}
	batch_norm_param {
		use_global_stats: false
	}
	param {
    		lr_mult: 0
  	}
	 param {
    		lr_mult: 0
  	}
  	param {
    		lr_mult: 0
  	}
}

layer {
	bottom: "res5_33_branch2c"
	top: "bn5_33_branch2c"
	name: "bn5_33_branch2c"
	type: "BatchNorm"
	include {
		phase: TEST
	}
	batch_norm_param {
		use_global_stats: true
	}
	param {
    		lr_mult: 0
  	}
	 param {
    		lr_mult: 0
  	}
  	param {
    		lr_mult: 0
  	}
}

layer {
	bottom: "bn5_33_branch2c"
	top: "scale5_33_branch2c"
	name: "scale5_33_branch2c"
	type: "Scale"
	scale_param {
		bias_term: true
	}
}
layer {
  type: "Eltwise"
  bottom: "res5_32_relu"
  bottom: "scale5_33_branch2c"
  name: "res5_33"
  top: "res5_33"
}
layer {
  name: "res5_33_relu"
  type: "ReLU"
  bottom: "res5_33"
  top: "res5_33_relu"
}
layer {
  name: "pool5"
  type: "Pooling"
  bottom: "res5_33_relu"
  top: "pool5"
  pooling_param {
    pool: AVE
    kernel_size: 7
    stride: 1
  }
}
layer {
  name: "fc5"
  type: "InnerProduct"
  bottom: "pool5"
  top: "fc5"
  param {
    lr_mult: 1
    decay_mult: 1
  }
  param {
    lr_mult: 2
    decay_mult: 0
  }
  inner_product_param {
     num_output: 5
     weight_filler {
       type: "gaussian"
       std: 0.001
     }
     bias_filler {
       type: "constant"
       value: 0
     }
  }
}
layer {
  name: "loss2/softmax"
  type: "SoftmaxWithLoss"
  bottom: "fc5"
  bottom: "label"
  top: "loss2/softmax"
}
layer {
  bottom: "fc5"
  bottom: "label"
  top: "loss1/acc"
  name: "loss1/acc"
  type: "Accuracy"
}
